Navigation/checkpoint.pth (torch_old, 156763 bytes, 6 tensors)

model.0.weight f4 [128, 37]
0	0x3da746fa	0.081678346
1	0x3dc3b96c	0.09556851
2	0xbe1c3d28	-0.15257704
3	0xbe7b5ddd	-0.24547525
4	0xbc8b1f3c	-0.016982667
5	0x3d702b96	0.058635317
6	0x3d11a2e3	0.03555573
7	0x3db04fa7	0.086089425
8	0x3c845edb	0.016158512
9	0x3d7544c7	0.059880044
10	0x3c398bfa	0.011324877
11	0x3c507a80	0.012724519
12	0xbe3ab3d3	-0.1823266
13	0xbe2958b6	-0.16537747
14	0xbe1d0c7d	-0.15336795
15	0x3ad11414	0.0015951418
16	0x3da41496	0.08011739
17	0x3d92dd88	0.0717116
18	0xbd9053ba	-0.070472196
19	0xbbbbf7c6	-0.005736324
20	0x3d43d1dd	0.047807563
21	0x3e0c43e5	0.13697775
22	0x3d029e5e	0.031889312
23	0x3de1bb1e	0.11022018
24	0xbc88ab89	-0.016683357
25	0x3d50a7dd	0.050941337
26	0x3e416235	0.1888512
27	0xbe2391fc	-0.15973657
28	0xbe3af623	-0.18257956
29	0xbd3fd4f2	-0.04683394
30	0xbdf684c6	-0.12037043
31	0x3e8c0b96	0.2735259
32	0xbe37faae	-0.1796672
33	0xbcc90417	-0.024538083
34	0xbdc5a443	-0.09650471
35	0xbddd6555	-0.10810343
36	0xbda892fc	-0.0823116
37	0x3e0177a8	0.12643301
38	0x3e014afa	0.12626258
39	0x3dcee07d	0.101014115
40	0xbd0244c6	-0.03180387
41	0xbcbcf543	-0.023066169
42	0x3d87b90a	0.0662709
43	0xbe7f9604	-0.2495957
44	0xbdf9c9b0	-0.12196672
45	0x3d023d79	0.031796906
46	0xbd928dbb	-0.07155939
47	0x3e06b1af	0.13153718
48	0xbe16bcd8	-0.14720476
49	0x3d342aca	0.04398612
50	0x3e27da4b	0.16391866
51	0x3d81e165	0.06341819
52	0x3df5f512	0.12009634
53	0xbd4d6939	-0.050149176
54	0x3e2d4ee3	0.16924624
55	0xbdc9a757	-0.09846371
56	0xbd790572	-0.06079621
57	0xbdeb00ef	-0.114747874
58	0xbe1518de	-0.14560267
59	0xbc521626	-0.012822663
60	0x3d02b265	0.03190841
61	0x3ce349ff	0.027745245
62	0xbd5eec26	-0.054424427
63	0x3cfd93fa	0.03095435
64	0x3dde34ad	0.10849891
65	0xbb7e6a23	-0.0038820587
66	0xbd99f79c	-0.07517931
67	0x3d805c3e	0.06267594
68	0x3ddd6654	0.10810533
69	0x3e29ce89	0.16582693
70	0xbdb97cf0	-0.09057033
71	0xbdd1f1bb	-0.102511846
72	0x3db14aa8	0.08656818
73	0x3dd7fe0d	0.10546503
74	0xbc03b97e	-0.00803983
75	0x3e22cd87	0.15898715
76	0x3e102b69	0.1407906
77	0xbdc9ff54	-0.09863153
78	0x3d3d4e6c	0.046217367
79	0xbe7e8e2e	-0.24858925
80	0xbe232b38	-0.15934455
81	0x3e35c483	0.17750745
82	0x3e62484f	0.22097896
83	0xbe323438	-0.17402732
84	0xbcb23c1f	-0.021757184
85	0x3bf2f1f1	0.0074140956
86	0x3c2ba31f	0.010475903
87	0xbdc25af0	-0.09490001
88	0x3e7d36fe	0.24728009
89	0x3c0e5f59	0.008689725
90	0x3de06bcb	0.1095806
91	0xbb7b5414	-0.0038349675
92	0xbbc904e3	-0.0061346157
93	0xbc0920a4	-0.008369599
94	0xbe33f37e	-0.17573354
95	0xbe4264dc	-0.18983787
96	0x3dfb4de9	0.122707196
97	0x3d654d3b	0.055981856
98	0xbe3380f9	-0.17529668
99	0xbe0679cc	-0.131324
100	0x3e7c5518	0.24641836
101	0x3dc7b0e4	0.09750536
102	0xbe415d2e	-0.18883201
103	0xbc344ec2	-0.011005105
104	0xbe201765	-0.15633924
105	0xbd46f5f5	-0.048574407
106	0xbd9e8e0b	-0.07741936
107	0xbe45b5fc	-0.19307703
108	0x3d9e220d	0.077213384
109	0xbd53c7f1	-0.05170435
110	0xbd7d87d3	-0.06189711
111	0x3e8d4d5c	0.27598083
112	0xbddf2002	-0.10894777
113	0xbbe798ec	-0.0070677903
114	0x3d6db3b8	0.05803272
115	0xbf0eb810	-0.5574961
116	0xbd678b16	-0.056529127
117	0x3d066f1a	0.0328208
118	0x3d207889	0.03917745
119	0x3e03d46a	0.12873998
120	0x3dea6b42	0.11446239
121	0x3d6b9053	0.057510685
122	0xbd25936e	-0.040423803
123	0x3d2cb905	0.042168636
124	0xbd3310e6	-0.043717287
125	0xbdbb9fab	-0.091613136
126	0x3d9c70de	0.07638715
127	0xbdc9e285	-0.09857658
128	0xbdceb401	-0.10092927
129	0xbdd6b27f	-0.10483264
130	0xbeb461e9	-0.3523095
131	0x3d537097	0.051621046
132	0xbd70b6f2	-0.05876822
133	0x3cefee9b	0.02928858
134	0x3d76b92a	0.06023518
135	0x3bee07ef	0.0072641294
136	0xbd815c4a	-0.06316431
137	0x3d866772	0.065626994
138	0x3da95c7a	0.08269592
139	0x3e1b05dc	0.15138954
140	0x3e1e7e2f	0.15477823
141	0x3d93eda0	0.07223058
142	0x3dfe52c7	0.12418132
143	0x3d93bd5f	0.07213854
144	0x3ce173d5	0.027521053
145	0xbd790e9a	-0.06080494
146	0x3bbb230f	0.0057109664
147	0x3b42acfd	0.002970516
148	0xbd953c4d	-0.07286892
149	0xbe33a84f	-0.17544673
150	0xbdb9b0eb	-0.090669475
151	0xbe6cf1fb	-0.23139183
152	0x3c12c4bb	0.008958037
153	0x3d285bf0	0.041103303
154	0x3e1c6822	0.15274099
155	0xbde3b003	-0.11117556
156	0x3b49d8c3	0.0030799366
157	0x3d2bb568	0.04192105
158	0xbd37d393	-0.044879507
159	0xbd40532e	-0.046954326
160	0xbd2de316	-0.042452894
161	0xbd972229	-0.073795624
162	0xbe4c915b	-0.19977324
163	0xbe2eb266	-0.17060241
164	0xbd9ba44e	-0.07599698
165	0x3a2a4896	0.00064958015
166	0x3ca27bd2	0.019834433
167	0x3d5bfc41	0.053707365
168	0xbe1aef9d	-0.15130468
169	0xbd3e133b	-0.04640506
170	0x3e26c001	0.16284181
171	0xbe1b05a5	-0.15138872
172	0x3e8d5f18	0.27611613
173	0xbc817e4a	-0.01580729
174	0xbdfb0aec	-0.122579426
175	0x3d8e8073	0.069580935
176	0x3dafbdb9	0.085811086
177	0xbd21b718	-0.039481252
178	0x3e26f85e	0.16305682
179	0xbe4f7c9d	-0.2026238
180	0xbdb08633	-0.086193465
181	0xbcb68997	-0.022282405
182	0x3e1296fc	0.14315408
183	0x3db2100c	0.08694467
184	0x3db4f8fa	0.08836551
185	0x3dc55787	0.09635835
186	0xbd2a4751	-0.04157192
187	0xbcb790d9	-0.022407936
188	0xbe82a0f8	-0.25513434
189	0x3dafe062	0.085877195
190	0x3e44fb7d	0.1923656
191	0x3c93ce01	0.018042566
192	0xbe1f9471	-0.1558397
193	0xbe362778	-0.17788494
194	0xbf057318	-0.52128744
195	0xb9c2ea59	-0.00037177166
196	0xbe46998f	-0.19394515
197	0x3d463daf	0.04839867
198	0xbe23eb8d	-0.16007824
199	0xbd033ffb	-0.03204344
200	0x3db2b5a4	0.087260514
201	0x3dd4ea77	0.10396283
202	0xbe1878ef	-0.14889883
203	0xbe8e4223	-0.27784833
204	0xbd6727a0	-0.056434274
205	0x3d72a09d	0.059235204
206	0xbe032313	-0.12806349
207	0x3e38d8cf	0.18051456
208	0x3e1f5037	0.15557943
209	0x3d8a51ca	0.06753881
210	0x3d64f993	0.055902075
211	0xbc088401	-0.008332253
212	0xbdf642b0	-0.120244384
213	0xbd8e2a85	-0.06941704
214	0xbd37f937	-0.044915404
215	0xbabb5dfa	-0.0014294975
216	0xbe3bc307	-0.18336116
217	0xbc9af112	-0.01891378
218	0x3df0c0b6	0.11755507
219	0xbe17bf9b	-0.14819185
220	0x3d49f7cc	0.049308583
221	0x3dfc410a	0.12317093
222	0x3dc82440	0.09772539
223	0x3d94ea1f	0.072712176
224	0xbe9169a9	-0.28400925
225	0x3d8fa9f0	0.07014835
226	0xbe59c9cd	-0.21268387
227	0xbb7536f6	-0.0037416792
228	0xbdfe4e45	-0.124172725
229	0x3d04c41d	0.03241359
230	0xbad2430f	-0.0016041714
231	0x3e1095aa	0.14119592
232	0xbda34075	-0.079712786
233	0x3e4f01e8	0.20215571
234	0x3dd95875	0.10612575
235	0xbd4d5d8f	-0.050138053
236	0x3e6ccfbd	0.23126121
237	0xbddf94ed	-0.10917077
238	0xbe0a224a	-0.13489643
239	0x3df52dcc	0.11971626
240	0x3d5e6be3	0.054302108
241	0x3e4527d5	0.19253476
242	0x3d803a59	0.06261129
243	0xbda5266a	-0.080639675
244	0x3da7d94e	0.081957445
245	0xbe45837a	-0.19288436
246	0x3e441915	0.19150193
247	0xbd50d42c	-0.050983593
248	0xbdcc95cb	-0.09989508
249	0x3ba7e368	0.0051235445
250	0xbde47fd3	-0.11157193
251	0xbda7fc7a	-0.08202453
252	0x3e414a6e	0.18876049
253	0x3ba7c960	0.0051204413
254	0xbe566f69	-0.20940937
255	0xbd74f887	-0.059807327

model.0.bias f4 [128]
0	0x3bc559ca	0.0060226666
1	0x3d91d02d	0.071197845
2	0xbd9b1ead	-0.0757421
3	0xbc4fad58	-0.012675606
4	0xbd1e26dd	-0.03861128
5	0xbdce373f	-0.10069131
6	0x3dcc6067	0.09979325
7	0x3dbfd271	0.093663104
8	0xbe03487c	-0.1282062
9	0x3da75610	0.08170712
10	0xbd0cbe16	-0.034360968
11	0xbd6c84ea	-0.057743944
12	0xbc80bb19	-0.015714215
13	0xbc1a9c00	-0.009436607
14	0xbdc73ec6	-0.0972877
15	0xbc8e7388	-0.017389074
16	0x3db540dd	0.08850262
17	0xbd18b826	-0.037284993
18	0xbd3559d3	-0.044275116
19	0x3bd5bd6b	0.0065228245
20	0xbda11177	-0.07864659
21	0x3dc03145	0.093843974
22	0x3e353909	0.17697538
23	0xbd20c3d8	-0.03924927
24	0x3d8e5156	0.06949107
25	0x3e4a8c65	0.19780119
26	0x3e39479a	0.1809372
27	0xbd8d44fc	-0.06897923
28	0x3b5c58e9	0.003362233
29	0xbdf869cc	-0.12129554
30	0x3dea4c62	0.1144035
31	0x3dcf8f9d	0.10134814
32	0xbd9690d8	-0.073518455
33	0x3cd5a0f7	0.02607773
34	0x3be6a503	0.007038714
35	0xbe0e9084	-0.13922316
36	0x3d81c402	0.06336214
37	0x3d8383fc	0.064216584
38	0x3d857038	0.06515545
39	0x3ae19567	0.0017210663
40	0x3da820ff	0.082094185
41	0x3e0c4803	0.13699345
42	0x3e4d4d24	0.20048958
43	0x3c5443bd	0.012955603
44	0x3db64766	0.08900337
45	0xbd16bff9	-0.036804173
46	0x3d650ce8	0.05592051
47	0xbddce68c	-0.10786161
48	0xbe005fb9	-0.12536515
49	0x3db81707	0.08988767
50	0x3d8b36e0	0.06797576
51	0x3ccad5da	0.024760175
52	0x3d88071d	0.06641982
53	0x3d937013	0.07199111
54	0x3dd98ba0	0.106223345
55	0x3dc1ecd1	0.09468997
56	0xbd516c19	-0.05112848
57	0xbd1aca00	-0.0377903
58	0x3cf60bbb	0.03003489
59	0xbc4f872d	-0.012666506
60	0xbddad0fd	-0.106843926
61	0x3d8e94f6	0.06962006
62	0x3e0cdf69	0.13757099
63	0xbdb28402	-0.08716585
64	0x3e4d3028	0.20037901
65	0x3d8773b7	0.06613868
66	0x3dd5f812	0.10447706
67	0xbd8b56da	-0.06803675
68	0xbe309a9c	-0.17246479
69	0xbd84d3a0	-0.06485677
70	0x3c8d2399	0.017228888
71	0xbcf0a08f	-0.029373435
72	0x3e0d407c	0.1379413
73	0xbe08b521	-0.13350345
74	0xbd93ece4	-0.07222918
75	0xbcbd95c9	-0.023142712
76	0x3e5c5f71	0.21520783
77	0xbdc62baa	-0.09676297
78	0x3e2f8ecb	0.17144315
79	0x3daafaf0	0.08348644
80	0xba89e097	-0.0010519203
81	0x3dccef4f	0.10006582
82	0x3d4d4b05	0.050120372
83	0xbda6ec8b	-0.08150586
84	0xbcefd002	-0.02927399
85	0x3e53fce3	0.20701937
86	0x3dc297d8	0.09501618
87	0xbd9241b9	-0.07141442
88	0x3ce698f7	0.028149111
89	0x3ded64db	0.11591502
90	0x3dd0d87d	0.10197542
91	0x3c5eaad3	0.013590532
92	0xbdf08ddd	-0.11745808
93	0xbe1046a2	-0.14089444
94	0xbd0cbb17	-0.03435811
95	0x3dbb348f	0.09140884
96	0xbc487551	-0.012235002
97	0xbdfdc20d	-0.12390528
98	0xbd86339e	-0.06552814
99	0x3e266f75	0.16253455
100	0xbd9d1fc8	-0.076720774
101	0xbdf8449d	-0.12122462
102	0x3dfc5f44	0.12322858
103	0x3e343902	0.17599872
104	0xbe349770	-0.17635894
105	0xbdf7f90d	-0.121080495
106	0xbd836495	-0.06415669
107	0x3e1aac1f	0.15104721
108	0xbdb3b716	-0.08775155
109	0xbc72fbb6	-0.01483052
110	0x3e186067	0.14880525
111	0xbdbbfa5e	-0.09178613
112	0xbd4c061b	-0.04981051
113	0xbdc6baef	-0.097036235
114	0x3807e93c	3.2403725e-05
115	0x3e4dddad	0.20104094
116	0x3de5326a	0.11191256
117	0x3dc3a810	0.0955354
118	0x3c967343	0.018365508
119	0xbcadc1d3	-0.021210587
120	0xbc3c857e	-0.011506436
121	0x3db5c212	0.088749066
122	0xbd49c083	-0.04925586
123	0xbe221eb4	-0.15832025
124	0x3bd6d666	0.00655632
125	0x3da626dc	0.081128806
126	0x3e3ebcc5	0.18626697
127	0xbc7d79d2	-0.015470939

model.2.weight f4 [256, 128]
0	0xbddf8232	-0.10913505
1	0xbdd0c157	-0.10193127
2	0xbdbb4ea3	-0.09145858
3	0x3daf304d	0.085541345
4	0x3c93d20b	0.018044492
5	0xbe48f88d	-0.19626065
6	0x3d9bddb0	0.07610643
7	0x3c2b0612	0.010438459
8	0x3dfd457d	0.123667695
9	0x3db49dd0	0.08819163
10	0xbc09205b	-0.008369531
11	0xbdf84b00	-0.1212368
12	0x3cc87e24	0.024474211
13	0xbd79f41f	-0.061023828
14	0x3dc2f7a3	0.09519889
15	0x3d44b001	0.048019413
16	0x3ce92237	0.028458698
17	0xbd02746d	-0.031849314
18	0xbc915cfa	-0.01774453
19	0xbd6d00a0	-0.057861924
20	0x3e138824	0.14407402
21	0x3dae584a	0.085129336
22	0xbd5bfb77	-0.053706612
23	0x3d23734e	0.039904885
24	0xbd84c0e4	-0.064821035
25	0x3e25e3a5	0.16200121
26	0xbe06ed8d	-0.13176556
27	0xbe19b763	-0.15011363
28	0xbdf112ca	-0.11771162
29	0x3d88ce87	0.06680017
30	0x3c06e5d3	0.008233505
31	0x3d9aed34	0.07564774
32	0xbd339b62	-0.043849356
33	0xbc5e0180	-0.013550162
34	0xbca1c288	-0.01974608
35	0xbd8c76ac	-0.06858572
36	0x3d235155	0.039872486
37	0xbe4f6800	-0.20254517
38	0xbd2e5cee	-0.042569093
39	0xbe32a51d	-0.17445798
40	0xbd248366	-0.040164374
41	0x398c5f13	0.00026773717
42	0xbe84989f	-0.2589769
43	0xbdb423b5	-0.08795873
44	0x3cdf9385	0.027292022
45	0xbcdb3e34	-0.02676306
46	0xbdc1bb35	-0.09459535
47	0x3db4c814	0.088272244
48	0xbd13301a	-0.035934545
49	0xbe071676	-0.13192162
50	0xbe0a94d9	-0.13533343
51	0xbda6d8cf	-0.08146822
52	0x3dbcc265	0.09216765
53	0xbdeba718	-0.1150648
54	0x3d8cc547	0.06873565
55	0xbc5f84dc	-0.013642516
56	0x3c99805b	0.018737962
57	0xbde2420f	-0.11047756
58	0x3df11359	0.117712684
59	0xbbf7ad9a	-0.0075585367
60	0x3c60f384	0.013729934
61	0xbcc8b77a	-0.024501551
62	0xbd477f3e	-0.048705332
63	0xbdf66323	-0.120306276
64	0x3c33fe9a	0.010985995
65	0xbca24da9	-0.019812422
66	0x3d4da933	0.05021019
67	0xbde183f8	-0.11011499
68	0xbe866021	-0.26245216
69	0xbce069f5	-0.027394274
70	0x3e0dcd8e	0.13847944
71	0xbd2f7b81	-0.042842392
72	0x3befd7fa	0.0073194476
73	0xbc7c1c05	-0.01538754
74	0xbb0b235b	-0.002123079
75	0xbb8f6157	-0.0043756175
76	0xbd9eb405	-0.0774918
77	0xbe1210e3	-0.14264254
78	0x3cf399a9	0.029736357
79	0x3db15bf0	0.08660114
80	0x3da05b32	0.07829894
81	0x3d115b83	0.035487663
82	0x3cfada99	0.030621814
83	0xbdbb205b	-0.09137031
84	0xbd0b8eff	-0.03407192
85	0xbdcac0e8	-0.09900075
86	0x3b091a89	0.0020920357
87	0xbea14a9a	-0.3150223
88	0x3df5d1c8	0.12002903
89	0x3d7155bb	0.05891965
90	0x3b01fb9f	0.0019833816
91	0xbcb79b53	-0.022412932
92	0xbe2f67d6	-0.17129454
93	0xbd0754f2	-0.033039995
94	0x3daaaa76	0.08333294
95	0x3db54fce	0.08853112
96	0xbcf9f046	-0.03051008
97	0x3d069427	0.032856133
98	0xbda75d48	-0.08172089
99	0xbd892eb5	-0.06698362
100	0x3dd48e70	0.1037873
101	0xbd92342a	-0.07138856
102	0xbe64b7c4	-0.22335726
103	0x3aedba40	0.0018137172
104	0x3be074d6	0.0068498654
105	0x3c143ea1	0.009048135
106	0xbb00fba6	-0.0019681244
107	0xbd36466f	-0.044500764
108	0x3ddd90e8	0.10818654
109	0xbd779df3	-0.060453366
110	0xbd631e5c	-0.055448875
111	0xbd89140d	-0.066932775
112	0xbd017ca2	-0.031613
113	0x3dd8f987	0.105944686
114	0xbdd7262c	-0.105053276
115	0x3d3c6166	0.045991324
116	0x3d1c9e7a	0.038237073
117	0xbcae616f	-0.021286694
118	0xbe5b5d0e	-0.21422216
119	0xbd2ff7a8	-0.042960793
120	0x3d8e88c1	0.069596775
121	0xbdec9dd7	-0.11553543
122	0x3c294996	0.010332486
123	0xbb055d90	-0.0020349957
124	0x3dd42892	0.10359301
125	0xbd8f3980	-0.06993389
126	0x3d9b52fb	0.07584187
127	0xbc9020f5	-0.01759384
128	0x3d02f4a4	0.03197159
129	0x3d5b344b	0.053516667
130	0xbb1706dc	-0.002304486
131	0x3d7170dd	0.058945525
132	0xbe9c44ae	-0.30521148
133	0xbdfc13cb	-0.12308463
134	0x3b9b1bcd	0.0047335387
135	0xbd986479	-0.07441039
136	0x3dbc7077	0.092011385
137	0xbca74dd0	-0.020422846
138	0xbcf06a64	-0.029347606
139	0xbab8d71c	-0.0014102194
140	0xbd9cf32b	-0.07663568
141	0x3d9e7370	0.07736862
142	0x3d217c36	0.039425097
143	0xbd8bc248	-0.068241656
144	0x3bbdd23f	0.0057928856
145	0x3d151705	0.036398906
146	0x3cd55bad	0.026044691
147	0x3d900c95	0.0703365
148	0x3b2e2dfc	0.0026577702
149	0xbd79c675	-0.06098028
150	0x3e01eeb5	0.12688716
151	0xbd2a0573	-0.041509103
152	0xbcdd60fe	-0.027023789
153	0x3dd07525	0.101785935
154	0x3db7f1da	0.089816764
155	0xbdca53ef	-0.0987929
156	0x3db4a678	0.08820814
157	0xbdcfa52d	-0.10138927
158	0x3dfc1fe9	0.12310774
159	0xbd48e291	-0.049044196
160	0xbdfc064c	-0.123058885
161	0xbdb0dae3	-0.08635499
162	0x3c737c40	0.0148611665
163	0xbc96fd95	-0.018431464
164	0x3daa2164	0.0830715
165	0x3da29078	0.079377115
166	0xbdcaa03e	-0.09893845
167	0xbe31bd33	-0.1735733
168	0xbd0dd2e6	-0.034624957
169	0x3d0510ff	0.032486912
170	0xbe05e04a	-0.1307384
171	0x3cbe8d03	0.023260599
172	0x3b76bf0d	0.0037650496
173	0xbd63333a	-0.055468775
174	0xbda5f2fe	-0.08102988
175	0x3d97e009	0.07415778
176	0xbd980864	-0.074234754
177	0xbd482e54	-0.048872307
178	0x3e068ccb	0.13139646
179	0x3dc466fa	0.09589954
180	0x3decca0a	0.115619734
181	0xbd10d6df	-0.035361167
182	0x3d658306	0.056033157
183	0x3bc43cfb	0.0059887148
184	0xbd804799	-0.06263656
185	0xbb7586d8	-0.0037464406
186	0xbe61f6b0	-0.2206676
187	0x3dc16c87	0.09444528
188	0xbdd0a105	-0.10186962
189	0x3d963a6b	0.07335361
190	0x3c3116d1	0.0108086625
191	0x3d452af9	0.048136685
192	0x3c7e5987	0.015524275
193	0x3c6d87d5	0.014497717
194	0x3dc2b917	0.09507959
195	0x3db5ef5e	0.08883546
196	0x3d797c5b	0.06090961
197	0x3ae3ea1e	0.0017388498
198	0x3d470bbe	0.048595183
199	0xb866d181	-5.503139e-05
200	0xbd48a96b	-0.048989695
201	0xbd79a024	-0.060943738
202	0x3d1f60d7	0.038910713
203	0xbdf4ac72	-0.11946954
204	0xbd600766	-0.054694556
205	0xbdf74dd2	-0.1207539
206	0xbd70d064	-0.058792487
207	0x3dab0976	0.08351414
208	0x3d9c1c2b	0.0762256
209	0x3d824175	0.06360141
210	0xbdffb8ca	-0.124864176
211	0xbd9db039	-0.076996274
212	0xbb9c2ebe	-0.0047663143
213	0xbb3492c2	-0.0027553295
214	0x3d380f84	0.04493667
215	0x3d4df694	0.050283983
216	0x3cadca73	0.0212147
217	0xbbb91e38	-0.0056493543
218	0xbc523c33	-0.012831735
219	0xbd138494	-0.03601511
220	0xbd3bccd4	-0.045849636
221	0xbdc0028f	-0.09375488
222	0xbc9dc25d	-0.019257719
223	0x3ca4d3e2	0.020120565
224	0xbd1ab748	-0.037772447
225	0xbc6429ae	-0.013925953
226	0x3d126f93	0.035750937
227	0xbbfe76c7	-0.007765624
228	0x3d4fc217	0.050722208
229	0x3dd1e569	0.10248835
230	0x3d3731cd	0.044725228
231	0x3db67c04	0.08910373
232	0x3b6f3647	0.0036500858
233	0xbd89d40a	-0.06729896
234	0x3c282a9c	0.010264065
235	0xbbb1dd61	-0.0054280018
236	0x3a01b999	0.00049486157
237	0xbdb4bc43	-0.088249706
238	0xbc5590a6	-0.013034975
239	0xbc95ca95	-0.018285075
240	0xbd940f33	-0.072294615
241	0x3dad7185	0.08468918
242	0x3c3de939	0.011591249
243	0xbd96414a	-0.07336672
244	0x3c63d127	0.013904846
245	0x3a277e97	0.0006389408
246	0x3d394746	0.045233987
247	0xbdac5dd3	-0.08416333
248	0x3bd810ed	0.0065938146
249	0x3c1deff0	0.009639725
250	0x3d27d164	0.040971175
251	0xbd12aa30	-0.035806835
252	0xbd341b5c	-0.043971404
253	0x3c3728e6	0.011179185
254	0x3d29cea7	0.041456845
255	0xbd53c88e	-0.051704936

model.2.bias f4 [256]
0	0x3cceb006	0.025230419
1	0x3d26293b	0.040566664
2	0x3d982e74	0.07430735
3	0xbd124688	-0.035711795
4	0x3db1a19d	0.086734034
5	0x3db1d98e	0.086840734
6	0xbd96327d	-0.073338486
7	0x3e1f6eb2	0.1556957
8	0xbc85cabf	-0.016332028
9	0x3da1aa18	0.07893771
10	0x3d49b5ea	0.049245752
11	0x3db1e661	0.086865194
12	0x3bf4b2c2	0.0074675987
13	0xbcc191e8	-0.023629144
14	0xbcd3688e	-0.025806691
15	0x3d1314dd	0.03590857
16	0xbc9f5dc4	-0.01945389
17	0xbcae4d4d	-0.021277094
18	0x3d8ecb3b	0.06972357
19	0x3d0ccfd8	0.034377903
20	0xbce7b5d0	-0.028284937
21	0x3d83f61b	0.06443425
22	0x3cc2c9c1	0.023777844
23	0xbd00c434	-0.031437114
24	0x3de3a3e2	0.111152425
25	0x3d4ccb73	0.04999871
26	0x3da225c0	0.079173565
27	0x3c1ee82b	0.009698908
28	0xbd262be1	-0.04056919
29	0xbd37d330	-0.04487914
30	0xbc57ace4	-0.013163779
31	0x3d21c069	0.039490137
32	0xbc164936	-0.009172728
33	0x3d745095	0.05964716
34	0x3e1ba255	0.15198644
35	0x3cd7c0e7	0.0263371
36	0x3c98dd8c	0.01866033
37	0xbd9f4302	-0.077764526
38	0xbdad4bd0	-0.08461726
39	0xbd31df29	-0.043425713
40	0xbcb3c1ef	-0.02194306
41	0xbc330042	-0.010925354
42	0x3de94b0a	0.11391266
43	0x3c7cb483	0.015423897
44	0x3d93c758	0.07215756
45	0xbb3f6c6f	-0.0029208919
46	0xbd1ed76c	-0.03877966
47	0xbd17f8f3	-0.03710265
48	0xbd62dfa8	-0.055389076
49	0x3d3cec32	0.04612369
50	0x3d00be07	0.031431224
51	0x3dcb86b6	0.099378034
52	0x3b3e19c8	0.0029007066
53	0x3c6e4ed8	0.014545165
54	0x3da5e822	0.081009164
55	0x3d521b8a	0.051295795
56	0x3d89c94a	0.06727846
57	0xbddc064e	-0.1074339
58	0xbd4e6ae6	-0.050394915
59	0x3cfda660	0.030963123
60	0xbc886519	-0.01664977
61	0x3da77879	0.08177275
62	0xbbfdbb97	-0.0077433097
63	0x3cd1cc41	0.025610091
64	0x3dcfe502	0.10151102
65	0xbd629546	-0.05531814
66	0x3d3e476b	0.04645483
67	0x3cc76c46	0.024343621
68	0xbd0951b6	-0.03352519
69	0x3d54ecfc	0.05198382
70	0x3d5d0451	0.053959195
71	0xbd51b0ac	-0.051193878
72	0x3cbe5bf0	0.023237199
73	0xbd6bac0b	-0.05753712
74	0xbcbca0c6	-0.023025881
75	0x3d8dd5eb	0.06925567
76	0x3daf7eda	0.08569117
77	0xbd268b8c	-0.040660426
78	0x3d34f731	0.044181053
79	0x3c6e9733	0.014562416
80	0xbc84c67c	-0.016207926
81	0xbbba3609	-0.005682711
82	0xbcee3754	-0.029079117
83	0x3d4f64bd	0.05063318
84	0x3cda6274	0.026658274
85	0x3df34bb0	0.118796706
86	0xbd9474be	-0.07248829
87	0x3d83c4d3	0.064340256
88	0x3e0f28f3	0.13980465
89	0x3dcb453f	0.09925317
90	0x3de3d0a0	0.111237764
91	0x3c55d727	0.013051785
92	0x3d01dde8	0.031705767
93	0x3d8522d4	0.065007836
94	0x3dea8e78	0.11452955
95	0x3c1bc6ee	0.009507878
96	0xbbec9784	-0.0072202105
97	0xbaf248d2	-0.0018484837
98	0x3d7b699d	0.061380018
99	0xbc225bea	-0.009909609
100	0xbcf1cf54	-0.029517807
101	0x3dab2fec	0.0835875
102	0x3e0938e1	0.13400604
103	0x3d93c7d0	0.072158456
104	0x3ba132b9	0.0049193767
105	0xbd15d3d8	-0.036578983
106	0x3db95870	0.09050071
107	0x3cff719b	0.031182101
108	0xbda36ca5	-0.07979707
109	0x3d6d3763	0.05791415
110	0xbd943c24	-0.072380334
111	0x3cb6fcf7	0.02233742
112	0x3d58de1f	0.052946206
113	0xbd15eeca	-0.03660468
114	0x3cd782e6	0.026307534
115	0xbd201d36	-0.039090358
116	0x3db3d529	0.087808914
117	0x3d927688	0.07151514
118	0xbce9bf9c	-0.02853375
119	0x3dbcc3d6	0.0921704
120	0x3bf5b8c0	0.0074988306
121	0x3d762f21	0.06010354
122	0xbd6b297f	-0.05741262
123	0x3dbfed59	0.09371442
124	0xbc140cc3	-0.009036246
125	0xbd903654	-0.07041612
126	0x3d83ad37	0.064295225
127	0x3d7585fa	0.059942223
128	0x3d940b41	0.07228709
129	0xbcb624fa	-0.022234429
130	0xbd47f75e	-0.048819892
131	0xbd09c68f	-0.033636626
132	0x3d03ca80	0.03217554
133	0x3d05b7e5	0.03264608
134	0x3e01b04a	0.12664905
135	0x3d86a57b	0.06574532
136	0xbd8abdbf	-0.067744724
137	0xbd8293bb	-0.063758336
138	0x3d44ca1b	0.048044305
139	0x3d716d04	0.058941856
140	0x3d54ceaa	0.051954903
141	0x3cabc159	0.020966219
142	0x3c051d21	0.008124621
143	0xbdb72457	-0.08942478
144	0xbd2e15cd	-0.04250126
145	0x3d7b2efb	0.0613241
146	0x3d395736	0.045249186
147	0x3c907c20	0.017637312
148	0xbceb5bf5	-0.028730372
149	0x3d8cc70b	0.06873902
150	0xbc797d31	-0.015227602
151	0x3d7bce30	0.061475933
152	0x3cd7ae83	0.02632833
153	0xbcfc82e8	-0.03082414
154	0xbc887bab	-0.016660532
155	0x3dc71fda	0.09722872
156	0x3d6521f7	0.055940595
157	0xbd105e2e	-0.035246067
158	0x3c9b3804	0.018947609
159	0xbc38b7c4	-0.011274282
160	0xbc92f259	-0.017937826
161	0xbd1dda8a	-0.038538493
162	0x3cbd3917	0.023098512
163	0xbd721cbb	-0.05910943
164	0x3defb817	0.11705034
165	0xbcddeef4	-0.02709148
166	0xbdcfd087	-0.10147195
167	0x3d100537	0.035161223
168	0x3d8af775	0.0678548
169	0xbc9cf4f7	-0.019159777
170	0xbcae3039	-0.021263229
171	0xbd87d55e	-0.066324934
172	0xbd3e9fc1	-0.046539072
173	0xbda3804c	-0.07983455
174	0x3d64a102	0.05581761
175	0x3c1e9186	0.00967825
176	0x3cd97ec4	0.026549704
177	0x3d2c64c7	0.042088296
178	0x3d285656	0.04109796
179	0x3cf2c469	0.029634671
180	0xbdc7cda8	-0.09756023
181	0x3dae012c	0.08496317
182	0xbd869ce2	-0.06572892
183	0x3e059ac2	0.13047317
184	0xbc5fd162	-0.013660761
185	0x3d74634d	0.059665013
186	0x3cb8ff11	0.022582563
187	0x3cfe8d9d	0.031073386
188	0xbc4b9644	-0.012425963
189	0xbcf08485	-0.029360065
190	0x3da2fe47	0.07958656
191	0xbdc23a16	-0.09483735
192	0x3b8f6313	0.0043758242
193	0x3c775c83	0.01509774
194	0xbcec5602	-0.028849605
195	0x3ddfebec	0.109336704
196	0xbc88ef68	-0.01671572
197	0x3ca11393	0.019662654
198	0x3d6b29e2	0.05741299
199	0x3d699296	0.05702456
200	0x3d88538b	0.066565596
201	0x3c1b0a8f	0.009462967
202	0x3d5109e0	0.05103481
203	0xbdcf6c02	-0.10128023
204	0xbd57652b	-0.052586716
205	0xbd596fca	-0.053085126
206	0xbdd7b741	-0.10533
207	0x3cc85b68	0.024457648
208	0xbc8a7fd6	-0.01690666
209	0xbddad799	-0.10685653
210	0xbc605f9f	-0.013694673
211	0xbdadc0b2	-0.08484019
212	0xbc3356f1	-0.010946021
213	0x3cbe7bd0	0.023252398
214	0x3c1e83ca	0.009674976
215	0x3ab5512f	0.0013833399
216	0xbd18e351	-0.03732616
217	0x3bf0f63a	0.0073535712
218	0xbd724aab	-0.05915324
219	0xbc3d7cea	-0.011565426
220	0xbcd42304	-0.025895603
221	0xbd9b55ca	-0.07584722
222	0x3cc24467	0.023714257
223	0x3d5f8857	0.054573383
224	0x3e00e1d3	0.12586145
225	0x3e069fd3	0.13146906
226	0xbbf58d75	-0.0074936696
227	0xbbb64784	-0.0055627245
228	0xbd9911f8	-0.074741304
229	0x3d930f77	0.07180684
230	0xbce7dd56	-0.028303783
231	0x3c986770	0.01860401
232	0xbdaed887	-0.08537393
233	0x3c48e6d6	0.012262067
234	0xbc63ad20	-0.013896257
235	0xbd03cbd7	-0.03217682
236	0xbca7641b	-0.020433476
237	0xbcc06c0e	-0.023489024
238	0x3c9c9854	0.019115604
239	0xbd9106c4	-0.070813686
240	0x3d32757b	0.04356907
241	0x3d92cf27	0.071684174
242	0xbd2a6472	-0.0415997
243	0xbd054c7a	-0.032543637
244	0xbd6a8837	-0.05725881
245	0xbceb0cf2	-0.028692696
246	0xbc785c13	-0.015158671
247	0xbda86712	-0.08222784
248	0x3d87846d	0.06617055
249	0xbdbe8736	-0.09303133
250	0xbd6cd09f	-0.057816144
251	0xbd33c56c	-0.043889448
252	0x3c99169e	0.018687543
253	0x3d68371f	0.056693193
254	0xbd1964cc	-0.037449643
255	0x3c0c63ef	0.008568748

fc_out.weight f4 [4, 256]
0	0xbddbbaa8	-0.10728961
1	0xbdb023a8	-0.08600551
2	0x3cc3e353	0.023912108
3	0xbe0f424a	-0.13990131
4	0x3e02767f	0.12740515
5	0x3d43da5e	0.047815673
6	0x3c083c4d	0.008315158
7	0x3d9b27cc	0.0757595
8	0xbc33413f	-0.010940849
9	0x3d7b1222	0.06129659
10	0x3e0c4de1	0.13701583
11	0x3db79233	0.08963432
12	0xbd320666	-0.043463133
13	0x3d92e033	0.07171669
14	0xbd7d9b85	-0.061915893
15	0xbb124ac4	-0.0022322396
16	0x3ca7d2e6	0.020486306
17	0xbdfc1d14	-0.12310234
18	0x3dcfd80e	0.10148631
19	0xbbd6bbac	-0.006553134
20	0x3e203310	0.15644479
21	0x3da1c9f5	0.07899848
22	0x3cdcab31	0.0269371
23	0xbcede658	-0.0290405
24	0x3cd5371e	0.026027258
25	0x3e15ec03	0.14640813
26	0xbdca21de	-0.09869741
27	0x3d9d635f	0.07684969
28	0xbb3a12a0	-0.002839245
29	0xbc8063fd	-0.015672678
30	0xbd3e125d	-0.04640423
31	0xbd75d1a1	-0.06001437
32	0x3e18a028	0.14904845
33	0x3bb409cc	0.005494332
34	0x3da7ef8b	0.08199986
35	0xbda00633	-0.078136824
36	0x3dd0deae	0.10198723
37	0x3d7d9a6f	0.061914857
38	0xbd1863cb	-0.037204545
39	0x3dc2ed8c	0.09517965
40	0x3e8a07aa	0.26958972
41	0x3d62d02a	0.055374302
42	0x3e0abe64	0.13549191
43	0xbdab7bfe	-0.08373259
44	0xbe0812dd	-0.13288446
45	0x3dd232e2	0.102636114
46	0x3d8c5b21	0.06853319
47	0xbbce44b7	-0.0062948125
48	0x3cf2cb92	0.029638086
49	0x3e198967	0.14993821
50	0xbd1e16ef	-0.03859609
51	0x3d418603	0.047246944
52	0xbe37d82c	-0.17953557
53	0x3e03e26e	0.12879345
54	0xbe0cb5ec	-0.13741273
55	0x3cb073e2	0.021539632
56	0x3d6f19e7	0.05837431
57	0xbd492e92	-0.04911668
58	0xbd2fd91b	-0.042931657
59	0x3dc89087	0.097931914
60	0x3d6b750d	0.057484675
61	0x3caffadc	0.021481924
62	0xbdf4f0d2	-0.11959995
63	0x3e23fe9f	0.16015099
64	0x3e029f67	0.1275612
65	0x3cb821b8	0.022477016
66	0xbd44c8d1	-0.048043076
67	0x3d04ffe2	0.03247059
68	0xbcf87073	-0.030327057
69	0xbd10b4d7	-0.035328712
70	0x3d70350f	0.05864435
71	0x3d7128df	0.05887687
72	0xbd78dc1a	-0.06075678
73	0xbcd1397f	-0.025540112
74	0xbd858b0e	-0.06520663
75	0xbdbe782e	-0.09300266
76	0x3d861154	0.06546274
77	0x3cff3008	0.031150833
78	0x3ce22a39	0.027608024
79	0x3e007b2f	0.12546991
80	0x3deeb8ff	0.11656379
81	0xbd2efa5b	-0.042719226
82	0xbe658999	-0.2241577
83	0x3e1e1c93	0.15440588
84	0xbcaabc78	-0.020841822
85	0x3d894cdf	0.06704115
86	0x3eb0264c	0.34404218
87	0xbce7d192	-0.028298173
88	0x3d9f960e	0.077922925
89	0x3e8d2388	0.2756617
90	0x3d7726dd	0.060339797
91	0xbdab4c5f	-0.08364176
92	0xbd8683f8	-0.0656814
93	0x3dcddbcb	0.10051688
94	0x3d82ff9b	0.06396409
95	0x3e107d9d	0.14110418
96	0x3e27a6f8	0.16372287
97	0x3ddcd7aa	0.10783322
98	0x3deef04b	0.11666926
99	0x3c68d980	0.014212012
100	0x3d2226ab	0.039587658
101	0x3da610ce	0.08108674
102	0x3de6b90a	0.11265762
103	0x3d3cade4	0.046064273
104	0xbd368147	-0.044556882
105	0x3d9e788c	0.07737836
106	0xbd0f7aab	-0.035029095
107	0x3df5aa70	0.11995399
108	0xbd2ed8f2	-0.042687364
109	0xbbf36894	-0.007428238
110	0x3ec90fcd	0.39269868
111	0x3d7f10be	0.062271826
112	0x3c8a5490	0.016886026
113	0x3df054d2	0.11734928
114	0x3dbe8a58	0.09303731
115	0x3e4dbf66	0.20092544
116	0xbd9d786d	-0.07688985
117	0xbdd1aad2	-0.102376595
118	0x3e1a4a5f	0.15067433
119	0x3d698319	0.05700979
120	0x3d99cc81	0.07509709
121	0xbc8a85af	-0.016909448
122	0xbe67ae11	-0.22624995
123	0xbc0eee7d	-0.008723852
124	0xbdca0bb6	-0.09865515
125	0xbcff93d2	-0.031198416
126	0xbd325267	-0.043535616
127	0x3d7b8cd5	0.061413605
128	0x3e0000b7	0.12500273
129	0x3e90d2ec	0.2828592
130	0xbe18db82	-0.14927486
131	0xbb86a6bd	-0.004109232
132	0x3e8b1d41	0.27170756
133	0xbbb93075	-0.0056515285
134	0x3cf8173b	0.030284515
135	0xba42a197	-0.00074245915
136	0xbcdd91bb	-0.027047029
137	0xbd51bfd7	-0.051208343
138	0xbc5326b0	-0.012887642
139	0xbe2ef047	-0.17083846
140	0x3c9af8c6	0.018917453
141	0xbe395a1a	-0.18100777
142	0x3de81fb2	0.113341704
143	0x3d176055	0.036957104
144	0xbc618b54	-0.013766129
145	0x3e8339ad	0.2562994
146	0x3b107809	0.0022044203
147	0x3e08c1e9	0.13355221
148	0x3d06426d	0.032778192
149	0x3e069a55	0.1314481
150	0x3c871246	0.016488206
151	0x3cd1508a	0.0255511
152	0xbc75f870	-0.015012845
153	0x3dae7651	0.08518661
154	0x3dacb75d	0.08433411
155	0x3b7a1760	0.0038160905
156	0x3ab45ef3	0.0013761207
157	0x3e24258e	0.16029951
158	0xbd8e703c	-0.06955001
159	0xbdcea3a5	-0.100898065
160	0x3c3d6556	0.011559805
161	0xbdefba33	-0.117054366
162	0x3d45acd7	0.048260536
163	0xbd532931	-0.051552955
164	0x3d748500	0.05969715
165	0xbe029704	-0.1275292
166	0xbd881a22	-0.066456094
167	0x3c153d42	0.009108843
168	0x3cfc3d29	0.030790882
169	0x3c5598ff	0.013036965
170	0xbda0cc56	-0.07851474
171	0xbdecdf8f	-0.11566078
172	0x3d1c9b2f	0.038233932
173	0xbdc493c3	-0.09598496
174	0xbe90ee1a	-0.28306657
175	0x3ea465f2	0.32109028
176	0x3e0827d3	0.13296442
177	0x3e5bb676	0.21456322
178	0x3e30b400	0.17256165
179	0xbe07a3d6	-0.13246092
180	0x3c21f45e	0.009884922
181	0x3bf0253a	0.0073286565
182	0x3e08e8a5	0.13369997
183	0x3d98f026	0.0746768
184	0x3c46d32d	0.012135309
185	0xbd881ef4	-0.06646529
186	0x3c13347b	0.00898468
187	0x3dccc6f9	0.099988885
188	0xbe194e96	-0.14971384
189	0x3e50a0de	0.20373866
190	0xbdac279a	-0.08405991
191	0xbe76fb62	-0.24119332
192	0x3d9abcf0	0.07555568
193	0xbd515fd6	-0.051116787
194	0x3e0af3ea	0.13569608
195	0x3ced2968	0.028950408
196	0xbe72c125	-0.23706491
197	0x3ded9618	0.11600894
198	0x3e3d9efc	0.18517679
199	0x3c83a283	0.016068703
200	0xbe1c2560	-0.15248632
201	0xbca3fb8b	-0.020017406
202	0x3d19606a	0.037445463
203	0xbcbed7d1	-0.023296269
204	0x3d6711ad	0.05641334
205	0x3e417e03	0.18895726
206	0xbd03acd7	-0.032147255
207	0xbdcd7031	-0.100311644
208	0xbb9b9cb1	-0.0047489037
209	0xbd43bdad	-0.04778831
210	0xbec16645	-0.37773338
211	0xbced38f7	-0.028957827
212	0x3dd8f5b7	0.105937414
213	0x3c12c614	0.008958358
214	0x3e2baa0b	0.16764085
215	0x3da8e6c1	0.08247138
216	0x3dda18b3	0.10649242
217	0x3d4e56a6	0.050375603
218	0x3da580f4	0.080812365
219	0x3cb69750	0.022288948
220	0xbdc75d2b	-0.09734567
221	0xbec3e642	-0.3826161
222	0xbe4de143	-0.20105462
223	0xbb9e1186	-0.0048238663
224	0x3e05d9f3	0.13071422
225	0x3e1655d0	0.14681172
226	0xbda4aa00	-0.080402374
227	0x3d9e2770	0.07722366
228	0xbc98f7e8	-0.018672898
229	0x3c8d0677	0.017214997
230	0xbcf0d49b	-0.029398253
231	0x3e626ac1	0.22111036
232	0x3e1a37ad	0.15060301
233	0x3e293851	0.16525389
234	0xbdcff041	-0.10153247
235	0x3dfd5eee	0.12371622
236	0xbde54e24	-0.11196545
237	0xbe67cf61	-0.22637703
238	0xbbd69b6a	-0.0065492885
239	0x3dfe27a1	0.12409902
240	0x3e31821b	0.17334788
241	0xbdf479a5	-0.11937264
242	0x3d37422f	0.044740852
243	0x3e3db721	0.1852689
244	0xbdd469bd	-0.103717305
245	0xbd232a31	-0.03983516
246	0x3c223bdd	0.009901968
247	0xbe0dea5a	-0.1385893
248	0xbc56ddc3	-0.013114396
249	0xbdc9af4b	-0.098478876
250	0x3dbe10aa	0.09280522
251	0xbc05e21f	-0.008171587
252	0x3d0ece44	0.03486468
253	0x3dcc5801	0.09977723
254	0x3e4392a5	0.19098909
255	0xbe06e5cb	-0.13173597

fc_out.bias f4 [4]
0	0x3bbaae1f	0.0056970264
1	0x3d63ede9	0.05564681
2	0xbc038895	-0.008028169
3	0x3d286277	0.04110953
