Reacher-20/last_actor.pth (torch_old, 13137 bytes, 18 tensors)

model.0.weight f4 [33]
0	0x3f5da407	0.8657841
1	0x3ef65c16	0.4811713
2	0x3f43f8ad	0.76551324
3	0x3cca6010	0.02470401
4	0x3e47d8a4	0.19516236
5	0x3e3fdd81	0.18736841
6	0xbe27e22b	-0.1639487
7	0x3e05a994	0.1305297
8	0xbe2f884e	-0.1714184
9	0x3d8f388f	0.069932096
10	0x3e1ad3a6	0.151198
11	0xbcdeb750	-0.02718702
12	0x3db9d6c5	0.09074167
13	0x3f84c741	1.0373307
14	0x3f2dd4e2	0.6790296
15	0x3f863be2	1.0487025
16	0xbd011bae	-0.031520538
17	0xbdc1a05a	-0.09454413
18	0x3b183b30	0.0023228638
19	0x3d81414f	0.06311285
20	0x3def21c0	0.11676359
21	0x3d6d2ed8	0.057906
22	0xbd92cbfc	-0.07167813
23	0x3eb67a4b	0.35640177
24	0x3e7ce9e0	0.24698591
25	0x3ea507f0	0.32232618
26	0x3faf990e	1.3718584
27	0x3d142190	0.03616482
28	0x3f8dae3a	1.1068795
29	0x3ebf3090	0.37341738
30	0x3e9c3612	0.30510002
31	0x3f6e9794	0.9320004
32	0x3f320176	0.6953348

model.0.bias f4 [33]
0	0x3d4b2203	0.049592983
1	0xbe4e2104	-0.20129782
2	0x3e6649fa	0.22489157
3	0xba85bdd4	-0.0010203668
4	0xbdc6d544	-0.09708646
5	0xbd40f354	-0.047107056
6	0xbbd27a25	-0.006423252
7	0xbdbf7274	-0.09348002
8	0xbd5bf2b5	-0.05369826
9	0xbda82c60	-0.08211589
10	0x3dc56f09	0.09640319
11	0xbc816c5c	-0.01579874
12	0x3ea00691	0.3125501
13	0xbd8db06f	-0.06918418
14	0xbe554e6b	-0.20830695
15	0xbe269c8d	-0.16270657
16	0xbe71d7b9	-0.23617448
17	0x3d8b0be2	0.06789376
18	0x3e7f2911	0.2491801
19	0xbe8ed34c	-0.27895582
20	0x3d4c4653	0.049871754
21	0x3e42a63d	0.19008727
22	0xbe79918a	-0.24371925
23	0xbd7893e1	-0.060687903
24	0xbef26ffe	-0.47351068
25	0xbd3981f0	-0.045289934
26	0x3e287c09	0.16453566
27	0x3ca8ba8b	0.020596763
28	0xbe73500f	-0.23761009
29	0x3dc61b72	0.096732035
30	0x3e18fd36	0.14940342
31	0xbe926902	-0.2859574
32	0xbe197fa7	-0.14990102

model.0.running_mean f4 [33]
0	0xbdc4d80b	-0.096115194
1	0xc039f4c4	-2.9055643
2	0xbe8e861d	-0.27836695
3	0x3f554499	0.83307797
4	0xbc1c2b06	-0.009531742
5	0x3c6ca7c3	0.014444294
6	0xbd31c00e	-0.04339605
7	0xbb9218fc	-0.004458545
8	0x3c18ff30	0.009338185
9	0xbc474bcc	-0.0121640675
10	0xbd44e9c2	-0.04807449
11	0xbc434da4	-0.011920366
12	0xbaaab13c	-0.0013022791
13	0xbe958227	-0.2920086
14	0xc046dea0	-3.107338
15	0xbdd3eefb	-0.10348316
16	0x3d0cc5b7	0.034368243
17	0x3bd32c45	0.0064444863
18	0xbbab2687	-0.0052230987
19	0x3ddedf90	0.10882485
20	0xbc12fda6	-0.008971607
21	0x3d4ff197	0.050767507
22	0xbd956ee2	-0.0729654
23	0xbdb3b5bf	-0.087749
24	0x3e030fb3	0.12798958
25	0x3bc5eea8	0.006040413
26	0xbddb707b	-0.10714813
27	0xbf7ffffc	-0.99999976
28	0x3d985b84	0.0743933
29	0x00000000	0.0
30	0x3f7ffffc	0.99999976
31	0x00000000	0.0
32	0x3c8ae0ff	0.01695299

model.0.running_var f4 [33]
0	0x4081d9df	4.0578456
1	0x3ed1ec8b	0.4100078
2	0x4042a560	3.0413437
3	0x3e1b9739	0.15194406
4	0x3d89bd02	0.067255035
5	0x3c922553	0.017840063
6	0x3d88db8a	0.06682499
7	0x3e9d0be4	0.30673134
8	0x3d7494ec	0.059712335
9	0x3e29bd87	0.16576205
10	0x403ce1ed	2.9512894
11	0x3f96ed1a	1.1791108
12	0x40214abd	2.5201867
13	0x418e1292	17.759068
14	0x3fa130c5	1.2593008
15	0x417bb45b	15.731532
16	0x3dceb80a	0.100936964
17	0x3e55eb71	0.20890595
18	0x3d8aa43a	0.06769605
19	0x3f1c1e62	0.6098386
20	0x3fe00c08	1.7503672
21	0x3f2aa655	0.6666005
22	0x3f345c0b	0.70452946
23	0x41030d7d	8.190793
24	0x408c7918	4.389782
25	0x4102537a	8.14538
26	0x41fcd164	31.602242
27	0x00000004	6e-45
28	0x4201562b	32.33415
29	0x00000004	6e-45
30	0x00000004	6e-45
31	0x00000004	6e-45
32	0x3eadd49e	0.33951277

model.1.weight f4 [32, 33]
0	0xbd51c0b5	-0.05120917
1	0xbea6f68a	-0.3260997
2	0xbecceb31	-0.40023187
3	0x3ea78f95	0.32726732
4	0x3ccd11f5	0.025032977
5	0x3cba9b0a	0.022779007
6	0x3eb76b56	0.35824078
7	0xbe2f8128	-0.17139113
8	0xbea44a66	-0.32088012
9	0xbd496182	-0.049165256
10	0xbd7d13c2	-0.06178642
11	0x3e7dcde2	0.2478557
12	0xbeb59eb0	-0.3547263
13	0x3f83ffd1	1.0312444
14	0x3e73390e	0.23752233
15	0x3f14f4c2	0.5818597
16	0x3e8ce83b	0.27520928
17	0xbe289ac2	-0.16465285
18	0xbd8ff943	-0.07029965
19	0x3edc962d	0.43083325
20	0x3e0d9651	0.13826872
21	0x3e1d18b5	0.15341456
22	0x3e575159	0.21027125
23	0x3f1f91d1	0.62331873
24	0x3f256a67	0.6461548
25	0x3c04797b	0.008085604
26	0xbe5a8b41	-0.21342184
27	0x3d1b4db0	0.037915885
28	0xbefbf36a	-0.49209148
29	0xbe893320	-0.26796818
30	0xbeaa3486	-0.33243197
31	0x3a8c0916	0.001068386
32	0xbca167cc	-0.019702815
33	0x3ec63de2	0.38719088
34	0x3eec1e99	0.46117094
35	0x3ecdb9f6	0.4018094
36	0x3dfa042b	0.12207826
37	0xbdcde0cd	-0.10052643
38	0x3f072ed3	0.52805823
39	0xbebe5676	-0.3717534
40	0xbe61c337	-0.22047125
41	0xbd4895f1	-0.04897112
42	0x3d6f6a7f	0.058451172
43	0xbd7adc2a	-0.06124512
44	0xbe244053	-0.16040163
45	0x3ec875b7	0.3915231
46	0xbe5470d5	-0.20746167
47	0xbacd3ab3	-0.0015657753
48	0xbe83f05d	-0.2576932
49	0xbd3b7a18	-0.045770735
50	0xbe0b3f58	-0.13598382
51	0x3e1de746	0.15420255
52	0xbc47c4c9	-0.012192913
53	0x3ec62b75	0.3870503
54	0xbe0f4a60	-0.13993216
55	0x3f07d1a5	0.5305427
56	0xbf5080bf	-0.8144645
57	0xbe010083	-0.12597851
58	0x3e92c3c2	0.28664976
59	0xbf1a5204	-0.60281396
60	0x3d6dd426	0.05806365
61	0xbe125fee	-0.14294407
62	0x3f0bf45a	0.54669726
63	0x3f4fc1be	0.81155
64	0xbf6c229c	-0.9224031
65	0x3f9fb9e9	1.247861
66	0xbe127e30	-0.14305949
67	0x3e8c9e92	0.2746473
68	0xbf29dad7	-0.6634955
69	0x3e45c662	0.19313958
70	0xbda62ccc	-0.08114013
71	0xbed4fc0d	-0.4159855
72	0x3e4f2cb1	0.20231892
73	0x3db3af19	0.087736316
74	0x3eaad547	0.33365843
75	0x3ecc289e	0.39874738
76	0x3eefe8e5	0.46857372
77	0x3d4b5357	0.049640026
78	0xbde8dd6f	-0.1137036
79	0x3e98d66e	0.29851097
80	0xbeca2afe	-0.39485925
81	0x3db03aa4	0.08604935
82	0x3e8cd943	0.27509508
83	0x3db7d842	0.08976795
84	0xbde1f6bd	-0.1103339
85	0xbce1810e	-0.027527358
86	0x3f62f89c	0.886606
87	0xbd77cec3	-0.060499918
88	0x3e770f2c	0.24126881
89	0x3e3dba71	0.18528153
90	0xbf202c83	-0.6256792
91	0xbb6cbd23	-0.0036123476
92	0x3e5828f6	0.21109375
93	0x3d00151e	0.03127014
94	0x3f649493	0.89289206
95	0xbdd7e4fd	-0.10541723
96	0x3eeed52f	0.4664702
97	0xbe0078aa	-0.1254603
98	0xbf4bd715	-0.79625064
99	0xbe0147a7	-0.1262499
100	0xbf868dd9	-1.0512038
101	0xbe8086b8	-0.25102782
102	0x3efeca15	0.4976355
103	0xbdd74da7	-0.10512858
104	0x3e2caad0	0.16862035
105	0x3dea0355	0.11426417
106	0x3e9cca45	0.3062307
107	0x3eaedfcf	0.34155127
108	0xbe1ab6d3	-0.15108804
109	0xbebdbe1c	-0.37059104
110	0xbe5a5b5f	-0.21323918
111	0xbeea17e9	-0.45721367
112	0xbee67bc3	-0.45016298
113	0x3f0b9b23	0.54533595
114	0xbb0a8df4	-0.002114174
115	0x3ecf493d	0.40485564
116	0xbe21b74c	-0.15792578
117	0xbe971a61	-0.29512313
118	0x3e1f69c8	0.15567696
119	0x3ea4f9e6	0.32221907
120	0xbe84442b	-0.25833258
121	0xbd081e25	-0.033231873
122	0xbe45fc78	-0.1933459
123	0x3f23376d	0.6375645
124	0xbdcc2d30	-0.09969556
125	0x3eedbeff	0.4643478
126	0x3f6bb13f	0.9206733
127	0x3f49df8c	0.7885673
128	0x3f85527c	1.0415797
129	0xbfed2e09	-1.8529674
130	0x3e0b8200	0.1362381
131	0x3ecdff8b	0.40234026
132	0xbf755956	-0.9583944
133	0x3e9a248c	0.30106008
134	0x3ed90543	0.42386827
135	0xbe6c816a	-0.23096243
136	0xbe87d1ac	-0.26527154
137	0x3dac2ceb	0.08407005
138	0x3ceb7abe	0.028745051
139	0xbda022df	-0.07819151
140	0xbe590bd2	-0.21195915
141	0xbf252d90	-0.6452265
142	0xbf05bf28	-0.52244806
143	0xbceecc23	-0.029150074
144	0x3e096c37	0.13420187
145	0x3f801c89	1.0008708
146	0xbdd05039	-0.10171551
147	0xbea0c335	-0.3139893
148	0x3d8c9269	0.06863863
149	0x3e007a66	0.12546691
150	0x3ea92eb4	0.33043444
151	0x3e290f6c	0.16509789
152	0x3d2bbb08	0.041926414
153	0xbedffdaf	-0.43748233
154	0xbeaa1758	-0.33220935
155	0x3dd8bf89	0.105834074
156	0xbea89a4e	-0.32930225
157	0xbea05030	-0.31311178
158	0xbc10252f	-0.008797928
159	0x3dbf51a9	0.09341747
160	0xbc59cab2	-0.013292955
161	0x3f3e1e25	0.74264747
162	0x3e986ebd	0.29771987
163	0xbf09be36	-0.53805864
164	0x3e54bdfb	0.20775597
165	0x3e0be609	0.1366197
166	0x3e08f69c	0.13375324
167	0x3ecb4c55	0.39706674
168	0xbf003fdd	-0.5009745
169	0xbca483af	-0.020082323
170	0xbe8907ad	-0.2676367
171	0x3e511557	0.20418297
172	0x3dd21de7	0.1025961
173	0xbd58b38e	-0.05290561
174	0x3ed010b1	0.40637735
175	0x3db4e2f6	0.08832352
176	0x3f381f0e	0.71922386
177	0xbe376d06	-0.17912683
178	0x3f423dad	0.7587536
179	0xbf5f1801	-0.87146
180	0xbeb988df	-0.36237237
181	0xbed078d6	-0.4071719
182	0x3e308f9f	0.17242287
183	0xbe327c94	-0.17430335
184	0x3ded7a17	0.115955524
185	0x3e67f3fd	0.22651668
186	0xbeb574b6	-0.35440606
187	0x3e24884c	0.16067618
188	0xbea31a7b	-0.3185614
189	0xbf225139	-0.63405186
190	0x3ef44daf	0.47715518
191	0x3ec71fe6	0.38891524
192	0x3ecfeb80	0.4060936
193	0xbe9f52e5	-0.3111793
194	0xbd71863f	-0.058965918
195	0x3d8640ac	0.06555304
196	0xbc35ce91	-0.011096613
197	0xbe916aab	-0.28401694
198	0x3e3fee2b	0.18743198
199	0x3ec496fd	0.38396445
200	0x3e0383aa	0.12843195
201	0x3ec67760	0.3876295
202	0x3e8c0aea	0.27352077
203	0x3e43294b	0.19058721
204	0x3dc90143	0.09814694
205	0xbf1c4ba5	-0.61052924
206	0xbd7ada5a	-0.061243393
207	0xbe5dfa43	-0.21677499
208	0x3f30300b	0.6882331
209	0xbec61ed3	-0.38695392
210	0x3f5156cc	0.81773067
211	0x3eedf296	0.4647414
212	0xbee1b4f3	-0.44083366
213	0x3b646f82	0.0034856503
214	0x3d1d399b	0.038385015
215	0x3e25d9e0	0.16196394
216	0x3c6ac890	0.014330044
217	0x3d169d98	0.036771387
218	0x3e710e03	0.23540501
219	0xbf82fbf5	-1.0233141
220	0xbe2ba8d4	-0.16763622
221	0x3f331005	0.6994632
222	0x3def2e88	0.11678797
223	0x3f091da6	0.53560865
224	0x3bbe9e33	0.0058171987
225	0xbe1da7c5	-0.1539603
226	0xbf466980	-0.7750473
227	0x3d7cc6be	0.061712973
228	0xbeb35e05	-0.3503267
229	0x3ed6320e	0.41835064
230	0x3f7a7e57	0.9784903
231	0xbe6ece04	-0.23320776
232	0xbed2f878	-0.41205192
233	0xbed88a35	-0.42292944
234	0xbe8693f3	-0.2628475
235	0xbdb8b221	-0.090183504
236	0x3e586e45	0.21135814
237	0x3e28121a	0.16413155
238	0xbea8ec4b	-0.32992777
239	0x3d657a1c	0.056024656
240	0xbe00c5a1	-0.1257539
241	0xbed9f586	-0.42570132
242	0xbe9e6365	-0.30935207
243	0xbeb24466	-0.3481781
244	0x3ebdeb58	0.37093616
245	0x3ed96ad1	0.42464307
246	0x3f86ec76	1.0540912
247	0xbdb869f6	-0.090045854
248	0x3e0bd835	0.13656695
249	0x3f5d98fa	0.8656155
250	0xbe8807d5	-0.26568475
251	0xbe3b3450	-0.18281674
252	0xbe4db46e	-0.2008836
253	0xbe3447fe	-0.17605588
254	0xbe0706d9	-0.13186206
255	0x3e74cd19	0.23906364

model.1.bias f4 [32]
0	0x3c6330ee	0.013866646
1	0x3eba1943	0.36347398
2	0x3dbc3b46	0.09190993
3	0x3f5f6d7a	0.8727642
4	0x3f3298b0	0.6976423
5	0xbde7f178	-0.113253534
6	0xbdce1e4f	-0.10064375
7	0x3eb4c814	0.35308897
8	0xbe901b03	-0.28145608
9	0x3e978fa1	0.29601768
10	0x3f026cef	0.5094747
11	0xbe9802fa	-0.2968977
12	0x3f12d262	0.5735227
13	0x3b114f00	0.0022172332
14	0x3c9685f9	0.01837443
15	0x3e41122f	0.18854593
16	0x3f9e3221	1.2359048
17	0x3f44fd55	0.76949054
18	0xbebad01c	-0.364869
19	0xbe7644b0	-0.2404964
20	0xbe55f8e6	-0.20895728
21	0xbe83e5b7	-0.25761196
22	0x3f8674d1	1.05044
23	0x3e1f0266	0.15528259
24	0xbe3d312e	-0.18475792
25	0x3d620fce	0.055190854
26	0xbee328df	-0.4436712
27	0x3ed417b3	0.4142433
28	0x3e8f7b79	0.2802389
29	0x3dac1654	0.08402696
30	0xbeffbcf3	-0.49948844
31	0x3ede395b	0.43403134

model.3.weight f4 [32]
0	0x3eb0e76a	0.34551555
1	0x3f2712a9	0.6526285
2	0x3edb1156	0.42786664
3	0x3ebeb078	0.3724401
4	0x3f504228	0.81350946
5	0x3ebfa8ca	0.37433463
6	0x3f3130dc	0.6921518
7	0x3f768d45	0.9630931
8	0x3f4e8762	0.8067533
9	0x3ee0c87f	0.43902966
10	0x3f4757bf	0.77868265
11	0x3eecb4ab	0.4623159
12	0x3fafbd5c	1.3729663
13	0x3f38a524	0.72126985
14	0x3f27b00f	0.6550302
15	0x3f423679	0.7586437
16	0x3efc9ae2	0.49336916
17	0x3f20ff4f	0.6288957
18	0xbeb4f53c	-0.3534335
19	0x3ef5d5eb	0.4801477
20	0x3ec19fc6	0.3781721
21	0x3ec67eca	0.38768607
22	0x3f683851	0.9071093
23	0x3f209251	0.6272326
24	0x3f16fd37	0.58980125
25	0x3efad189	0.48987988
26	0x3efee949	0.49787357
27	0x3f46479c	0.7745302
28	0x3f28765f	0.6580562
29	0x3f15692a	0.5836359
30	0x3ec65f72	0.38744694
31	0x3f138b67	0.57634586

model.3.bias f4 [32]
0	0x3e103c6e	0.14085552
1	0xbd42172b	-0.047385376
2	0x3e824be1	0.25448516
3	0xbee27124	-0.44226944
4	0x3e92f534	0.287027
5	0x3e3a078e	0.18166944
6	0x3f8945d8	1.072444
7	0x3f3ee387	0.7456593
8	0x3eb817fb	0.35955796
9	0xbdcc4fb1	-0.099761374
10	0x3d4f7dc2	0.05065704
11	0x3e29e521	0.16591312
12	0xbc29f20a	-0.010372648
13	0x3d375c05	0.04476549
14	0xbd569b71	-0.052394334
15	0x3f1600aa	0.58594763
16	0x3acd222f	0.0015650446
17	0xbf720344	-0.9453623
18	0xbf409491	-0.75226694
19	0xbe23db3d	-0.16001602
20	0xbf001d3e	-0.5004462
21	0x3eedf4cd	0.4647583
22	0x3e5283cd	0.2055809
23	0x3e999516	0.29996556
24	0x3ea4e95d	0.32209292
25	0x3e9bd557	0.30436203
26	0x3eb7a99d	0.35871592
27	0x3da945d3	0.08265271
28	0x3e1c37bc	0.15255636
29	0x3f015f04	0.5053561
30	0x3ed89a6b	0.42305312
31	0x3ea32137	0.31861278

model.3.running_mean f4 [32]
0	0x3d8a200a	0.06744392
1	0x3f723dc0	0.94625473
2	0x3f106007	0.56396526
3	0x3e88e5d3	0.26737842
4	0x3f9b16cd	1.2116333
5	0x3f65498e	0.8956536
6	0x3edded10	0.43344927
7	0x3edd6ae3	0.4324561
8	0x3ef6bebf	0.48192403
9	0x3f5f719e	0.8728274
10	0x3fc6f43a	1.5543282
11	0x3d00a68c	0.03140883
12	0x3fa1dd31	1.2645627
13	0x3e497cb9	0.19676484
14	0x3ecce328	0.40017056
15	0x3e9c7f1e	0.30565733
16	0x3fd538c2	1.6657946
17	0x4024430a	2.5665917
18	0x3e9bbb79	0.30416468
19	0x3e6d78fc	0.23190683
20	0x3e990e4e	0.29893726
21	0x3b78d8ef	0.00379711
22	0x400009a8	2.0005894
23	0x3f041cd8	0.5160651
24	0x3f048555	0.5176595
25	0x3e7d4209	0.24732222
26	0x3f0c42b0	0.5478926
27	0x3f46ff60	0.7773342
28	0x3fa4b8dd	1.2868916
29	0x3ed6a5e4	0.4192344
30	0x3cbb09e1	0.022831859
31	0x3f464870	0.7745428

model.3.running_var f4 [32]
0	0x3cff702e	0.031181421
1	0x3f952817	1.165286
2	0x3ed77651	0.42082456
3	0x3e10615c	0.1409964
4	0x3e3369a0	0.17520761
5	0x3f6e3ba2	0.9305974
6	0x3ea0f16c	0.3143419
7	0x3e020a86	0.12699327
8	0x3f03963b	0.5140111
9	0x3f910ebf	1.1332625
10	0x3e7e389d	0.24826284
11	0x3c7c91af	0.015415593
12	0x3e415136	0.18878636
13	0x3df7545e	0.12076639
14	0x3e8e6df7	0.27818272
15	0x3d963144	0.073336154
16	0x3ead64a4	0.33865845
17	0x3f28edd3	0.6598789
18	0x3e934436	0.28762978
19	0x3e26d3a0	0.16291666
20	0x3e1ab514	0.15108138
21	0x3b552f36	0.003252936
22	0x3efed023	0.4976817
23	0x3e6f4607	0.23366557
24	0x3f18f376	0.5974649
25	0x3e13da68	0.14438784
26	0x3eece906	0.46271533
27	0x3f1ae0fa	0.60499537
28	0x3ea10bc8	0.314543
29	0x3e74d2b4	0.23908502
30	0x3c190f6d	0.009342057
31	0x3ee28e80	0.44249344

model.4.weight f4 [32, 32]
0	0x3dd0dd83	0.101985
1	0xbf432d6c	-0.76241183
2	0x3dbdaba9	0.09261257
3	0xbd8b1bef	-0.06792437
4	0xbe3f4cd3	-0.1868165
5	0xbeea0c9c	-0.45712745
6	0xbf1551a7	-0.58327717
7	0xbcf3e0af	-0.029770223
8	0xbf06d765	-0.52672416
9	0x3e156734	0.1459015
10	0x3e1082c5	0.14112385
11	0xbeb4d511	-0.35318807
12	0x3eaee003	0.34155282
13	0xbec0e5f3	-0.37675437
14	0xbce856e4	-0.028361745
15	0xbed7aace	-0.421225
16	0x3f026cba	0.50947154
17	0x3e8e4424	0.27786362
18	0xbedf157a	-0.43571073
19	0xbee0d764	-0.4391433
20	0x3edd6a88	0.4324534
21	0x3caed0d3	0.02133981
22	0xbe51652e	-0.20448753
23	0xbef43fd1	-0.47704938
24	0xbf00c09d	-0.50293905
25	0x3e910d2d	0.28330365
26	0x3d1a7dea	0.037717737
27	0xbea06945	-0.31330314
28	0xbf2405db	-0.64071435
29	0xbf039f8d	-0.5141533
30	0xbf4c63e7	-0.7983994
31	0xbec292fa	-0.3800276
32	0x3f26be96	0.6513456
33	0x3e1be260	0.15223074
34	0xbc142159	-0.009041154
35	0x3e2464f3	0.16054134
36	0x3f57bcc1	0.8427239
37	0xbf8be5bb	-1.0929483
38	0x3dbfada5	0.09359292
39	0xbf372178	-0.71535444
40	0x3f1d461a	0.6143509
41	0x3f61585d	0.88025457
42	0xbf00753c	-0.50178885
43	0xbec7192a	-0.38886386
44	0xbd74fc8b	-0.059811156
45	0xbce4274a	-0.027850766
46	0xbf88ed21	-1.0697366
47	0x3e2bf46a	0.16792455
48	0xbddc1b92	-0.10747446
49	0xbd83607c	-0.06414887
50	0x3f999e8f	1.2001513
51	0x3ee257a4	0.4420749
52	0xbec9998a	-0.39374954
53	0x3f0da33a	0.5532719
54	0x3d5cd345	0.05391242
55	0xbe892b6b	-0.26790938
56	0x3ea6cc6e	0.32577842
57	0x3eaec06c	0.3413118
58	0xbe2365f5	-0.15956862
59	0xbe4dfe57	-0.20116554
60	0x3f2f7b7f	0.68547815
61	0xbec05f74	-0.37572825
62	0x3a7d1b5c	0.0009655261
63	0xbeb4fea1	-0.35350516
64	0x3e4edaec	0.202007
65	0xbf284af8	-0.65739393
66	0x3e975eab	0.29564413
67	0xbecb6eae	-0.3973288
68	0xbd9c1f61	-0.076231726
69	0xbf45b5f8	-0.7723079
70	0x3f3a2117	0.7270674
71	0xbf366399	-0.71245724
72	0x3f09b04a	0.5378462
73	0x3f61b332	0.88164055
74	0xbd295e26	-0.041349553
75	0xbf044caf	-0.5167951
76	0x3e287cc4	0.16453844
77	0xbf6d7988	-0.92763567
78	0xbeab14e8	-0.33414388
79	0x3e172a78	0.14762294
80	0x3dbd029b	0.092290126
81	0xbeab9124	-0.3350917
82	0xbfd40320	-1.6563454
83	0x3e163208	0.14667523
84	0xbe0907d7	-0.13381897
85	0xbefad684	-0.48991787
86	0x3e504603	0.20339207
87	0xbe9e40c7	-0.30908796
88	0x3f068616	0.5254835
89	0x3f101e05	0.56295806
90	0x3f97c9cf	1.1858462
91	0x3c6e3598	0.014539145
92	0xbdec7c02	-0.1154709
93	0x3ec39e2a	0.38206607
94	0xbda4edcb	-0.08053168
95	0x3f03710d	0.51344377
96	0xbf4fed6c	-0.8122165
97	0x3e630f57	0.2217382
98	0x3e48880d	0.19583149
99	0x3eff17f3	0.4982296
100	0xbf4cc2f1	-0.79984957
101	0xbc9be054	-0.019027866
102	0xbda49a9a	-0.080373004
103	0x3f57ed85	0.843468
104	0x3ea2d4be	0.31802934
105	0xbf62d2cb	-0.88602895
106	0x3eb2c459	0.34915426
107	0xbeb7ca1a	-0.3589638
108	0x3e533339	0.20625009
109	0xbf6e07b2	-0.9298049
110	0x3ebc693a	0.36799031
111	0x3e879e6f	0.26488063
112	0x3e1aad1a	0.15105096
113	0xbe8a6b8e	-0.27035183
114	0xbeb2338e	-0.34804958
115	0xbea69efd	-0.32543173
116	0xbf816903	-1.0110172
117	0x3d19c80c	0.037544295
118	0x3e743aee	0.23850605
119	0xbd920435	-0.07129709
120	0x3f37b69d	0.7176302
121	0x3f461f19	0.773912
122	0x3d10ae51	0.03532249
123	0x3ea7d753	0.32781467
124	0x3ef4b3cb	0.4779342
125	0x3f4590af	0.77173895
126	0xbee47ac7	-0.44624922
127	0xbdef2139	-0.116762586
128	0x3eee3d1e	0.46531004
129	0xbf150c19	-0.58221585
130	0xbf0d5a2c	-0.55215716
131	0x3edbf0bd	0.42957106
132	0xbf4ad829	-0.79236084
133	0xbf12bc4f	-0.57318586
134	0x3d4ebe88	0.050474674
135	0x3f45d206	0.77273595
136	0x3f3ab966	0.72939146
137	0x3f2651cf	0.6496858
138	0x3e6936b3	0.22774772
139	0xbd9d54da	-0.076822
140	0xbf5c6d41	-0.8610421
141	0xbf376286	-0.7163471
142	0xbe64360d	-0.22286244
143	0x3c98fd97	0.018675609
144	0xbf1118f5	-0.56678706
145	0x3e090b70	0.1338327
146	0xbecb10ad	-0.3966116
147	0xbd727257	-0.059191074
148	0x3ccbd9cd	0.024884129
149	0x3ec12250	0.3772149
150	0x3d63c989	0.05561212
151	0x3f071817	0.52771133
152	0xbe9eb436	-0.30996865
153	0x3ebcc8e5	0.3687202
154	0xbf22bf3e	-0.6357306
155	0xbe75d976	-0.24008736
156	0xbef381d7	-0.47559997
157	0xbeb70a31	-0.35749963
158	0xbe9937a4	-0.29925263
159	0x3f1d375f	0.61412615
160	0xbf113d90	-0.5673456
161	0xbfa016c2	-1.2506945
162	0xbe09696e	-0.13419124
163	0xbeaac0f3	-0.33350334
164	0xbef96881	-0.48712543
165	0x3df8f643	0.12156346
166	0x3e23573f	0.1595125
167	0xbe86e470	-0.2634616
168	0xbec6e9ee	-0.3885035
169	0xbdce834c	-0.10083637
170	0x3f3099bc	0.6898458
171	0xbeb2e663	-0.34941396
172	0x3eeb2170	0.45923948
173	0x3d99171c	0.07475111
174	0x3f886826	1.0656784
175	0xbf41a4eb	-0.7564227
176	0x3e6b7532	0.22993925
177	0xbed32c45	-0.41244712
178	0xbea3c48e	-0.31985897
179	0x3e74be94	0.23900825
180	0xbf348cc9	-0.7052732
181	0xbf44e381	-0.76909643
182	0x3f242c02	0.6412965
183	0xbe97c778	-0.2964437
184	0x3f078c63	0.5294859
185	0xbeb77b8c	-0.35836446
186	0xbe7ac6aa	-0.24489847
187	0x3e077cf2	0.13231257
188	0x3ee22ff9	0.44177225
189	0xbe93a7bd	-0.28838912
190	0xbdfccb67	-0.123434834
191	0xbe521f24	-0.20519692
192	0xbe99cc38	-0.3003862
193	0x3ea2a76b	0.31768355
194	0x3e181a5c	0.14853805
195	0xbe1aa135	-0.15100558
196	0xbe09aae6	-0.13444099
197	0xbe4935c5	-0.19649418
198	0x3ed9bbc9	0.4252608
199	0xbe5e6551	-0.21718337
200	0x3f40d3cc	0.75323176
201	0x3e47d49e	0.19514701
202	0xbddf5cf2	-0.109064
203	0xbec24e36	-0.37950295
204	0xbd8b4fdf	-0.068023436
205	0xbf7cb612	-0.9871532
206	0xbe936c9b	-0.28793797
207	0xbf023b58	-0.508718
208	0x3d7b01f9	0.06128118
209	0x3e8906c9	0.2676299
210	0x3e3d4c32	0.18486097
211	0x3e3371df	0.17523907
212	0x3e947818	0.28997874
213	0x3e19ab86	0.15006837
214	0x3e9a447f	0.30130383
215	0x3d12665a	0.03574214
216	0xbf444dfe	-0.76681507
217	0xbe95a9d5	-0.29231134
218	0x3f52f9cb	0.82412404
219	0xbf243126	-0.64137495
220	0x3f101f31	0.56297594
221	0x3eddb80e	0.43304485
222	0xbdae1c0a	-0.08501442
223	0x3ef67382	0.48135
224	0x3e2d0b12	0.16898754
225	0x3f704aeb	0.93864316
226	0x3e8fa020	0.28051853
227	0x3eacab5e	0.33724493
228	0xbef40edd	-0.4766759
229	0x3eb6e2ae	0.35719818
230	0xbf9220f9	-1.1416312
231	0xbeec822b	-0.4619306
232	0xbebe0199	-0.37110594
233	0x3d059c00	0.032619476
234	0xbe764117	-0.24048267
235	0xbceb43b4	-0.028718807
236	0xbd1acb1c	-0.037791356
237	0xbf37d158	-0.7180381
238	0xbd427ddc	-0.04748331
239	0xbec6b14f	-0.3880715
240	0x3dae5d83	0.0851393
241	0x3f1029b0	0.5631361
242	0x3f6e1c1c	0.9301164
243	0x3ecf662e	0.40507644
244	0xbe06b385	-0.13154419
245	0xbed6b8f3	-0.4193798
246	0xbe9acd91	-0.3023496
247	0xbe9d2724	-0.30693924
248	0x3f6b327e	0.9187392
249	0x3e9bbdfd	0.30418387
250	0xbeafeadd	-0.34358874
251	0xbdacfd53	-0.08446755
252	0x3de417aa	0.11137326
253	0xbf1e456e	-0.6182469
254	0xbf877e9e	-1.0585515
255	0x3e6c1dab	0.23058192

model.4.bias f4 [32]
0	0xbf5fff7b	-0.8749921
1	0xbf049d91	-0.5180293
2	0x3f892c5b	1.0716661
3	0x3d8efb3d	0.06981514
4	0xbeec0b76	-0.46102494
5	0x3e04ba69	0.12961735
6	0xbf091a1e	-0.53555477
7	0xbdaa7b46	-0.08324294
8	0xbf075fc4	-0.528805
9	0xbedb1d13	-0.4279562
10	0xbef91df6	-0.4865567
11	0xbeb5733b	-0.35439476
12	0xbed75bdf	-0.4206228
13	0xbe0f2b5d	-0.13981386
14	0xbe939072	-0.2882114
15	0xbf376709	-0.71641594
16	0x3fa59af0	1.2937908
17	0xbe95ec94	-0.29282057
18	0x3d5553ad	0.052081753
19	0x3ec18fe5	0.37805095
20	0x3e897f27	0.26854822
21	0xbdf559e4	-0.11980036
22	0xbe7983ce	-0.24366686
23	0x3f07ab7a	0.5299603
24	0xbf0791d4	-0.5295689
25	0xbf16f0e2	-0.5896131
26	0xbefb1d4e	-0.49045795
27	0x3f90b5f2	1.1305525
28	0xbf03b8e8	-0.5145402
29	0x400e1da7	2.2205598
30	0xbe188dac	-0.14897794
31	0x3d3c0c21	0.045910005

model.6.weight f4 [32]
0	0xbec0bdc3	-0.37644777
1	0x3fdffc68	1.7498903
2	0x40286f63	2.6317985
3	0x3fb7ef00	1.4369812
4	0x3fd8249f	1.6886176
5	0x3f92f02e	1.1479547
6	0x40089afc	2.1344595
7	0x3fa46893	1.2844414
8	0x40015dff	2.021362
9	0x4009e7ab	2.154765
10	0x3f91f6a1	1.140339
11	0x3fcd903c	1.6059642
12	0x40038e6c	2.0555677
13	0x3fadf346	1.3589866
14	0x3f9976c0	1.1989365
15	0x3f7eee4b	0.99582356
16	0x3f8b2c33	1.0872864
17	0x40302c80	2.752716
18	0x400b0291	2.1720316
19	0x40074398	2.1135006
20	0x3fad8bc2	1.3558276
21	0x3ff31a5e	1.8992422
22	0x3fbf12f1	1.4927655
23	0x3fd89554	1.6920571
24	0x3feba772	1.8410475
25	0x3fc27191	1.5190908
26	0x3fc6a65b	1.5519518
27	0x3ffa736a	1.9566472
28	0x3fc22e11	1.5170308
29	0x3fddf51d	1.7340428
30	0x40105139	2.2549574
31	0x400fa621	2.2445147

model.6.bias f4 [32]
0	0x3e31d9ed	0.17368288
1	0x3da5bd94	0.080928
2	0x3e125bc9	0.14292826
3	0x3e89d44e	0.26919788
4	0x3dd5f794	0.104476124
5	0xbe424a1e	-0.18973586
6	0x3eab0ecc	0.33409727
7	0xbc77d881	-0.015127302
8	0xbe0de722	-0.13857701
9	0x3e3e191e	0.18564269
10	0x3be2ade4	0.006917702
11	0xbc491aa6	-0.01227442
12	0xbeba6b9a	-0.36410218
13	0xbe682f05	-0.22674187
14	0x3e678b4d	0.22611733
15	0x3d9d543a	0.076820806
16	0xbe8d2ab8	-0.27571654
17	0xbd7f1fef	-0.062286314
18	0xbe6248bf	-0.22098063
19	0x3d8af1bb	0.06784388
20	0xbdfeaeb4	-0.12435666
21	0xbe34fa49	-0.17673601
22	0x3e3feccc	0.18742675
23	0xbd42e342	-0.04758001
24	0x3e504c6c	0.20341653
25	0xbe5e0e7f	-0.21685217
26	0xbd16f7ef	-0.03685754
27	0xbda5cc7b	-0.08095642
28	0x3cff9dae	0.031203117
29	0x3e11dfa8	0.14245474
30	0xbe872454	-0.26394904
31	0x3e0aa79f	0.13540505

model.6.running_mean f4 [32]
0	0x0ab76085	1.7658566e-32
1	0x3e8d03a9	0.27541855
2	0x407b71e1	3.9288256
3	0x4013b7b6	2.3080878
4	0x3f3429c1	0.7037621
5	0x3f5dae06	0.86593664
6	0x3f4c4927	0.7979912
7	0x3870faff	5.7454217e-05
8	0x3e1b07c9	0.15139689
9	0x3f2ef569	0.68343216
10	0x3e3a9c24	0.18223625
11	0x270ff5b9	1.9978443e-15
12	0x3ccc9d9a	0.024977494
13	0x3f3574a7	0.7088112
14	0x3e7eab14	0.24869949
15	0x3e24c572	0.16090944
16	0x4053fb3e	3.3122096
17	0x3e596873	0.2123125
18	0x3d1fe961	0.039040927
19	0x4058d03e	3.38771
20	0x3fb2c2a1	1.3965646
21	0x3df71ce2	0.12066056
22	0x3d4506d3	0.04810221
23	0x3f033d5d	0.5126551
24	0x3e9c0f7d	0.30480567
25	0x3eef54b5	0.46744314
26	0x3a6ded30	0.0009076176
27	0x3faf4a07	1.3694466
28	0x3d6c22f8	0.057650536
29	0x40ab1cfd	5.3472886
30	0x3d5b79aa	0.053582825
31	0x3fcbe232	1.5928404

model.6.running_var f4 [32]
0	0x086d0f5d	7.1337653e-34
1	0x3ec376fe	0.3817672
2	0x3fa1fa1e	1.2654455
3	0x4019a7f8	2.400877
4	0x3f8b847a	1.0899804
5	0x3fbbcc3e	1.4671705
6	0x3fe3a5f1	1.7785016
7	0x372427f1	9.784461e-06
8	0x3e4d5452	0.20051697
9	0x3f8617ca	1.047601
10	0x3e57eb34	0.21085817
11	0x23ee24c3	2.5819581e-17
12	0x3cbea5aa	0.023272354
13	0x3f77f64e	0.96860206
14	0x3ec4ee0b	0.38462862
15	0x3e79c3d0	0.24391103
16	0x3ffd6da8	1.979909
17	0x3e75b174	0.23993474
18	0x3db3ed3b	0.087854825
19	0x401f2823	2.4868248
20	0x3fadd951	1.3581945
21	0x3e428aea	0.18998304
22	0x3d63c9f1	0.05561251
23	0x3ee1033d	0.43947783
24	0x3ebbe50a	0.3669818
25	0x3f5ff6f6	0.8748621
26	0x3a32490d	0.00068010465
27	0x3f94309d	1.1577336
28	0x3dfc83c9	0.123298235
29	0x4009b25b	2.151511
30	0x3dd727fb	0.105056725
31	0x40149859	2.3217986

model.7.weight f4 [4, 32]
0	0xbe554293	-0.20826177
1	0xbfb7086a	-1.4299443
2	0x3e8cd025	0.27502552
3	0x3ef9d243	0.4879323
4	0xc0099b89	-2.150118
5	0xbcd1f724	-0.025630541
6	0x3f973478	1.1812887
7	0xbf5fb17f	-0.8738021
8	0x3fcfac86	1.6224525
9	0x3fe0040f	1.7501239
10	0xbf4150fb	-0.7551419
11	0xbf93b1ff	-1.1538695
12	0x3ee43b45	0.4457647
13	0xbf98230b	-1.1885694
14	0x3d073fe2	0.033019908
15	0xbdb76768	-0.0895527
16	0x3f454ad9	0.77067333
17	0xbf20841f	-0.627016
18	0xbf04b7fe	-0.5184325
19	0x3fe35de9	1.7763034
20	0xbfe3a412	-1.7784445
21	0xbf45d052	-0.77270997
22	0xbf717593	-0.9432003
23	0x3fd63f03	1.673798
24	0xbf2a9d16	-0.66645944
25	0xbe94362b	-0.28947577
26	0x3faa970a	1.3327343
27	0x3fdd17b8	1.7272863
28	0x3ba61c99	0.005069327
29	0x3f436c68	0.7633729
30	0xbf448035	-0.7675813
31	0xbf5b6cb9	-0.8571277
32	0xbfd65452	-1.6744483
33	0xbfe3d4f1	-1.779936
34	0xc05fddf0	-3.497921
35	0x3e9ef4c0	0.31046104
36	0xbf0a0b92	-0.53923905
37	0x3e98cfb9	0.2984598
38	0xc00d9ba8	-2.2126255
39	0x3e9c1405	0.30484024
40	0x3f68bb53	0.90910834
41	0xbf81bdc6	-1.0136039
42	0xbf4eadb5	-0.80733806
43	0xbf384f5d	-0.719961
44	0x4059a3ab	3.4006145
45	0x3f6c790e	0.92372215
46	0x3f5e57fc	0.86853004
47	0x3e8f2dd7	0.2796466
48	0x3f0f5f6f	0.56004995
49	0x401bd175	2.4346592
50	0x4035558e	2.8333468
51	0x3f456704	0.77110314
52	0xbec238c1	-0.37933925
53	0x3fb2f4f1	1.3981
54	0xbefb32fb	-0.49062333
55	0x3f204542	0.6260568
56	0xbedaf695	-0.42766252
57	0xbfe016c2	-1.7506945
58	0xbeb1d330	-0.34731436
59	0x3f591e6a	0.84812033
60	0xbd60a92e	-0.054848842
61	0x3ef73994	0.48286116
62	0x3d3aec3a	0.04563544
63	0xc02883cd	-2.6330445
64	0x3d4ee1ad	0.05050819
65	0x3eef9ebe	0.46800798
66	0x3d42e317	0.04757985
67	0xbd243e8f	-0.040098723
68	0xbf0490b4	-0.517833
69	0x3ed3d068	0.4136994
70	0x3e596401	0.21229555
71	0xbe4cdc76	-0.20005974
72	0x3ec94c63	0.3931609
73	0xbe99cdd6	-0.30039853
74	0x3e868326	0.26271933
75	0xbdcd771c	-0.10032484
76	0x3f855078	1.0415182
77	0x3e74d1ba	0.2390813
78	0xbf4befb3	-0.79662627
79	0xbe85579d	-0.26043406
80	0x3f9d4c04	1.2288823
81	0xbea4f3a5	-0.32217136
82	0x3da1fd40	0.07909632
83	0x3d3b985f	0.04579961
84	0x3ec3402e	0.38134903
85	0xbe84b885	-0.25922027
86	0xbf57556d	-0.84114724
87	0xbe74a2ed	-0.23890276
88	0xbf17949a	-0.59211123
89	0x3f84b308	1.0367136
90	0x3f115b7e	0.5678023
91	0x3e4d66f0	0.20058799
92	0x3ed39948	0.41327882
93	0xbf56ce92	-0.8390895
94	0x3f6d2c4d	0.9264572
95	0x3e3ad3b7	0.18244825
96	0x3e32e64c	0.17470664
97	0xbca92087	-0.020645393
98	0x3d1c5db0	0.038175285
99	0xbf0e6822	-0.55627644
100	0x3de6c1a0	0.112674
101	0x3ed6a9fb	0.4192656
102	0xbddd2885	-0.10798744
103	0xbc45342e	-0.012036366
104	0x3e723a89	0.23655142
105	0x3ecf6234	0.4050461
106	0xbf2a8a3f	-0.66617197
107	0x3d714c6e	0.05891078
108	0x3f20c757	0.6280417
109	0x3f409414	0.7522595
110	0xbd28b369	-0.041186724
111	0xbf1810b8	-0.5940051
112	0x3d072b0c	0.033000037
113	0x3ec78b91	0.38973668
114	0xbd9a3e06	-0.07531361
115	0x3d8f077e	0.06983851
116	0xbe9cc508	-0.30619073
117	0x3ddbd7fd	0.10734556
118	0x3b1abc82	0.0023610895
119	0x3e049de8	0.12950861
120	0x3efdc080	0.49560928
121	0x3effc198	0.49952388
122	0xbdaf80e9	-0.085695095
123	0xbe99deb7	-0.3005273
124	0xbf334013	-0.70019644
125	0x3f00fbe4	0.50384355
126	0x3ed2e744	0.41192067
127	0x3e09d319	0.13459434

model.7.bias f4 [4]
0	0x3e6b78d5	0.22995313
1	0xbe8648ad	-0.26227322
2	0xbdf33030	-0.118744254
3	0xbdae0a71	-0.08498085
