Tennis/last_actor_1.pth (torch_old, 28393 bytes, 30 tensors)

model.0.weight f4 [24]
0	0x3ec2073d	0.37896147
1	0x3ec3a824	0.3821422
2	0x3e3739e9	0.17893185
3	0x3e931764	0.28728783
4	0x3f3aa861	0.72913176
5	0x3f35f925	0.7108329
6	0x3ef8e875	0.4861485
7	0x3f135e92	0.5756618
8	0x3e940917	0.28913185
9	0x3e96a6b3	0.29424056
10	0x3ecf9b34	0.40548098
11	0x3f02b958	0.5106406
12	0xbed2642b	-0.41092047
13	0x3da5d2cf	0.08096849
14	0x3f19fa2d	0.6014736
15	0x3ed0ddcd	0.4079422
16	0x3f5a9a57	0.85391754
17	0x3ebf7287	0.37392065
18	0xbcc4d815	-0.024028817
19	0x3ee22f6b	0.44176802
20	0x3f99be17	1.2011136
21	0x3f960d76	1.1722858
22	0x3f1848f2	0.59486306
23	0x3f381a51	0.71915156

model.0.bias f4 [24]
0	0xbe20579d	-0.15658422
1	0xbe102085	-0.14074905
2	0x3e966020	0.29370213
3	0xbe9558d7	-0.29169342
4	0x3eb2319d	0.34803477
5	0x3e1a448f	0.15065216
6	0x3e28d0ad	0.16485853
7	0xbde707ee	-0.11280809
8	0xbd1542c9	-0.036440644
9	0x3d068ec9	0.032851014
10	0x3e6dc2d4	0.23218852
11	0xbe29466f	-0.16530775
12	0xbda67d82	-0.081294075
13	0x3e55a11a	0.20862237
14	0x3dd59ff1	0.10430897
15	0xbe95bc75	-0.29245344
16	0xbd8ea234	-0.069645315
17	0x3debb0a1	0.11508299
18	0xbe33ffbe	-0.17578027
19	0x3e1e62e1	0.15467407
20	0x3e9cce6b	0.30626234
21	0xbe0576df	-0.13033627
22	0xbe963fe7	-0.2934563
23	0xbdc0337e	-0.09384821

model.0.running_mean f4 [24]
0	0xc101a6c7	-8.103217
1	0xbdc080eb	-0.09399589
2	0x400d625a	2.209128
3	0x3e922ee3	0.28551397
4	0xbc34eb30	-0.011042401
5	0x407711cc	3.8604612
6	0x400d625a	2.209128
7	0x3e922ee3	0.28551397
8	0xc1033a46	-8.201727
9	0xbdbc7de4	-0.09203699
10	0x400aef31	2.170849
11	0x3e51c861	0.20486595
12	0xbba0fba4	-0.0049128104
13	0x4077a2b0	3.8693047
14	0x400aef31	2.170849
15	0x3e51c861	0.20486595
16	0xc1056e45	-8.339421
17	0xbdc33cd6	-0.09533088
18	0x4004f292	2.0773053
19	0x3e206abb	0.15665714
20	0xbc5d86c0	-0.013520896
21	0x407886b0	3.8832207
22	0x4004f292	2.0773053
23	0x3e206abb	0.15665714

model.0.running_var f4 [24]
0	0x414f98d1	12.974809
1	0x3f31d5c1	0.6946679
2	0x43bb7f2e	374.9936
3	0x41890743	17.128546
4	0x41fcdd3e	31.608028
5	0x402fefc9	2.7490103
6	0x43bb7f2e	374.9936
7	0x41890743	17.128546
8	0x41417691	12.091447
9	0x3f3517df	0.7073955
10	0x43c3b3d4	391.4049
11	0x418cd3b1	17.603365
12	0x42043128	33.048004
13	0x402e22e1	2.7208788
14	0x43c3b3d4	391.4049
15	0x418cd3b1	17.603365
16	0x413002bc	11.000668
17	0x3f3973a4	0.7244208
18	0x43c9da58	403.7058
19	0x418f1e84	17.8899
20	0x420b0101	34.75098
21	0x4031d59e	2.7786632
22	0x43c9da58	403.7058
23	0x418f1e84	17.8899

model.1.weight_mu f4 [32, 24]
0	0x3ea08f72	0.3135944
1	0xbabd621a	-0.0014448792
2	0xbdf3a50c	-0.118967146
3	0x3e153065	0.14569242
4	0x3e974c8b	0.29550585
5	0xbdc5b6a9	-0.0965398
6	0xbe56fa26	-0.20993862
7	0x3e4605a7	0.19338094
8	0x3e381bf3	0.17979412
9	0xbe1e658b	-0.15468423
10	0xba8ac44a	-0.0010587063
11	0x3d94cdea	0.072658375
12	0xbf3df5cf	-0.742032
13	0xbda604ba	-0.0810637
14	0x3e9b54b5	0.30338064
15	0x3efc9ce6	0.49338454
16	0x3ebb82e1	0.3662329
17	0xbe0dfc83	-0.13865857
18	0x3eee0603	0.46488962
19	0xbeb073a1	-0.34463218
20	0x3dc07709	0.09397704
21	0x3d242f65	0.04008426
22	0x3f12e209	0.5737615
23	0x3d7b584e	0.06136351
24	0xbe3100b4	-0.17285424
25	0x3ea5f761	0.32415298
26	0x3de601de	0.11230825
27	0x3f147484	0.5799029
28	0xbe2a79e1	-0.16648056
29	0xbecb2875	-0.39679304
30	0x3dab442d	0.08362613
31	0xbe1b24ec	-0.15150803
32	0x3e847636	0.25871438
33	0x3d8285e5	0.063731946
34	0x3ea264df	0.31717584
35	0xbe734a25	-0.23758753
36	0x3da3b941	0.07994319
37	0xbed9eaa9	-0.42561844
38	0x3ec4e822	0.38458353
39	0x3c885ead	0.016646707
40	0x3e1b089c	0.15140003
41	0x3dfac80e	0.12245189
42	0xbe0af115	-0.13568528
43	0xbd4207a2	-0.04737056
44	0x3e0ab0b7	0.13543974
45	0xbf1db6dc	-0.61607146
46	0xbe808154	-0.2509867
47	0xbdb0f823	-0.08641078
48	0x3eab46b2	0.33452374
49	0xbdd8b249	-0.1058088
50	0x3e787cc1	0.2426634
51	0x3eaa05d4	0.33207572
52	0xbec4494e	-0.38337177
53	0xbddf8eb5	-0.10915891
54	0x3d30b7d7	0.043144073
55	0x3d71d566	0.059041403
56	0x3e619e39	0.22033013
57	0xbc982053	-0.0185701
58	0x3e5ceec4	0.21575457
59	0xbf0f2b93	-0.55925864
60	0x3e9d33d7	0.30703613
61	0xbe3a1c33	-0.1817482
62	0x3d393aef	0.04522222
63	0xbec65a5f	-0.38740823
64	0x3f1b71bb	0.60720414
65	0xbef5a7fa	-0.47979718
66	0x3ec40a6a	0.38289195
67	0xbd0fc6da	-0.03510175
68	0xbdf942c4	-0.12170938
69	0x3e58b704	0.21163565
70	0x3e5f6b91	0.21818377
71	0xbe7a99cf	-0.24472736
72	0x3ec4f4df	0.38468072
73	0x3e207e60	0.15673208
74	0x3f158a3d	0.5841406
75	0x3e3b5789	0.18295111
76	0x3e94cb5b	0.29061398
77	0xbe4c8219	-0.19971503
78	0x3f241d52	0.6410724
79	0xbc9cdd73	-0.019148564
80	0x3dd1052e	0.10206066
81	0x3e0008b4	0.1250332
82	0xbe71c54b	-0.23610418
83	0xbda4bebd	-0.08044193
84	0xbe9aae09	-0.30210903
85	0xbeb30412	-0.34964043
86	0xbe23c9cb	-0.15994947
87	0x3e8cb7ac	0.2748388
88	0x3dfa77e1	0.12229896
89	0x3ec95539	0.39322832
90	0x3c4f7d6d	0.012664181
91	0x3d003b45	0.031306524
92	0x3e8e3639	0.27775744
93	0xbe214094	-0.15747291
94	0x3db1a308	0.08673674
95	0x3e92d35c	0.2867688
96	0x3ddbb14e	0.107271776
97	0x3e3952a0	0.18097925
98	0xbc4935e7	-0.012280918
99	0x3d933a01	0.07188798
100	0xbf5c3480	-0.8601761
101	0xbe5ef000	-0.2177124
102	0x3dabafab	0.083831154
103	0x3d9b4329	0.07581169
104	0xbeaebbc8	-0.3412764
105	0x3bb67e40	0.0055692494
106	0xbee1bf88	-0.4409144
107	0x3f189e50	0.59616566
108	0x3e550c9e	0.20805594
109	0x3e0f8c21	0.14018299
110	0xbe876ff3	-0.26452598
111	0x3ee610bb	0.4493464
112	0xbefcc71c	-0.49370658
113	0xbe15badd	-0.14622064
114	0xbe8092f1	-0.25112107
115	0xbdd520d7	-0.10406654
116	0xbbf14ff1	-0.007364266
117	0x3ef83124	0.4847499
118	0x3e23cc2a	0.15995851
119	0xbe9ff46c	-0.31241167
120	0xbc6ddd47	-0.014518089
121	0xbe252f45	-0.16131313
122	0x3da1a60d	0.07893
123	0x3dfd87bb	0.12379404
124	0xbf61df34	-0.88231206
125	0xbecb242e	-0.3967604
126	0xbe96dfdf	-0.29467675
127	0x3e3ebbbc	0.18626302
128	0x3df5c5b4	0.120005995
129	0x3e16f186	0.14740571
130	0xbcc05a70	-0.023480624
131	0xbe40861c	-0.18801159
132	0x3f85e555	1.0460612
133	0xbe4e5b12	-0.20151928
134	0xbe45a45e	-0.19300982
135	0xbe029765	-0.12753065
136	0x3d36da9f	0.044642087
137	0xbd3ec577	-0.046575036
138	0xbef85d64	-0.4850875
139	0x3e165a8d	0.1468298
140	0xbd720682	-0.059088238
141	0xbdc77df3	-0.0974082
142	0xbe45fac9	-0.19333948
143	0x3eaef3f9	0.3417051
144	0x3e78c40d	0.24293537
145	0xbdb1a9ed	-0.08674989
146	0x3e79d253	0.24396639
147	0x3dc36144	0.09540036
148	0x3eae81df	0.3408346
149	0xbeef427c	-0.4673041
150	0xbe083923	-0.13303046
151	0x3e800c4e	0.25009388
152	0x3d7e0c5d	0.06202351
153	0xbe3861d6	-0.18006071
154	0xbe94fc26	-0.29098624
155	0xbdfb6a7b	-0.12276169
156	0xbe8aeeca	-0.27135307
157	0xbe077991	-0.13229968
158	0xbeb1ae7d	-0.34703436
159	0x3cd9a6c2	0.026568774
160	0x3d621560	0.055196166
161	0xbe5a76ea	-0.21334425
162	0xbe12b08e	-0.14325163
163	0xbf056051	-0.5210009
164	0xbd939a08	-0.072071135
165	0x3ecf0133	0.40430602
166	0x3e31c35f	0.17359684
167	0xbeb0e446	-0.3454916
168	0x3e0430c2	0.12909225
169	0x3d9a9b1d	0.07549117
170	0xbe930dda	-0.28721505
171	0x3e2e64af	0.17030595
172	0x3e26d101	0.16290666
173	0x3eb860cb	0.36011347
174	0xbe527bd0	-0.20555043
175	0xbd80c3ae	-0.06287323
176	0x3ea7d57c	0.32780063
177	0x3e5a9122	0.21344426
178	0xbebce26d	-0.368915
179	0xbeb23fa3	-0.34814176
180	0xbedd667d	-0.43242255
181	0xbcd55ed5	-0.026046196
182	0xbe8151fb	-0.2525786
183	0xbc4bf02d	-0.012447399
184	0x3ebd97c1	0.37029842
185	0x3e50830b	0.20362489
186	0x3d00e39c	0.031467065
187	0xbd28defb	-0.041228276
188	0x3dcf8bca	0.101340845
189	0x3eeed1c2	0.46644408
190	0x3c1b4d5e	0.009478895
191	0x3d8412d5	0.064489044
192	0xbc1484a8	-0.009064831
193	0x3d3fe34f	0.046847638
194	0x3e1fb7d4	0.15597469
195	0xbcae586d	-0.0212824
196	0xbf15f3c8	-0.58575106
197	0x3f1e2673	0.6177742
198	0xbd598658	-0.053106636
199	0xbdaa8c77	-0.08327573
200	0xbe1ffb43	-0.15623192
201	0x3e4bb0db	0.19891684
202	0xbd87bb2c	-0.06627497
203	0xbd3ea1ea	-0.046541132
204	0xbcfe2b2a	-0.031026442
205	0xbd0291ca	-0.031877317
206	0x3d89f367	0.067358784
207	0x3e404c08	0.18779004
208	0x3d833763	0.064070486
209	0x3e64021d	0.22266431
210	0x3c0d7181	0.0086330185
211	0xbe37ba60	-0.1794219
212	0x3f51d3e8	0.8196397
213	0xbe969f29	-0.29418305
214	0xbe00cd9c	-0.12578434
215	0x3d0c1836	0.034202777
216	0x3c908a3d	0.017644042
217	0x3efaf8b5	0.49017873
218	0xbeab9e92	-0.33519417
219	0x3f0727b5	0.52794963
220	0xbea00cfe	-0.31259912
221	0xbec9f162	-0.39441973
222	0x3d9d4afd	0.076803185
223	0x3d2fc7ca	0.042915143
224	0x3ddc4c1e	0.10756706
225	0x3e82a302	0.2551499
226	0xbdec9697	-0.1155216
227	0x3e551099	0.20807113
228	0x3e88d41d	0.2672433
229	0xbf0489e0	-0.5177288
230	0xbdc141df	-0.09436392
231	0x3e51b13f	0.2047777
232	0xbe9e3a5b	-0.30903897
233	0x3e3f813e	0.18701646
234	0x3d98ec5c	0.07466957
235	0xbec87717	-0.39153358
236	0xbe7c0429	-0.24610962
237	0x3d4cad17	0.04996976
238	0x3ee68ce7	0.45029375
239	0xbc9e3a5b	-0.019314935
240	0xbe97ef86	-0.2967493
241	0x3e3fd4a9	0.18733467
242	0x3e0ebc98	0.1393913
243	0xbe8630bc	-0.26209056
244	0x3e2db525	0.16963632
245	0xbe877799	-0.26458433
246	0xbc26070f	-0.010133519
247	0xbde29d67	-0.11065178
248	0xbee24286	-0.44191378
249	0x3e83dda3	0.25755033
250	0xbb35837a	-0.0027696774
251	0xbf14aef8	-0.5807948
252	0x3e1100f6	0.14160523
253	0x3d63f35c	0.055652007
254	0x3c94179f	0.01807767
255	0xbedcf80b	-0.43157992

model.1.weight_sigma f4 [32, 24]
0	0x3d1a3815	0.03765114
1	0xbd20781a	-0.039177038
2	0xbd183fd5	-0.03717025
3	0x3d365163	0.04451121
4	0xb99b5153	-0.00029624495
5	0xbd8b9022	-0.068146005
6	0xbd2dde01	-0.042448048
7	0x3d057535	0.03258248
8	0x3d611073	0.054947328
9	0xbc9a5c95	-0.018842975
10	0xbd463167	-0.048386957
11	0xbcb2e63c	-0.0218383
12	0xbda143da	-0.0787427
13	0x3c0b24af	0.008492633
14	0xbcba70a5	-0.022758791
15	0x3bbe9f60	0.005817339
16	0xbcdd02c0	-0.02697885
17	0x3ce85787	0.028362049
18	0x3d8c3cf8	0.06847566
19	0xbc9d1ed2	-0.019179735
20	0xbd194af8	-0.03742501
21	0x3c7aed7d	0.015315411
22	0xbce2c79a	-0.027683068
23	0xbcdfbd76	-0.027312022
24	0xbcae2224	-0.021256514
25	0x3bee60a7	0.0072747055
26	0xbcf7e8a2	-0.030262295
27	0xbcf020f6	-0.029312592
28	0x3d35ee5c	0.04441677
29	0x3cc46828	0.023975447
30	0xbcfd2210	-0.030900031
31	0x3b67e78e	0.003538582
32	0x3c942784	0.018085249
33	0x3d7b062d	0.061285187
34	0x3c9ed018	0.019386336
35	0x3ce736ac	0.028224312
36	0xbcf3ca64	-0.029759593
37	0xbd728517	-0.059208956
38	0xb8c1968a	-9.230997e-05
39	0xbd3c0aa8	-0.0459086
40	0x3bab3361	0.0052246307
41	0x3cb2247b	0.02174591
42	0xbccdc702	-0.025119308
43	0x3c338eba	0.010959322
44	0xbc6edcb9	-0.014578992
45	0x3ce118a6	0.027477574
46	0xbb5db1f4	-0.0033827992
47	0x3d302f47	0.043013837
48	0xbc0751cb	-0.008259247
49	0x3d8603b8	0.06543678
50	0x3b8246f9	0.0039757458
51	0xbc602594	-0.013680834
52	0xbcc49cda	-0.024000574
53	0xbc6674a1	-0.014065892
54	0x3cef3b48	0.029203072
55	0x3d6ff4cc	0.058583066
56	0xbc98bd94	-0.018645085
57	0x3dbc9bd2	0.09209408
58	0x3bb28dea	0.0054490464
59	0x3d75616a	0.059907354
60	0x3c4093f4	0.011754025
61	0xbd828e09	-0.06374747
62	0xbccf8fad	-0.025337065
63	0xbd10f2d0	-0.035387814
64	0x3cd1dfe3	0.025619453
65	0x3d080439	0.033207152
66	0x3d245717	0.040122118
67	0xbd36398f	-0.044488486
68	0x3d02ba0d	0.031915713
69	0x3c892ab4	0.016743995
70	0xbc47ebbc	-0.0122022
71	0x3c91cd45	0.017798075
72	0xbada67ca	-0.0016663012
73	0x3d04ee9c	0.032454118
74	0xbd908999	-0.07057495
75	0x3cb1cc29	0.021703796
76	0xbbbfef3c	-0.0058573764
77	0xbcfcf52f	-0.030878631
78	0xbd6d8227	-0.05798545
79	0xbca9bf39	-0.020721065
80	0x3d25cc9b	0.04047833
81	0xbd0b24e4	-0.03397073
82	0xbd312fb3	-0.04325838
83	0x3c9eaf72	0.019370768
84	0xbcf3e32a	-0.029771406
85	0xbda9448f	-0.0826503
86	0x3b766486	0.0037596538
87	0x3c94ffa7	0.01818831
88	0x3ca463d9	0.020067142
89	0xbdbec4cc	-0.0931488
90	0xbbcef8d7	-0.006316285
91	0x3d458850	0.0482257
92	0x3b4b3b13	0.0031010553
93	0xbbea2818	-0.007145893
94	0x3baa8ad3	0.0052045374
95	0x3b105ad6	0.0022026799
96	0xbd5db63a	-0.054128863
97	0x3c8b459c	0.017000966
98	0xbd0f1a63	-0.034937274
99	0x39205d08	0.00015293446
100	0xbc9243b8	-0.017854556
101	0x3a82ea91	0.0009988119
102	0xbd14555e	-0.036214225
103	0x3afe6548	0.0019408846
104	0x3d5e3684	0.05425121
105	0x3d2a559b	0.041585546
106	0xbd6d0dab	-0.057874363
107	0xbd77204d	-0.06033354
108	0x3d1c72aa	0.03819529
109	0xbd96c3e8	-0.07361585
110	0xbd143cb6	-0.03619071
111	0x3cc678a5	0.02422745
112	0x3c4949b6	0.01228564
113	0x3a9bdd3f	0.0011891498
114	0xbdfe38e2	-0.12413193
115	0x3c9eabc6	0.019369017
116	0x3c90c943	0.017674094
117	0x3bea70ff	0.0071545835
118	0x3c8995a0	0.01679498
119	0xbccae51b	-0.02476745
120	0x3d0ae816	0.03391274
121	0xbd20249f	-0.039097425
122	0xbd312337	-0.043246474
123	0x3d06d053	0.032913517
124	0xbd267d43	-0.040646803
125	0xbd14c628	-0.03632179
126	0x3ca3a9fa	0.019978512
127	0x3be46c89	0.006970946
128	0xbbdb7e47	-0.006698403
129	0xbc6d5436	-0.0144854095
130	0x3c983d87	0.018584026
131	0xbbc8c2b6	-0.006126727
132	0xbd232db9	-0.039838526
133	0x3d4a70e4	0.049424067
134	0x3cb4bbe3	0.022062248
135	0x3cc6cf7b	0.024268856
136	0x3d1095ac	0.03529899
137	0xbd09b3b6	-0.03361865
138	0xbd197331	-0.03746337
139	0x3cac82af	0.021058409
140	0xbc9d05d5	-0.01916782
141	0xbd001ed6	-0.031279407
142	0xbbc14b18	-0.0058988445
143	0x3c38ca73	0.011278736
144	0x3bd8d7e9	0.0066175354
145	0x3a185c5c	0.00058121025
146	0xbd196415	-0.03744896
147	0x3b224109	0.0024758002
148	0xbc937932	-0.018002126
149	0xbc968041	-0.018371703
150	0x3d16b05c	0.036789283
151	0xbae47522	-0.0017429928
152	0x3d417501	0.047230724
153	0xbc34d2cf	-0.011036589
154	0x3d3275af	0.043569263
155	0xbcac2c7c	-0.021017306
156	0x3d20dbb9	0.039272044
157	0xbc92b004	-0.017906196
158	0xbc3168de	-0.010828225
159	0x3cd47f7d	0.025939697
160	0xbc70b004	-0.014690403
161	0xbbe1fd4c	-0.0068966504
162	0xbd14a81c	-0.036293134
163	0xbcdb1b99	-0.026746558
164	0xbc5cab92	-0.01346864
165	0xbcb434b3	-0.021997785
166	0xbcc25b8b	-0.023725292
167	0xbc2253c1	-0.009907664
168	0x3d53afb0	0.05168122
169	0x3b5a8b2f	0.003334712
170	0xbcc0a78d	-0.023517394
171	0x3aefc390	0.0018292535
172	0xbd0cb24c	-0.034349725
173	0x3d60ea6d	0.054911066
174	0x3b12f21e	0.0022422145
175	0x3cf1b551	0.029505404
176	0xbda1debc	-0.07903811
177	0x3c645613	0.013936537
178	0xbb2f7f2a	-0.0026778677
179	0x3d5318fb	0.051537495
180	0x3d4cef46	0.050032876
181	0xba2232a4	-0.00061873556
182	0xbc81309d	-0.015770251
183	0xbd12ee0c	-0.03587155
184	0xbb5ab8cb	-0.0033374305
185	0xbdc13c1f	-0.09435295
186	0x3c9fc1e8	0.019501641
187	0xbcf439f7	-0.029812796
188	0xbc2bde55	-0.01049002
189	0xbd6f43be	-0.058414213
190	0xbd22bdd9	-0.039731834
191	0xbc8581d2	-0.016297255
192	0xbcb0f1f6	-0.021599751
193	0x3cafec47	0.02147497
194	0xbc32d2c6	-0.01091451
195	0xbc439b82	-0.011938931
196	0xbaaf3d31	-0.0013369677
197	0xbb51a1a0	-0.0031987205
198	0x3c17b3cc	0.0092591755
199	0xbcf01984	-0.029309042
200	0xbc2b5d96	-0.010459324
201	0x3ab52a3c	0.0013821791
202	0xbd1c5f7e	-0.038177006
203	0xbca2fb52	-0.01989523
204	0xbb8b4b62	-0.0042509297
205	0x3c4f3702	0.012647392
206	0x3b9a871c	0.0047158133
207	0xbc86c828	-0.016452864
208	0xbb5c8249	-0.0033646992
209	0xbb95debc	-0.004573671
210	0xbc579a08	-0.0131592825
211	0x3c999b6c	0.018750869
212	0xbb3a6d48	-0.0028446484
213	0x3bd156b9	0.006388512
214	0x3b9e8f1c	0.0048388373
215	0xbb81d64a	-0.003962313
216	0xbcc20eed	-0.023688758
217	0xbde8dbe8	-0.11370069
218	0x3decc8b8	0.115617216
219	0x3da6765a	0.081280425
220	0x3d05048b	0.032475036
221	0x3d88c9ec	0.066791385
222	0xbc62d311	-0.013844267
223	0xbd0155cf	-0.031575974
224	0xbd02531c	-0.03181754
225	0x3d99f357	0.075171165
226	0x3c757467	0.014981366
227	0x3c261705	0.010137324
228	0xbbc39ea5	-0.0059698396
229	0x3d021cea	0.031765856
230	0xbc9e390b	-0.01931431
231	0x3d4d5f74	0.05013986
232	0x3d196ce3	0.037457358
233	0x3d74c317	0.059756365
234	0x3cf009be	0.02930152
235	0xbd881a70	-0.066456676
236	0x3ccb3cc2	0.024809245
237	0xbc63c46d	-0.013901812
238	0xbbab3f6d	-0.005226067
239	0xbcffddee	-0.031233754
240	0x3c13ce8c	0.009021413
241	0x3c16685e	0.0091801565
242	0xbd20e0b9	-0.039276812
243	0xbc661530	-0.014043137
244	0xbc2fcebf	-0.010730444
245	0xbc5cf68c	-0.013486516
246	0x3c496b48	0.012293644
247	0x3b050bf9	0.0020301326
248	0x3ce9b883	0.028530365
249	0x3a74561b	0.0009320692
250	0xbc488349	-0.012238332
251	0x3c41698b	0.011804949
252	0xbcb9d9b8	-0.022686824
253	0x3d7ea813	0.062172007
254	0xbc0a0031	-0.008422897
255	0x3bc9e548	0.0061613657

model.1.bias_mu f4 [32]
0	0xbeff7759	-0.49895743
1	0xbed881d3	-0.42286548
2	0xbd899f71	-0.06719864
3	0xbf011775	-0.5042642
4	0x3e3d4eb1	0.1848705
5	0x3e42f544	0.19038874
6	0x3e4bdaec	0.19907731
7	0xbebfaed9	-0.37438086
8	0xbe1dfcaf	-0.15428422
9	0xbef88822	-0.4854136
10	0x3d2e7937	0.04259607
11	0xbe30c201	-0.17261507
12	0xbe3fdf40	-0.18737507
13	0xbec2e97c	-0.3806876
14	0xbe341e2c	-0.17589635
15	0xbe475bfb	-0.19468682
16	0xbd98d4c3	-0.07462456
17	0x3dcf3618	0.101177394
18	0xbeac758c	-0.3368343
19	0xbe378baf	-0.17924379
20	0xbe4cae5a	-0.19988385
21	0xbe826c52	-0.25473267
22	0x3e0aba07	0.13547526
23	0xbd5746b5	-0.052557666
24	0x3eb33d24	0.35007584
25	0x3db548e3	0.08851793
26	0xbe36d1bf	-0.1785345
27	0x3dde953c	0.10868308
28	0xbeed7994	-0.4638182
29	0xbe8e3535	-0.2777497
30	0xbc9991fc	-0.018746369
31	0x3e29b851	0.16574217

model.1.bias_sigma f4 [32]
0	0xbce85db8	-0.028365001
1	0x3ca3fba8	0.02001746
2	0xbd58c568	-0.052922636
3	0x3c9ac355	0.01889197
4	0xbd229557	-0.039693203
5	0xbafa8821	-0.0019114056
6	0xbcc693f9	-0.02424048
7	0x3c5da81a	0.013528848
8	0xbc4d6356	-0.012535891
9	0xbcc5e25a	-0.024155784
10	0xbd1a1498	-0.037617296
11	0x3cac88ea	0.02106138
12	0xbcccff0f	-0.025023965
13	0xbad66d59	-0.0016359492
14	0x3cf3ea42	0.029774789
15	0xbc4899d0	-0.012243703
16	0x3cc87eec	0.024474584
17	0xbd1aa526	-0.037755154
18	0xbbfeab03	-0.007771851
19	0xb9e4fc92	-0.00043675728
20	0xbb8255fc	-0.0039775353
21	0x3c9c7a30	0.019101232
22	0xbc09d6b0	-0.008413002
23	0x3c752d71	0.014964447
24	0xbd4c4adc	-0.04987608
25	0xbd4f7047	-0.050644185
26	0xbcdf67aa	-0.02727111
27	0x3d51acf5	0.051190335
28	0x3cdc9c3a	0.026929963
29	0x3d047a46	0.03234317
30	0xbd48d419	-0.049030397
31	0x3ac60192	0.0015106669

model.1.weight_epsilon f4 [32, 24]
0	0xbfa9c9f2	-1.3264754
1	0xbfa3640f	-1.276491
2	0xbfa93820	-1.3220253
3	0xbf5701a7	-0.83986896
4	0x3f21091a	0.6290451
5	0x3fb226ca	1.3918087
6	0x3f9048ee	1.1272256
7	0x3f9e657c	1.237472
8	0x3fc78a46	1.5589073
9	0x3ebf2343	0.3733159
10	0x3f144fbd	0.5793417
11	0xbf785204	-0.97000146
12	0xbf83e3a1	-1.0303842
13	0xc007b2a7	-2.120279
14	0xbe7a9bd2	-0.24473503
15	0x3f23ed90	0.64034367
16	0x3fce0dd7	1.6097974
17	0x3ed82c84	0.42221463
18	0xbf8e4a87	-1.1116494
19	0xbfa6953e	-1.3014295
20	0x3f166e70	0.58762264
21	0xbead65b6	-0.33866662
22	0x3eb613a1	0.3556185
23	0xbf4be63e	-0.79648197
24	0xbf268e98	-0.6506133
25	0xbf2047e2	-0.62609684
26	0xbf25ff8c	-0.6484306
27	0xbed2e9f6	-0.41194123
28	0x3e9df867	0.30853578
29	0x3f2ec2b0	0.6826582
30	0x3f0d89db	0.55288476
31	0x3f1b61a6	0.60695875
32	0x3f43bdf3	0.76461715
33	0x3e3b7fe2	0.18310502
34	0x3e917d0a	0.2841571
35	0xbef397ff	-0.475769
36	0xbf0160f5	-0.5053857
37	0xbf851d6b	-1.0399603
38	0xbdf5d6a6	-0.120038316
39	0x3ea0cec5	0.31407753
40	0x3f4a21c6	0.78957784
41	0x3e540f23	0.20708899
42	0xbf0b952a	-0.5452448
43	0xbf236984	-0.6383288
44	0x3e939169	0.28821877
45	0xbe2a18c7	-0.16611014
46	0x3e329c66	0.17442474
47	0xbec804ad	-0.39066067
48	0xbf8a6033	-1.0810608
49	0xbf852958	-1.0403242
50	0xbf89e95b	-1.077434
51	0xbf2f3a41	-0.68448263
52	0x3f033df1	0.5126639
53	0x3f9130f6	1.1343067
54	0x3f6b2e45	0.91867477
55	0x3f811752	1.0085242
56	0x3fa29f69	1.2704898
57	0x3e9bc65d	0.30424777
58	0x3ef1be75	0.4721562
59	0xbf4a60c4	-0.790539
60	0xbf56f9df	-0.83975023
61	0xbfdd2f22	-1.7280009
62	0xbe4c3e30	-0.19945598
63	0x3f059968	0.52187204
64	0x3fa7ee75	1.3119646
65	0x3eb02dd3	0.3440996
66	0xbf67ee53	-0.9059803
67	0xbf87c357	-1.0606488
68	0x3ef5330b	0.47890505
69	0xbe8d510f	-0.27600905
70	0x3e9463e4	0.2898246
71	0xbf262ce9	-0.6491228
72	0xbf172b64	-0.59050584
73	0xbf11791e	-0.56825435
74	0xbf16a98f	-0.58852476
75	0xbebf6dae	-0.37388366
76	0x3e8f6048	0.28003144
77	0x3f1e9d76	0.61959016
78	0x3f00765b	0.50180596
79	0x3f0d06c1	0.5508843
80	0x3f31a87f	0.6939773
81	0x3e2a2d5e	0.16618869
82	0x3e840c20	0.257905
83	0xbedd16cf	-0.43181464
84	0xbeeada19	-0.4586952
85	0xbf71a24b	-0.94388264
86	0xbddf2060	-0.10894847
87	0x3e91f38a	0.28506118
88	0x3f377531	0.71663195
89	0x3e4077c5	0.18795688
90	0xbefd5fda	-0.4948719
91	0xbf1450b0	-0.5793562
92	0x3e85ef4f	0.2615914
93	0xbe1a61da	-0.1507639
94	0x3e221c1c	0.15831035
95	0xbeb58a16	-0.35456914
96	0xbf7afa2a	-0.9803797
97	0xbf718516	-0.943437
98	0xbf7a229d	-0.97709066
99	0xbf1ee886	-0.6207355
100	0x3eee09cf	0.46491858
101	0x3f83ab59	1.0286666
102	0x3f554727	0.83311695
103	0x3f6a2321	0.9145985
104	0x3f937a34	1.1521668
105	0x3e8d446c	0.27591264
106	0x3edb3adc	0.42818344
107	0xbf3787b9	-0.7169147
108	0xbf42f478	-0.7615428
109	0xbfc895b8	-1.567069
110	0xbe3938af	-0.1808803
111	0x3ef25056	0.47326916
112	0x3f984aae	1.189779
113	0x3e9fc569	0.312053
114	0xbf5254b0	-0.8216047
115	0xbf763d06	-0.96186864
116	0x3ede5d10	0.43430376
117	0xbe8027d3	-0.25030383
118	0x3e869203	0.26283273
119	0xbf16b300	-0.5886688
120	0x3fdef049	1.7417079
121	0x3fd689af	1.6760768
122	0x3fde30d0	1.7358646
123	0x3f8d27ca	1.1027768
124	0xbf5371fa	-0.8259579
125	0xbfe9eb48	-1.8274927
126	0xbfbd7376	-1.4800861
127	0xbfcffadf	-1.6248435
128	0xc0030064	-2.0468988
129	0xbefaf86e	-0.49017662
130	0xbf42bcf2	-0.7606956
131	0x3fa306cf	1.2736453
132	0x3fad2ccf	1.35293
133	0x40322d0c	2.7839994
134	0x3ea48766	0.3213455
135	0xbf573e3a	-0.84079325
136	0xc007472d	-2.1137192
137	0xbf0dec00	-0.5543823
138	0x3fbad548	1.4596338
139	0x3fdabaac	1.7088218
140	0xbf458587	-0.7715687
141	0x3ee3ad38	0.44468093
142	0xbeef12ac	-0.46693933
143	0x3f85dd0b	1.0458082
144	0xbf95f689	-1.1715862
145	0xbf904fe7	-1.1274384
146	0xbf9575be	-1.1676557
147	0xbf3de693	-0.74179953
148	0x3f0e3b59	0.5555931
149	0x3f9d5966	1.2292907
150	0x3f7edfcb	0.9956023
151	0x3f8be69f	1.0929755
152	0x3fb03d86	1.3768775
153	0x3ea8d1ae	0.32972473
154	0x3f02fe57	0.5116934
155	0xbf5b531b	-0.85673684
156	0xbf68fa45	-0.9100688
157	0xbfefb49d	-1.8726994
158	0xbe5d5881	-0.21615793
159	0x3f10c959	0.5655723
160	0x3fb5fe5f	1.4218253
161	0x3ebeee8a	0.37291366
162	0xbf7b5a2f	-0.98184484
163	0xbf9321aa	-1.1494648
164	0x3f04ddab	0.5190074
165	0xbe992670	-0.29912138
166	0x3ea0d0e8	0.31409383
167	0xbf34172f	-0.70347875
168	0xbfb77d64	-1.4335141
169	0xbfb09356	-1.3794963
170	0xbfb6dfcd	-1.4287049
171	0xbf685b30	-0.9076414
172	0x3f2e07b9	0.67980534
173	0x3fc086fc	1.5041194
174	0x3f9bed85	1.218186
175	0x3fab2d97	1.3373288
176	0x3fd7a44f	1.6847018
177	0x3ece8fba	0.4034403
178	0x3f204782	0.6260911
179	0xbf862ddf	-1.0482749
180	0xbf8e8828	-1.1135302
181	0xc012a5db	-2.291373
182	0xbe876a68	-0.2644837
183	0x3f3127ef	0.6920156
184	0x3fdeae70	1.7396984
185	0x3ee99e2a	0.45628482
186	0xbf99c5ee	-1.2013528
187	0xbfb40676	-1.4064472
188	0x3f229200	0.6350403
189	0xbebb63b3	-0.36599502
190	0x3ec4c4e9	0.3843148
191	0xbf5c5a55	-0.86075336
192	0xbfa1eb1a	-1.2649872
193	0xbf9bd123	-1.2173198
194	0xbfa1600a	-1.2607434
195	0xbf4d0a38	-0.8009372
196	0x3f199221	0.599886
197	0x3fa9e4b5	1.3272921
198	0x3f8998bc	1.0749736
199	0x3f970dd5	1.1801096
200	0x3fbe4a60	1.4866447
201	0x3eb64713	0.356011
202	0x3f0d6fc2	0.55248654
203	0xbf6ccf42	-0.9250375
204	0xbf7b8d11	-0.98262125
205	0xc001685b	-2.0219944
206	0xbe6efde8	-0.23339045
207	0x3f1c5444	0.6106608
208	0x3fc480a5	1.5351759
209	0x3ece273b	0.40264305
210	0xbf87b1fe	-1.0601194
211	0xbf9edc71	-1.2411023
212	0x3f0f754d	0.5603836
213	0xbea55c0c	-0.3229679
214	0x3eada2f8	0.33913398
215	0xbf42729d	-0.75956136
216	0xbe7a3327	-0.24433576
217	0xbe70c592	-0.23512867
218	0xbe795c45	-0.24351604
219	0xbe1e6a85	-0.15470321
220	0x3ded4d0e	0.11586963
221	0x3e8342f1	0.2563701
222	0x3e549e08	0.20763409
223	0x3e696979	0.22794141
224	0x3e930543	0.28714952
225	0x3d8cd467	0.0687645
226	0x3dda8d06	0.10671429
227	0xbe36f631	-0.17867352
228	0xbe4259e1	-0.18979599
229	0xbec7f6aa	-0.39055377
230	0xbd38a5d0	-0.045080006
231	0x3df19031	0.117950805
232	0x3e97d1eb	0.29652342
233	0x3d9f46b8	0.077771604
234	0xbe51ade8	-0.20476496
235	0xbe7579c5	-0.23972233
236	0x3dddacbe	0.108239636
237	0xbd7f8468	-0.06238213
238	0x3d86274e	0.065504655
239	0xbe163b81	-0.14671136
240	0xbf983c26	-1.1893356
241	0xbf927f99	-1.144519
242	0xbf97b967	-1.1853455
243	0xbf40c715	-0.75303775
244	0x3f1062fa	0.56401026
245	0x3f9fbba8	1.2479143
246	0x3f815e25	1.0106856
247	0x3f8e0536	1.109534
248	0x3fb2e90c	1.397737
249	0x3eab606d	0.33472005
250	0x3f04fa61	0.5194455
251	0xbf5ea5ba	-0.8697163
252	0xbf6c81d9	-0.9238563
253	0xbff35648	-1.9010706
254	0xbe60b2f7	-0.2194327
255	0x3f12fae2	0.57414067

model.1.bias_epsilon f4 [32]
0	0xbf59e07e	-0.8510817
1	0xbf939864	-1.1530881
2	0xbf1195ca	-0.56869185
3	0xbed436ee	-0.41448158
4	0x3e89f334	0.26943362
5	0x3f83e926	1.0305526
6	0x3f9084a0	1.1290474
7	0x3f0a3623	0.53988856
8	0xbf85f453	-1.0465187
9	0x3f93461a	1.1505768
10	0xbf9eb86c	-1.2400031
11	0x3f825b62	1.0184138
12	0xbf63436a	-0.8877474
13	0xbeabd202	-0.3355866
14	0xbf455ba6	-0.7709297
15	0x3d6858d8	0.056725353
16	0x3ed1a75a	0.40947992
17	0x3f47df5f	0.7807521
18	0x3fb89d0e	1.4422929
19	0xbf8cc149	-1.0996486
20	0x3f499a1a	0.78750765
21	0xbf67f9e2	-0.90615666
22	0x3fa46087	1.2841958
23	0x3f1982e1	0.5996533
24	0xbf7a562a	-0.97787726
25	0x3f5b53e8	0.85674906
26	0xbf88a329	-1.0674793
27	0x3e37d57a	0.17952529
28	0x3edb1a77	0.4279363
29	0x3f112588	0.56697893
30	0x3f024cc3	0.5089838
31	0xbf96628e	-1.1748827

model.3.weight f4 [32]
0	0x3ec50463	0.3847991
1	0x3f40bbc5	0.75286514
2	0x3f742a36	0.9537691
3	0xbec4a18f	-0.3840451
4	0x3eb7607e	0.35815805
5	0x3f1aebfa	0.6051632
6	0x3f6e896c	0.9317844
7	0x3ec5347b	0.38516602
8	0x3f8e10bd	1.1098858
9	0x3f04314c	0.5163772
10	0x3f6bf32e	0.9216794
11	0x3e9b7526	0.30362815
12	0x3f511150	0.8166704
13	0x3f5bd438	0.85870695
14	0x3eab7647	0.33488676
15	0x3ecd1492	0.40054756
16	0x3f34b749	0.7059217
17	0x3f56e30f	0.83940214
18	0x3f2ed3e9	0.682921
19	0x3f67923a	0.904575
20	0x3ef78a70	0.48347807
21	0x3efda800	0.49542236
22	0x3f25102b	0.64477795
23	0x3e534357	0.20631157
24	0x3f24695e	0.6422328
25	0x3eebd681	0.4606209
26	0x3ef5f53a	0.48038656
27	0x3eed0eae	0.46300262
28	0x3f04eb54	0.5192158
29	0x3f650f51	0.89476496
30	0x3f345bdd	0.7045267
31	0x3f593d2f	0.84858984

model.3.bias f4 [32]
0	0x3cbe7260	0.023247898
1	0xbdea4241	-0.11438418
2	0x3f020cd6	0.50800836
3	0x3e6bc5a7	0.23024617
4	0x3eb11f56	0.3459422
5	0x3e084eda	0.1331133
6	0x3e514282	0.20435527
7	0x3e424372	0.18971041
8	0xbde2a4f3	-0.11066618
9	0x3e2a0235	0.16602404
10	0x3ecc4646	0.39897364
11	0xbe0abaf4	-0.1354788
12	0xbdcb9e69	-0.09942324
13	0x3de067a2	0.109572664
14	0x3f1645d8	0.58700323
15	0x3e042e78	0.12908351
16	0x3e9a67da	0.30157357
17	0x3e6bfbd4	0.23045284
18	0xbd4593b0	-0.04823655
19	0x3e00cb09	0.12577452
20	0x3d3e25af	0.046422657
21	0xbb1d5a2b	-0.0024010043
22	0x3e05fee5	0.13085516
23	0xbeae2359	-0.34011343
24	0xbc4f2dcd	-0.012645197
25	0x3e2a0690	0.16604066
26	0xbe959b92	-0.29220253
27	0x3e036942	0.12833121
28	0x3e6bae26	0.23015651
29	0x3e1863a1	0.14881755
30	0xbd6c090a	-0.057625808
31	0x3ed6a881	0.41925433

model.3.running_mean f4 [32]
0	0x3def6b82	0.11690427
1	0x3e9bee8a	0.30455428
2	0x3e9d1f47	0.30687925
3	0x3e88eac9	0.26741627
4	0x3e53daef	0.20688985
5	0x3eeb4cd5	0.45957056
6	0x3e81f032	0.25378567
7	0x3e1b860e	0.15187857
8	0x3ea1e136	0.31617135
9	0x3c839237	0.016060932
10	0x3f2e654b	0.6812331
11	0x3d9d1e0a	0.07671745
12	0x3d59f538	0.053212374
13	0x3de8efad	0.113738395
14	0x3eb42c2d	0.35189953
15	0x3dd27788	0.10276705
16	0x3e2428cb	0.16031186
17	0x3f29779a	0.6619812
18	0x3dd752ed	0.10513864
19	0x3ecf5a6e	0.4049868
20	0x3ecddebf	0.40209004
21	0x3e89d02a	0.2691663
22	0x3f1300ff	0.57423395
23	0x3e3443a4	0.17603928
24	0x3f63640f	0.8882455
25	0x3f14eec9	0.5817686
26	0x3f096c4f	0.5368089
27	0x3f586db4	0.84542394
28	0x3e0d84d0	0.13820195
29	0x3e77a8b4	0.24185449
30	0x3f30363d	0.6883276
31	0x3f3fdaae	0.74943054

model.3.running_var f4 [32]
0	0x3dfd371a	0.123640254
1	0x3eca4514	0.39505827
2	0x3ea3d63c	0.31999385
3	0x3e893827	0.26800653
4	0x3e102630	0.14077067
5	0x3ed84e00	0.4224701
6	0x3e2e518c	0.17023295
7	0x3dbbdceb	0.09172996
8	0x3e398a04	0.18119055
9	0x3c0541ff	0.0081334105
10	0x3f0bce46	0.54611623
11	0x3d423284	0.047411457
12	0x3cda2e2d	0.026633346
13	0x3dc40376	0.095709726
14	0x3ebf1f75	0.37328687
15	0x3db12952	0.08650459
16	0x3e38709e	0.1801171
17	0x3f400f8c	0.7502372
18	0x3d929432	0.07157172
19	0x3ea13c0e	0.3149113
20	0x3ebe7b40	0.37203407
21	0x3e394eaa	0.18096414
22	0x3f2a2063	0.6645567
23	0x3dd8ced8	0.10586327
24	0x3e9db6f7	0.30803654
25	0x3eeaeff7	0.45886204
26	0x3f086826	0.5328392
27	0x3f851481	1.0396882
28	0x3de3622a	0.11102708
29	0x3e3c9093	0.18414526
30	0x3efc2419	0.4924629
31	0x3f21023c	0.62894034

model.4.weight_mu f4 [32, 32]
0	0x3e3bbc66	0.18333587
1	0xbe802421	-0.25027564
2	0x3ebc94d1	0.36832288
3	0x3f00b95b	0.5028283
4	0xbfb5e28d	-1.4209763
5	0xbd3bb586	-0.04582741
6	0x3e53851f	0.2065625
7	0xbbe25fb5	-0.006908382
8	0x3f1aaff7	0.6042475
9	0xbe03c50c	-0.12868136
10	0xbedc19c3	-0.42988405
11	0xbc129302	-0.008946182
12	0xbd18935d	-0.03724991
13	0x3eb92225	0.36158863
14	0xbcf78235	-0.030213455
15	0x3e56c883	0.20974927
16	0xbe4893f6	-0.19587693
17	0x3e538ac2	0.206584
18	0xbf1e3fea	-0.61816275
19	0x3e534878	0.20633113
20	0x3d44c720	0.048041463
21	0x3eab0409	0.33401516
22	0x3e95fb07	0.2929308
23	0x3e60a815	0.21939118
24	0xbe38bff5	-0.18041976
25	0xbee91ce3	-0.4552985
26	0xbe752be5	-0.23942526
27	0x3e0be117	0.13660084
28	0x3e920836	0.2852189
29	0xbd90dedc	-0.07073757
30	0x3cebc2eb	0.028779468
31	0x3d2779d9	0.040887687
32	0xbec9624c	-0.39332807
33	0xbd936f6f	-0.07198989
34	0xbe07b1b1	-0.13251378
35	0x3f5ff25e	0.874792
36	0xbe4020ab	-0.18762462
37	0x3e804361	0.25051406
38	0x3e180d88	0.14848912
39	0x3e43f998	0.19138181
40	0x3df674c3	0.12033989
41	0xbbc4db0b	-0.0060075573
42	0xbe302586	-0.17201814
43	0xbe908bd5	-0.28231683
44	0xbecd224a	-0.40065223
45	0x3d5ab6d1	0.053397004
46	0xbd9482b4	-0.07251492
47	0x3eb07c15	0.34469667
48	0xbec1eb26	-0.37874717
49	0x3ea9f110	0.3319173
50	0xbee9d441	-0.4566975
51	0x3e94e2b0	0.290792
52	0xbe1ac97b	-0.15115921
53	0x3ea6cb27	0.32576868
54	0x3e87b4dd	0.26505175
55	0xbc5c8134	-0.013458539
56	0xbee15837	-0.44012615
57	0xbd81770f	-0.06321537
58	0xbee1a992	-0.44074684
59	0x3ec4db34	0.3844849
60	0x3f1898a8	0.59607935
61	0xbf08d201	-0.5344544
62	0x3eb66540	0.35624123
63	0xbcf07d55	-0.029356638
64	0xbdcdf3df	-0.1005628
65	0x3e95a565	0.2922775
66	0xbe01a6b0	-0.12661242
67	0xbcf48279	-0.02984737
68	0xbf601aef	-0.875411
69	0x3e9ef332	0.31044918
70	0x3c7f7138	0.015590958
71	0x3cf85903	0.030315882
72	0x3d38215a	0.04495368
73	0x3dc4e9c6	0.09614901
74	0xbe87b668	-0.26506352
75	0x3e5e36b8	0.21700561
76	0x3e7433a1	0.2384782
77	0x3ec49cb1	0.38400796
78	0xbe8f78d2	-0.28021866
79	0x3db20979	0.08693213
80	0xbd9e305a	-0.07724066
81	0x3ebad491	0.364903
82	0x3ef6e22d	0.48219433
83	0xbf0f497a	-0.5597149
84	0xbeb781ed	-0.35841313
85	0x3f06f0b2	0.5271102
86	0xbd6f0ecb	-0.058363717
87	0x3f26f1c6	0.65212667
88	0xbe8fd133	-0.28089294
89	0xbe80c7c6	-0.25152415
90	0xbd22cac8	-0.03974417
91	0x3d8f3e22	0.06994273
92	0x3ce10c17	0.027471585
93	0xbe6d65ca	-0.2318336
94	0xbda77170	-0.08175933
95	0xbdc3d9fd	-0.09563062
96	0xbe0c9193	-0.13727407
97	0xbeb7a059	-0.35864523
98	0xbd720bb3	-0.05909319
99	0x3ec7be2d	0.3901228
100	0x3e0d292a	0.13785234
101	0x3e052b72	0.13004854
102	0x3e43ed89	0.19133581
103	0x3dabed6c	0.08394894
104	0xbe7286b6	-0.236842
105	0x3da624b6	0.08112471
106	0xbe586e7f	-0.21135901
107	0xbe3ef22f	-0.18647073
108	0x3f127d55	0.5722249
109	0x3db7c2b2	0.08972682
110	0x3ece47bf	0.40289113
111	0x3ea7f656	0.32805127
112	0x3e1a0193	0.15039663
113	0x3e34b5ff	0.17647551
114	0xbee424da	-0.44559366
115	0x3d2ca164	0.0421461
116	0x3dc65e47	0.09685951
117	0x3e61baa3	0.22043853
118	0x3e784a13	0.24247007
119	0xbea422ef	-0.32057902
120	0xbe807da6	-0.25095862
121	0x3de4b36a	0.11167033
122	0xbf88c8b0	-1.0686245
123	0xbb8fe9d4	-0.004391888
124	0x3e838efb	0.25695023
125	0x3e80bfda	0.2514637
126	0xbe4ea37a	-0.20179549
127	0xbeaca143	-0.33716783
128	0x3e0e902d	0.13922186
129	0xbea284ee	-0.31742042
130	0x3e1c539f	0.15266274
131	0x3c9b371f	0.018947182
132	0x3e7b29bc	0.24527639
133	0x3e98e1c9	0.2985976
134	0xbeca08df	-0.39459893
135	0x3dcb4c56	0.09926669
136	0x3e3d97cd	0.18514939
137	0x3e07ebaa	0.13273492
138	0xbe8156b3	-0.2526146
139	0x3e98325c	0.2972592
140	0xbd9472f0	-0.07248485
141	0x3d0cd8b7	0.034386363
142	0x3e462630	0.19350505
143	0xbe964b40	-0.29354286
144	0x3da96a6c	0.082722515
145	0xbe42ccc2	-0.19023421
146	0x3de573af	0.112037055
147	0xbe0648b7	-0.13113676
148	0xbec03628	-0.37541318
149	0x3eb791c1	0.3585339
150	0xbea01478	-0.31265616
151	0xbd03efc3	-0.032211076
152	0xbe6fec4e	-0.23429987
153	0xbfb2bd18	-1.3963957
154	0x3e90168a	0.28142196
155	0xbe9262ef	-0.28591105
156	0xbe0a4d70	-0.13506103
157	0xbf12a3a2	-0.57280934
158	0xbddbf684	-0.107403785
159	0xbe32a87e	-0.17447087
160	0xbf1fb229	-0.62381226
161	0xbe88feeb	-0.26756987
162	0x3df3b62f	0.11899983
163	0x3f2d7819	0.6776138
164	0xbf850dee	-1.0394876
165	0xbe74e71f	-0.2391629
166	0xbe82c209	-0.25538662
167	0xbdebf2d4	-0.11520925
168	0xbf0135c4	-0.50472665
169	0x3d929210	0.071567655
170	0xbbb6fc9a	-0.0055843117
171	0x3e919e7e	0.28441232
172	0x3ce0a7eb	0.02742382
173	0xbea00c1d	-0.31259242
174	0xbe892dae	-0.26792663
175	0x3db0c650	0.08631575
176	0xbe5aa456	-0.21351752
177	0xbe8f3aee	-0.27974647
178	0xbeeddb33	-0.46456298
179	0xbdd92634	-0.1060299
180	0xbc37f63e	-0.011228142
181	0xbf21ca1f	-0.6319904
182	0x3e19752c	0.14986104
183	0xbe120854	-0.1426099
184	0xbbacdf7c	-0.005275665
185	0xbe9cfa03	-0.30659494
186	0xbe6b1720	-0.2295804
187	0xbe478ff0	-0.19488502
188	0xbeba1be5	-0.36349407
189	0xbd1cda86	-0.038294338
190	0x3ed50f88	0.41613412
191	0xbdd6c460	-0.10486674
192	0xbc2ae529	-0.010430613
193	0xbeb848e3	-0.35993108
194	0xbe35aefc	-0.17742532
195	0xbe791278	-0.24323452
196	0x3e055a3b	0.13022701
197	0xbda312cf	-0.07962572
198	0x3f00c46b	0.5029971
199	0x3e998896	0.2998702
200	0x3d1bbcd0	0.038021863
201	0x3e55aa2a	0.20865694
202	0x3d8f1f24	0.069883615
203	0x3dd676db	0.10471889
204	0x3e80a826	0.25128287
205	0xbf3114bf	-0.6917228
206	0x3ead5ab1	0.33858255
207	0x3e5ee919	0.21768607
208	0x3d9be95d	0.0761287
209	0x3e9c8758	0.3057201
210	0xbe539874	-0.20663625
211	0xbf126029	-0.5717798
212	0xbd313737	-0.043265548
213	0x3e27b230	0.16376567
214	0x3e88dc36	0.26730508
215	0x3f0871a5	0.5329841
216	0xbe696b6e	-0.22794887
217	0xbeb64ad7	-0.35603973
218	0x3cadfb1a	0.021237899
219	0x3db659e5	0.08903865
220	0xbcb6d7f8	-0.022319779
221	0xbf08aa2d	-0.5338467
222	0x3e7d9e01	0.24767305
223	0xbe6c8148	-0.23096192
224	0xbec1e540	-0.37870216
225	0xbcfde235	-0.030991653
226	0x3e44a3cb	0.19203107
227	0x3f1faf4f	0.62376875
228	0x3dfa5153	0.122225426
229	0x3dd24720	0.10267472
230	0xbe813b55	-0.2524058
231	0x3d952c55	0.07283846
232	0xbe868b39	-0.26278093
233	0xbe9ad970	-0.30244017
234	0xbf18a1dc	-0.5962198
235	0xbedde0d6	-0.433356
236	0x3f069d41	0.525837
237	0xbec86d72	-0.39146
238	0xbea72b82	-0.3265038
239	0x3e63f7bf	0.22262476
240	0xbd7ed9d5	-0.06221946
241	0x3e27db1f	0.16392182
242	0x3e8c7324	0.27431595
243	0x3e85be8b	0.26121935
244	0xbea9208f	-0.33032653
245	0x3eb1ae5c	0.34703338
246	0x3e0bd60d	0.13655873
247	0x3e074408	0.13209546
248	0xbf912e53	-1.1342262
249	0xbe279661	-0.16365959
250	0x3e8a3e79	0.27000788
251	0xbe700024	-0.23437554
252	0x3d621b64	0.055201903
253	0xbeaea791	-0.34112218
254	0xbe84aa27	-0.25911066
255	0xbf3b82d8	-0.73246527

model.4.weight_sigma f4 [32, 32]
0	0x3ca0a73d	0.019610995
1	0xbca6c5b5	-0.020357946
2	0xbcbe9cd7	-0.023268146
3	0xba08b99b	-0.00052156457
4	0x3cac7376	0.02105115
5	0x3afb9c62	0.0019196386
6	0x3bd73582	0.006567658
7	0xbc6e6af8	-0.0145518705
8	0xbbd130b0	-0.006383978
9	0x3d57f24e	0.052721314
10	0xbbbe4562	-0.005806611
11	0x3cf1995e	0.029492076
12	0xbcb7e5ad	-0.022448385
13	0xbd88e5be	-0.06684445
14	0xbc232156	-0.009956678
15	0x3d2bdf4a	0.041960992
16	0x3cc6dd4b	0.024275443
17	0x3b6b6539	0.0035918488
18	0xbd819ac7	-0.063283496
19	0xbd2ea4f1	-0.04263777
20	0x3ca0ec3f	0.0196439
21	0xbcdc89f2	-0.026921246
22	0xbd32d156	-0.04365667
23	0xbaca8994	-0.0015452378
24	0xbd3d9a07	-0.04628947
25	0x3c74b009	0.014934548
26	0x3ba57a8e	0.00505001
27	0xbca13561	-0.019678773
28	0xbbe4bf25	-0.006980794
29	0xbb13c6c4	-0.0022548893
30	0xbcd26701	-0.025683882
31	0x3c0c553c	0.008565243
32	0x3ba69369	0.0050834906
33	0x3b3623ef	0.0027792414
34	0xbd305e98	-0.04305896
35	0x3ca0e254	0.019639172
36	0x3cc97f1e	0.024596747
37	0x3c92f94b	0.017941138
38	0xbca002f4	-0.019532658
39	0x3c9896f8	0.018626675
40	0xbd02aae2	-0.031901248
41	0x3cf369e8	0.029713586
42	0x3c3358cd	0.010946465
43	0x3d1ea9c2	0.038736112
44	0xbd725cd3	-0.059170555
45	0xbb3ad3d4	-0.0028507607
46	0xbbcc6b67	-0.0062383893
47	0xbd8ef758	-0.06980771
48	0xbcd2e262	-0.025742713
49	0xbc6aa0d7	-0.014320574
50	0xbd4ad2e8	-0.049517542
51	0xbd5cbb56	-0.053889595
52	0x3ba1014d	0.004913485
53	0xbc71a8b6	-0.0147496965
54	0x3d2469b0	0.040139854
55	0x3d27c6e1	0.04096115
56	0x3c0a7742	0.008451285
57	0xbd49a752	-0.049231835
58	0x3d71ea13	0.05906112
59	0x3d2afeec	0.04174702
60	0x3c73bc11	0.0148763815
61	0xbd027d4e	-0.03185778
62	0x3bb3aae1	0.005483017
63	0x3cc37e7d	0.023864025
64	0x3c42e8ae	0.0118962955
65	0x3c626a8b	0.013819347
66	0xbc6aa45b	-0.014321412
67	0x3cb8bff3	0.022552466
68	0xbd590a4b	-0.05298833
69	0xbd0ba333	-0.034091186
70	0x3a7a702b	0.00095534575
71	0xbd85e098	-0.065369785
72	0x3d092674	0.033483937
73	0x3c167f8c	0.009185683
74	0x3cd2b8c1	0.025722863
75	0x3d08be47	0.033384588
76	0x3bde8a51	0.006791391
77	0x3c6e8532	0.014558123
78	0x3ce7f940	0.028317094
79	0xbcb5b488	-0.02218081
80	0xbc94b8e6	-0.018154573
81	0xbab50c5a	-0.0013812885
82	0x3c4a2118	0.012336992
83	0xbcc181f8	-0.023621544
84	0x3d2a94e0	0.041645885
85	0xbcfd2d60	-0.030905426
86	0xbcab8114	-0.020935573
87	0x3c94c504	0.01816035
88	0x3c82850f	0.015932588
89	0xbd18a80f	-0.03726965
90	0xbd5854ce	-0.05281525
91	0x3db4a581	0.0882063
92	0xbd7857f5	-0.060630757
93	0x3d3859bc	0.045007452
94	0xbc2cda23	-0.010550055
95	0xbbbe5f4c	-0.0058097
96	0xbda360cd	-0.07977448
97	0xbc211c7d	-0.009833452
98	0x3bbb5d39	0.0057179
99	0xbc74f84b	-0.014951776
100	0xbd90495d	-0.07045243
101	0x3da16e00	0.07882309
102	0xbc9eeac9	-0.019399064
103	0x3dbf521b	0.09341832
104	0xbd711743	-0.058860075
105	0xbbb5fad4	-0.0055535827
106	0xbb6d5ad7	-0.0036217475
107	0xbd64bcdf	-0.055844184
108	0x3b6b5c70	0.0035913251
109	0x3dcd5bf3	0.100273035
110	0x3cfcf931	0.030880542
111	0xbd50ec21	-0.05100644
112	0x3d800eb5	0.06252805
113	0xbc8966f8	-0.016772732
114	0x3bfff737	0.0078114527
115	0x3ad5b387	0.0016304114
116	0xbd389272	-0.045061536
117	0xbde0a780	-0.10969448
118	0x3d45241f	0.04813015
119	0x3ddb4f36	0.10708468
120	0x3d260f46	0.04054191
121	0x3d1f8930	0.03894919
122	0x3da99754	0.08280817
123	0xbdc54110	-0.0963155
124	0xbc4504f4	-0.012025107
125	0xbcae0749	-0.021243708
126	0x3d31af2d	0.04337995
127	0x3d03d20c	0.03218274
128	0x3b6d3cd6	0.003619959
129	0xbd94a883	-0.072587036
130	0x3d30f3b3	0.04320116
131	0x3de0bd51	0.10973609
132	0xbc65e890	-0.014032498
133	0xbc726981	-0.014795662
134	0x3c940318	0.018067881
135	0xbd93e1a3	-0.07220771
136	0xbd0d8a60	-0.034555793
137	0x3ceb2000	0.028701782
138	0xbce1e4ea	-0.027574975
139	0x3d4ce538	0.050023288
140	0xbcafd4fe	-0.021463867
141	0xbd36b436	-0.044605456
142	0x3c2995cc	0.010350656
143	0xbd1ef8bc	-0.03881143
144	0xbc850a1a	-0.016240168
145	0x3cf673bd	0.030084485
146	0xbd208009	-0.039184604
147	0x3d800bed	0.06252275
148	0xbb3a0fc1	-0.0028390738
149	0x3cae6174	0.021286704
150	0x3ce05cbf	0.027387975
151	0xbc070a12	-0.008242147
152	0xbd70061d	-0.05859958
153	0xbc53f9d3	-0.012937981
154	0xbcc83f3d	-0.024444217
155	0x3da42b41	0.080160625
156	0xbd5e45b1	-0.05426568
157	0x3d3565d7	0.044286575
158	0x3cec9972	0.028881762
159	0xbcedde55	-0.02903668
160	0x3d7e883b	0.06214164
161	0xbd4060a7	-0.046967175
162	0xbc4dce1f	-0.01256135
163	0x3d918f49	0.071074076
164	0xbbbd9272	-0.00578528
165	0xbbcb2ed1	-0.0062006493
166	0x3c45b8c9	0.012067982
167	0x3d906bb9	0.070517965
168	0x3bf1b319	0.0073760864
169	0xbbd8cc8e	-0.0066161817
170	0xba529e12	-0.00080344186
171	0xbb1e1129	-0.0024119115
172	0xbceea561	-0.029131593
173	0xbc611f77	-0.013740412
174	0xbc01aa4b	-0.007914136
175	0x3c6a4f1a	0.014301086
176	0x3d0fd58f	0.035115775
177	0x3cb4054b	0.02197518
178	0xbcebbf5b	-0.028777769
179	0x3c021e0b	0.007941733
180	0x3bf95a1e	0.0076096198
181	0x3c215eec	0.009849291
182	0xbc2af1bf	-0.010433613
183	0xbc8d1afa	-0.017224777
184	0xbb5ca893	-0.0033669814
185	0xbc95df51	-0.018294962
186	0x3c3c48bb	0.01149195
187	0xbc04f98f	-0.00811614
188	0xbd25c8c6	-0.040474676
189	0xbc9712b6	-0.01844154
190	0x3b2448b7	0.0025067755
191	0xbc2ee9cb	-0.010675858
192	0xbb8d187f	-0.0043058987
193	0x3c0b77ff	0.008512496
194	0x3d0bb43f	0.034107443
195	0x3b9ad192	0.0047246898
196	0x3ba46752	0.0050171996
197	0xbc3f6023	-0.011680636
198	0x3ae00940	0.00170926
199	0x3c375cff	0.011191606
200	0x3c1fc255	0.009750922
201	0xbcc849c4	-0.024449237
202	0xbbe7018f	-0.0070497463
203	0xbd13396a	-0.035943426
204	0xbc904b0f	-0.017613916
205	0xbd193a14	-0.037408903
206	0x3b6fd2a5	0.003659406
207	0x3bebd543	0.0071970536
208	0x3c617e04	0.013762955
209	0x3c1b2367	0.00946889
210	0xbcc7db0e	-0.024396446
211	0xbceefef8	-0.029174313
212	0x3b32defd	0.0027293556
213	0xbc20d00b	-0.009815226
214	0xbcfedae9	-0.031110244
215	0x3cb4da54	0.022076763
216	0xbcd555fe	-0.02604198
217	0xbcb734f9	-0.022364127
218	0xbc4857bd	-0.01222795
219	0x3d13432f	0.035952743
220	0x3d1da0ec	0.038483545
221	0xbc0116a8	-0.007878937
222	0x3c693161	0.014232964
223	0xbb097ffd	-0.0020980828
224	0x3cbccf4b	0.023048064
225	0xbbbd0a19	-0.005769026
226	0xbace000c	-0.0015716567
227	0xbd6806b2	-0.05664701
228	0x3c663303	0.014050248
229	0x3c772017	0.015083334
230	0x3c5d9c82	0.013526084
231	0xbd5e096e	-0.05420821
232	0x3c70f81d	0.014707592
233	0x3d847ed7	0.06469505
234	0x3a8da740	0.0010807291
235	0xbd12b64c	-0.035818383
236	0xbb9d3ec9	-0.0047987443
237	0xbcf2a3c4	-0.029619105
238	0xbd1ca9f9	-0.038248036
239	0x3ba1ab2d	0.004933736
240	0x3d2e8ae2	0.042612918
241	0xbba76ce0	-0.0051094145
242	0x3ca96971	0.020680161
243	0x3cc3b7de	0.023891386
244	0x3c2139c3	0.009840432
245	0x3c7f0bb5	0.015566756
246	0xbc645009	-0.0139350975
247	0xbccbb23c	-0.024865262
248	0xbcccf548	-0.025019303
249	0x3d3b0ed8	0.045668453
250	0x3d958118	0.07300013
251	0x3cee688c	0.029102586
252	0x3d0827ee	0.033241205
253	0xbcc618f8	-0.024181828
254	0xbc947943	-0.018124228
255	0x3c7d21bd	0.015449938

model.4.bias_mu f4 [32]
0	0xbe01f19d	-0.12689824
1	0x3d1f1a9b	0.038843732
2	0xbf231643	-0.63705844
3	0x3f579216	0.84207284
4	0x3d23c822	0.039985783
5	0xbe1aae29	-0.151055
6	0x3de5d687	0.112225585
7	0xbef86906	-0.48517627
8	0x3f02ca0c	0.5108955
9	0xbe0a7668	-0.13521731
10	0xbeee6c96	-0.4656722
11	0xbd61deaf	-0.05514401
12	0x3e9a8eab	0.30186972
13	0x3e16dae8	0.14731944
14	0xbe9ece28	-0.3101666
15	0xbe93e769	-0.2888749
16	0xbe8f0d8f	-0.27940032
17	0xbc8ac4a9	-0.016939478
18	0xbf0a2cd6	-0.53974664
19	0xbe886bbf	-0.26644704
20	0xbecfd004	-0.4058839
21	0x3f4b864f	0.79501814
22	0x3ccc9a7d	0.02497601
23	0x3c972ca9	0.018453913
24	0xbd2ea7d1	-0.04264051
25	0xbe98f033	-0.29870757
26	0x3e3ee213	0.18640928
27	0x3f1cdcfb	0.6127469
28	0x3f11c6f1	0.56944185
29	0x3e6167cc	0.22012252
30	0x3e099108	0.13434231
31	0xbeb16004	-0.34643567

model.4.bias_sigma f4 [32]
0	0xbb01f33d	-0.001982882
1	0x3d123819	0.03569803
2	0x3c2e06ce	0.01062174
3	0xbe20df5c	-0.15710205
4	0xbd9d4780	-0.07679653
5	0x3c9cc73b	0.01913797
6	0x3d0e6e89	0.034773383
7	0xbc6bfada	-0.014403069
8	0xbbcd8bfe	-0.006272792
9	0xbcb42242	-0.021988992
10	0x3bcdcb81	0.006280363
11	0x3b6656ff	0.0035147069
12	0x3d070c7f	0.0329709
13	0x3c531f43	0.012885871
14	0x3c9dced3	0.01926366
15	0x3a88f147	0.0010447883
16	0xbbc1d841	-0.005915672
17	0x3d4469c7	0.04795244
18	0xbd656f96	-0.05601462
19	0xb9569b44	-0.00020466471
20	0x3c80b113	0.015709436
21	0x3d46b870	0.048515737
22	0x3d51193a	0.05104945
23	0xbca3265c	-0.019915752
24	0x3cb39776	0.021922808
25	0x3c34eabc	0.011042293
26	0x3d244375	0.040103395
27	0xbc1c2721	-0.009530813
28	0x3c87cfbc	0.016578548
29	0x3cb95674	0.022624232
30	0xbd295d7d	-0.041348923
31	0x3cbdedc2	0.02318466

model.4.weight_epsilon f4 [32, 32]
0	0xbf2a97f6	-0.66638124
1	0x3f953112	1.16556
2	0x3f4997fb	0.7874753
3	0x3cf5abc5	0.029989133
4	0xbe3717d9	-0.17880191
5	0x3f2470d8	0.64234686
6	0xbf87e72d	-1.0617424
7	0xbf188c9c	-0.5958955
8	0xbf120a33	-0.5704681
9	0xbea2fb69	-0.31832436
10	0x3f8bf652	1.0934546
11	0xbea7f066	-0.32800597
12	0xbf3f73fe	-0.74786365
13	0xbf283b24	-0.6571524
14	0xbe9c3a97	-0.3051345
15	0xbf7b89ad	-0.9825695
16	0xbf4adbfb	-0.79241914
17	0x3f7045eb	0.93856686
18	0x3efaec48	0.49008393
19	0x3f2790e0	0.65455437
20	0xbf3ce44f	-0.7378587
21	0xbef358b2	-0.47528607
22	0x3eb217ad	0.34783688
23	0x3ef8803d	0.48535338
24	0x3e302389	0.17201056
25	0x3f8b2fea	1.0873997
26	0x3f635198	0.8879638
27	0x3f7e71a8	0.99392176
28	0x3f7f201d	0.99658376
29	0xbeea6453	-0.45779666
30	0x3f0cb9be	0.5497092
31	0xbee5b1f7	-0.4486234
32	0xbf56ca70	-0.83902645
33	0x3fbbd814	1.4675317
34	0x3f7dd282	0.99149334
35	0x3d1aa8d8	0.03775868
36	0xbe668758	-0.22512567
37	0x3f4f0b3e	0.8087653
38	0xbfab1cd4	-1.3368173
39	0xbf40124f	-0.75027937
40	0xbf37e02a	-0.7182642
41	0xbecd350e	-0.4007954
42	0x3fb03932	1.3767455
43	0xbed372d0	-0.41298532
44	0xbf710df4	-0.94161916
45	0xbf53d0ec	-0.82740664
46	0xbec4b456	-0.38418835
47	0xbf9e5a5a	-1.2371323
48	0xbf7f6a73	-0.99771804
49	0x3f9742ea	1.1817296
50	0x3f1df744	0.6170542
51	0x3f52fa8b	0.8241355
52	0xbf6dd466	-0.9290222
53	0xbf193238	-0.5984225
54	0x3ee03b81	0.43795398
55	0x3f1c70ec	0.61109805
56	0x3e5dc5cb	0.21657483
57	0x3faf3f62	1.3691218
58	0x3f8f1b28	1.1180162
59	0x3fa02eb7	1.2514256
60	0x3fa09c8b	1.2547773
61	0xbf138f15	-0.576402
62	0x3f312f3e	0.6921271
63	0xbf109a27	-0.5648522
64	0x3f131832	0.57458794
65	0xbf80a404	-1.0050054
66	0xbf2dd309	-0.6790014
67	0xbcd3d47f	-0.025858162
68	0x3e1ddf4d	0.15417214
69	0xbf0dca0d	-0.5538643
70	0x3f6a5d75	0.91548854
71	0x3f038927	0.5138115
72	0x3efbd893	0.4918867
73	0x3e8c880e	0.2744755
74	0xbf715d77	-0.9428324
75	0x3e90ce3e	0.2828235
76	0x3f2514a4	0.6448462
77	0x3f110eb0	0.56663036
78	0x3e86b561	0.26310256
79	0x3f58e383	0.84722155
80	0x3f2eea67	0.6832642
81	0xbf4f2cfe	-0.8092803
82	0xbed85bcd	-0.42257538
83	0xbf107be0	-0.5643902
84	0x3f22df47	0.63621944
85	0x3ed1d364	0.4098159
86	0xbe998f78	-0.2999227
87	0xbed6452b	-0.41849646
88	0xbe17e039	-0.14831628
89	0xbf70074f	-0.9376115
90	0xbf44017d	-0.7656477
91	0xbf5b6503	-0.85701007
92	0xbf5bfb70	-0.8593054
93	0x3eca1aca	0.39473563
94	0xbef2ae78	-0.47398734
95	0x3ec60e0f	0.386826
96	0x3f543d53	0.82906073
97	0xbfb99ce8	-1.4501009
98	0xbf7aceb7	-0.9797167
99	0xbd18d293	-0.037310194
100	0x3e63ca61	0.2224517
101	0xbf4c95b0	-0.79915905
102	0x3fa91488	1.3209391
103	0x3f3dca48	0.7413678
104	0x3f35b10f	0.70973295
105	0x3ecac516	0.3960349
106	0xbfae215b	-1.3603929
107	0x3ed0efde	0.40808004
108	0x3f6e30fc	0.93043494
109	0x3f514cdb	0.817579
110	0x3ec25e39	0.3796251
111	0x3f9c78da	1.2224381
112	0x3f7c61d0	0.9858675
113	0xbf9576fa	-1.1676934
114	0xbf1c16f1	-0.60972506
115	0xbf507906	-0.8143467
116	0x3f6b013c	0.9179876
117	0x3f176066	0.5913147
118	0xbedd91b0	-0.43275213
119	0xbf1a953c	-0.60383964
120	0xbe5b2374	-0.21400243
121	0xbfad2a83	-1.3528599
122	0xbf8d6804	-1.1047368
123	0xbf9e47a7	-1.2365617
124	0xbf9eb42d	-1.2398735
125	0x3f11ce67	0.5695557
126	0xbf2f147b	-0.68390626
127	0x3f0ee276	0.558143
128	0xbf67e76a	-0.90587485
129	0x3fcacf71	1.5844556
130	0x3f8905cc	1.0704894
131	0x3d26fb5b	0.040767055
132	0xbe78e553	-0.2430623
133	0x3f5f8a36	0.8732027
134	0xbfb8beee	-1.4433267
135	0xbf4f5fe5	-0.810057
136	0xbf468695	-0.77549106
137	0xbedd8e90	-0.4327283
138	0x3fbe4389	1.486436
139	0xbee44ba0	-0.44588947
140	0xbf822150	-1.0166416
141	0xbf64b13a	-0.89332926
142	0xbed4606b	-0.4147981
143	0xbfaaf832	-1.3356993
144	0xbf89e205	-1.0772101
145	0x3fa3501e	1.2758825
146	0x3f2a8d37	0.66621727
147	0x3f63c9c5	0.8897975
148	0xbf8063a5	-1.0030409
149	0xbf2566e3	-0.6461012
150	0x3ef21910	0.47284746
151	0x3f28e7c6	0.6597866
152	0x3e6f712d	0.23383017
153	0x3fbd35d2	1.478205
154	0x3f9a8205	1.2070929
155	0x3facf1e1	1.3511316
156	0x3fad6875	1.3547503
157	0xbf1f50c4	-0.62232614
158	0x3f3f4d30	0.74727154
159	0xbf1c1f87	-0.60985607
160	0xbf76c384	-0.96392083
161	0x3fd7ce4c	1.6859832
162	0x3f91cd7c	1.1390834
163	0x3d31ae7d	0.043379296
164	0xbe846c13	-0.25863704
165	0x3f6ddd1c	0.9291551
166	0xbfc49575	-1.5358111
167	0xbf5ca99f	-0.8619632
168	0xbf533f27	-0.8251824
169	0xbeebc0ef	-0.46045634
170	0x3fca7494	1.5816827
171	0xbef2ec87	-0.4744608
172	0xbf8a77ef	-1.0817851
173	0xbf7358a5	-0.95057136
174	0xbee1fc33	-0.44137725
175	0xbfb5ecbe	-1.4212873
176	0xbf92b7d1	-1.1462346
177	0x3fadc711	1.3576375
178	0x3f357ae8	0.70890665
179	0x3f72625a	0.9468132
180	0xbf889db6	-1.067313
181	0xbf30001a	-0.68750155
182	0x3f00ce31	0.50314623
183	0x3f33ba76	0.7020639
184	0x3e7ec8ee	0.24881336
185	0x3fc95595	1.5729243
186	0x3fa46888	1.28444
187	0x3fb806d3	1.4377083
188	0x3fb88501	1.441559
189	0xbf298624	-0.6622031
190	0x3f4b8f41	0.79515463
191	0xbf262089	-0.64893395
192	0xbed614f8	-0.41812873
193	0x3f3b3961	0.7313443
194	0x3efcfc11	0.4941106
195	0x3c9a262e	0.018817034
196	0xbde5c495	-0.11219136
197	0x3ece5c52	0.4030481
198	0xbf2a8c44	-0.6662028
199	0xbebf7009	-0.37390164
200	0xbeb744d1	-0.3579469
201	0xbe4c87af	-0.19973634
202	0x3f2fa450	0.68610096
203	0xbe52c02c	-0.2058112
204	0xbef0424c	-0.4692558
205	0xbed31df7	-0.412338
206	0xbe440e27	-0.19146024
207	0xbf1dd491	-0.61652476
208	0xbefe92a9	-0.49721268
209	0x3f16c31f	0.5889148
210	0x3e9d71cf	0.30750892
211	0x3ed2484c	0.41070783
212	0xbeed0b77	-0.4629781
213	0xbe98b0cb	-0.29822382
214	0x3e5f7e10	0.21825433
215	0x3e9becc1	0.30454066
216	0x3ddd0a6d	0.10793004
217	0x3f2eab53	0.6823017
218	0x3f0ea241	0.5571633
219	0x3f1fa763	0.62364787
220	0x3f2014da	0.62531817
221	0xbe93126a	-0.28724986
222	0x3eb0998c	0.34492147
223	0xbe901ffc	-0.28149402
224	0xbf68ff0c	-0.9101417
225	0x3fcbc3fe	1.5919187
226	0x3f89ab05	1.0755316
227	0x3d27c4b5	0.04095908
228	0xbe7a1171	-0.24420716
229	0x3f6097c2	0.87731564
230	0xbfb99db2	-1.450125
231	0xbf5059f3	-0.8138725
232	0xbf4775f8	-0.7791438
233	0xbede99b8	-0.43476653
234	0x3fbf28f5	1.4934374
235	0xbee55ee7	-0.44798967
236	0xbf82be39	-1.0214301
237	0xbf65c4fd	-0.89753705
238	0xbed56081	-0.4167519
239	0xbfabc65a	-1.3419907
240	0xbf8a8847	-1.0822839
241	0x3fa4150b	1.2818922
242	0x3f2b5ade	0.6693553
243	0x3f64dc70	0.8939886
244	0xbf80fe75	-1.0077654
245	0xbf262e54	-0.6491444
246	0x3ef33cfc	0.47507465
247	0x3f29b371	0.6628943
248	0x3e7091e6	0.23493156
249	0x3fbe19f9	1.4851676
250	0x3f9b3c54	1.2127786
251	0x3fadc26b	1.3574957
252	0x3fae398e	1.3611314
253	0xbf2010df	-0.62525743
254	0x3f4033dc	0.7507913
255	0xbf1cdbc8	-0.6127286
