Tennis/last_actor_2.pth (torch_old, 28393 bytes, 30 tensors)

model.0.weight f4 [24]
00000000: 7f77 f63e 7113 cc3e a32b f03d 8445 223e
00000010: 2964 873f c6ad 663f 6859 5e3e 7f28 353f
00000020: 0a04 ab3e 92ab aa3e 08b8 a53e 4e43 323e
00000030: 3feb f23d 77ed b3be 5951 a83d 6622 eb3e
00000040: b3f6 3c3f 0d3e e33e 3fab a23d 986a b73e
00000050: 086e b13f 8e10 873f a74b e63e 80af 423f
0.48138043 0.39858583 0.11727073 0.1584683 1.0577441 0.9010891 0.21713793 0.7076492
0.3340152 0.33334023 0.32366967 0.17408487 0.11861276 -0.3514211 0.08218641 0.4592468
0.73813933 0.44383278 0.07942819 0.35823512 1.3861704 1.0551927 0.44979593 0.7604904

model.0.bias f4 [24]
00000000: 1683 2fbd ef4f 87be 3821 183e 022a a3bd
00000010: f0d7 b13d 4582 003e 384f 9a3d 3310 b8bd
00000020: 2f51 1bbd 4d45 98be 141a bf3c e95f 73be
00000030: e194 22be 286c 9b3d fbdf 353e 279f 56be
00000040: cc54 b73d 98f4 583e 5690 6bbd b7d0 2d3e
00000050: bfe2 c1bd 3781 513e 86a8 80be a130 093e
-0.042849623 -0.26428172 0.14856422 -0.07966997 0.08683765 0.12549694 0.07534641 -0.08987465
-0.03791922 -0.29740372 0.023327865 -0.23767056 -0.15877105 0.075889885 0.17761223 -0.2095915
0.089517206 0.21187055 -0.057510696 0.1697415 -0.094670765 0.20459448 -0.25128573 0.13397457

model.0.running_mean f4 [24]
00000000: a52d f8c0 525f 99be 1be1 a63f f35c eb3d
00000010: 4ccb 993d d4d6 7440 1be1 a63f f35c eb3d
00000020: 51e8 fbc0 6cf5 9cbe 142a 1a40 fa47 c13d
00000030: 93f8 823d d178 7540 142a 1a40 fa47 c13d
00000040: 213b 00c1 892d a4be 09d4 0b40 429d e13c
00000050: e66c 7b3d e094 7540 09d4 0b40 429d e13c
-7.755572 -0.29955536 1.3037447 0.11492338 0.07509479 3.825612 1.3037447 0.11492338
-7.872109 -0.30655992 2.4088182 0.094375566 0.06395068 3.835499 2.4088182 0.094375566
-8.014436 -0.3206599 2.1848166 0.027540807 0.06138315 3.8372116 2.1848166 0.027540807

model.0.running_var f4 [24]
00000000: 6940 4041 af9f 693f 74e1 fe43 1da1 7041
00000010: 12d0 fb41 daa1 4140 74e1 fe43 1da1 7041
00000020: 4477 2b41 7221 6d3f 1ccf 0444 5c7f 7b41
00000030: 660d 0542 23b0 4340 1ccf 0444 5c7f 7b41
00000040: b032 1b41 23d0 703f b0ec 0a44 0f53 8141
00000050: 1a2a 0d42 b805 4e40 b0ec 0a44 0f53 8141
12.015725 0.9125928 509.76135 15.039334 31.476597 3.0255036 509.76135 15.039334
10.716618 0.9262916 531.2361 15.718594 33.263084 3.0576255 531.2361 15.718594
9.699875 0.9406759 555.69824 16.165556 35.291115 3.219099 555.69824 16.165556

model.1.weight_mu f4 [32, 24]
00000000: fa3f e23d d1a3 c5be 9c81 7a3e 1609 18bf
00000010: b6b8 1b3e eae0 21bf b634 fd3d c830 82be
00000020: 2838 623e 8ce6 6dbe 8965 f4be bf94 933d
00000030: 72f6 cf3e 8969 603f fb3c 99be b9e5 a33e
00000040: f442 16be b1c8 2bbf 991a 8bbe a48e 8cbe
00000050: 3485 f53d d893 8e3d d4de 38be 44db 0e3d
00000060: 401c 5fbe 84b7 223f 3e6a 843e ec01 573e
00000070: d12b 343e 4a82 ad3e 3cfc 903e f0e7 f6bd
00000080: 3508 ccbc 839b 063f 43fc 80be 9473 c4be
00000090: 0b04 e83d 8c25 28bd 4305 87be 4ab7 86be
000000a0: 7891 8bbe fe25 8a3e f065 0cbe 1d00 34be
000000b0: 44bf db3e ab9a 1ebc 1f0b e2be 51ba 8fbe
000000c0: 2ebc 98bd 391f 113e ff7b 5a3d 6637 643e
000000d0: 141f 4d3e cf32 38bf 9148 2d3d 4e94 843c
000000e0: 1749 c4be dd0c f9bd f3c8 673f ecde 063e
000000f0: 26a6 5c3d 1dc7 82be 4836 a03e cd60 953e
00000100: 423f 263d d778 cdbe fdad 183e 2aad 9cbe
00000110: ce22 f0bd 5eca cc3c cc16 9bbe 2ce1 b3be
00000120: 9ca6 053f 2d17 c73d d45c c63c decd 863e
00000130: 2ade 0a3f f348 6fbe 8fd5 7a3e e430 573e
00000140: a6f2 1a3e a435 b13d cc94 e4be 6c76 5ebd
00000150: 4c19 f53d 27b0 a23d a5a6 b6be 85b6 a03c
00000160: 77dd 3ebe f955 3c3e e991 c2be e9d0 c5be
00000170: cb74 e9be 24ae ed3c 4b33 d5be a9a9 5fbe
00000180: 2470 cb3c b431 0cbe ccb8 c8bd ca51 b5be
00000190: bbb3 71be f819 033e 5211 d4ba ccab f1be
000001a0: 7ab0 7c3e 41fb 6ebe 60df b1bd b316 56be
000001b0: c6f0 a33e 6d38 6bbe ef31 5d3d 9523 81be
000001c0: 3b11 053e ef68 f5be f887 36be 8ca9 9c3e
000001d0: c916 693f 2fd8 973e a2db ac3c ca40 1b3e
000001e0: 5f1b 0d3e 0921 dc3c ba87 903e 4553 203f
000001f0: a8ed 36bf f8bd d6be fe62 553d 3e19 003f
00000200: 9403 08bd 3c8e b53e f176 65be b1ce 833c
00000210: 566e bcbe 3e2a 2a3f 89c6 c0be facb 4b3e
00000220: 65ca 53be fcee bebc e379 d9be 1875 ca3d
00000230: b95e 73bd 1b92 8cbd 647a eabe c1c9 d03e
00000240: 62f3 82bd 9cd4 5bbd 35d1 6a3e fa81 3e3e
00000250: ca4d 2f3f 3ea0 2fbf e56c 8e3d e1d6 d13e
00000260: 4948 b03d c8e9 c63c 8a7f 963e 12b3 753e
00000270: 890a 233f e679 123e ef8a 003e cfcc ca3e
00000280: 6fd1 743e 01c8 5b3e f2a7 103e 51db ab3c
00000290: 1385 863e f792 a03e fa4a 693e c6cc 653e
000002a0: da6c 953d 8fd7 f03e c199 0dbf 762c 1a3d
000002b0: 878c 04bd ce51 963e 1ca1 04bf c096 263e
000002c0: dafc 043f 4d04 063f ef21 b33d 9744 58be
000002d0: 3fed 0fbe 4c0c 633e 12a6 293e edc0 ee3d
000002e0: 0fbc b43d 44af 033e 5240 28bf bae6 c5be
000002f0: c30d 6b3e 4b35 b8bd 8688 5abf 0b7a 83be
00000300: e077 30bf 317d 4b3e c77f ba3e 51e2 023e
00000310: 249c b03d dbef 153e 69c7 c83e d834 6d3e
00000320: bca1 e8be 113a d83e 857b 39be cf07 debd
00000330: bb50 793e 79e6 533d 5193 8ebd fb33 0f3e
00000340: 935a 09be ad5b ba3e 811f 133e 5352 d7bd
00000350: ac14 a83e 4d3d 2ebf f708 16be cc04 db3d
00000360: 1145 5bbe cff1 483d 7b1a dfbe 7c6d d73c
00000370: 2b82 713f ffb7 0c3e 217c 2cbe 9d03 1bbe
00000380: 0f36 8abd 620a 773e 5a3d 6dbe 40f0 2f3e
00000390: 77e8 183f 7fa4 7c3e b18b 77be faa0 0d3d
000003a0: 05f1 dabd 4e89 d63e 8ca7 69be 58fc e8bd
000003b0: 81bd e0be f16e a83e 5e69 d43c b973 453e
000003c0: 36a9 ce3c 031a fcbe e45b 50be d60e f53e
000003d0: 1d1a 563f a80d a43e 7a99 3b3d 45db 823e
000003e0: 8317 d23d 9aa4 2b3a b4c1 c63c 5090 0cbc
000003f0: 6114 6a3f ecbf 61be c837 44be f040 9f3c
0.11047359 -0.38601544 0.24463505 -0.59388864 0.1520718 -0.63233817 0.123635694 -0.25427842
0.22091734 -0.23232478 -0.47733715 0.072061054 0.4061771 0.87661034 -0.29929337 0.32011202
-0.14673978 -0.67103106 -0.2716873 -0.27452576 0.11988297 0.06961793 -0.18053752 0.034877077
-0.2178812 0.6356127 0.25862306 0.20996827 0.1759484 0.33888465 0.2831744 -0.12055957
-0.024906257 0.5258104 -0.2519246 -0.3836943 0.11328896 -0.041051432 -0.26371202 -0.26311713
-0.2725942 0.2698211 -0.13710761 -0.17578168 0.42919362 -0.00968043 -0.4414911 -0.28071836
-0.074577674 0.14172067 0.05334091 0.22286758 0.20031387 -0.7195253 0.042305533 0.016183998
-0.38337013 -0.121606566 0.90541 0.13170975 0.05386939 -0.25542536 0.31291413 0.29175416
0.04058767 -0.40131256 0.14910121 -0.30600864 -0.117253885 0.02499884 -0.3029083 -0.3513273
0.5220735 0.09721217 0.024214186 0.2632894 0.54245245 -0.23367672 0.24495529 0.21014744
0.15131626 0.08652809 -0.44644773 -0.054312155 0.119677156 0.07943755 -0.35674015 0.019618282
-0.1863917 0.18392171 -0.38001946 -0.38635948 -0.45596918 0.0290137 -0.41640696 -0.21842064
0.024833746 -0.13690835 -0.09800872 -0.35413963 -0.23603718 0.12802875 -0.0016179478 -0.47201383
0.24676695 -0.23338033 -0.086851835 -0.20907097 0.32019633 -0.22970743 0.0540027 -0.2522246
0.12994854 -0.4793162 -0.17825305 0.30598104 0.9105039 0.29657122 0.021100823 0.15161434
0.13779972 0.026871221 0.2822855 0.6262706 -0.71456385 -0.4194181 0.05209636 0.50038517
-0.033206537 0.3546008 -0.22408654 0.01608977 -0.3680293 0.66470706 -0.3765147 0.1990203
-0.20682676 -0.023307316 -0.42475805 0.09885615 -0.059416506 -0.06863805 -0.45796502 0.40778926
-0.06394078 -0.053669557 0.22931369 0.1860427 0.6847807 -0.68603885 0.06954364 0.40984252
0.08607537 0.024281397 0.2939418 0.23994091 0.6368795 0.14304313 0.12552999 0.39609382
0.23908018 0.21463014 0.14126566 0.020978602 0.26273403 0.31362125 0.22782508 0.22441396
0.072961524 0.47039458 -0.55312735 0.037640058 -0.03236058 0.29359287 -0.51808333 0.16268444
0.5194832 0.5235031 0.08746707 -0.21119915 -0.14055346 0.2217266 0.16567257 0.116578914
0.08824932 0.12859827 -0.65723145 -0.38652593 0.22954468 -0.0899454 -0.8536457 -0.2567905
-0.68932915 0.19871975 0.3642561 0.12781645 0.086235315 0.14642279 0.39214638 0.2316469
-0.45435894 0.422318 -0.18113525 -0.10841333 0.24347202 0.051733468 -0.06961692 0.13984673
-0.13413458 0.36398068 0.14367487 -0.10513749 0.3282827 -0.6806229 -0.14651857 0.10694274
-0.21413065 0.04905873 -0.4357489 0.026297323 0.94339246 0.13742064 -0.16844226 -0.15138097
-0.06748592 0.24125054 -0.23167935 0.17181492 0.59729713 0.24672125 -0.24174382 0.034577347
-0.10690502 0.4190163 -0.2281782 -0.11376256 -0.4389458 0.32897142 0.02592915 0.19282426
0.02522717 -0.49238595 -0.20347553 0.4786288 0.83633596 0.3204167 0.045800664 0.25557914
0.10258391 0.000654766 0.024262287 -0.008579329 0.91437346 -0.22045869 -0.19161904 0.019440144

model.1.weight_sigma f4 [32, 24]
00000000: 80c8 f73c 098b 4dbd 76bd 403d dcfb 42bd
00000010: 1085 85bc bdd7 02bd 8994 613c f2cd 13bb
00000020: 3d6c ec3c 7aee 3b3d 673b c5bd aa3e e8bc
00000030: c5a2 3f3d 819e f33c b3f4 5a3d b7f0 2bbd
00000040: cfc2 eabc 26ad a03d 7603 b43d 0715 40bd
00000050: f1a8 923b 20d0 26bc 42a0 88bd 89c6 14bd
00000060: a8c8 01bd 2c26 d63c 4487 e13d bcb0 3c3a
00000070: c596 083c 4b64 61bc 28e4 41bd 2a26 483d
00000080: 5e79 63bd 2722 94bc e503 613d 9d27 8c3d
00000090: 21d5 543d 6657 b23d c35d 973b 0c9c 80bd
000000a0: 2c62 293d c50f cdbd 13db 05bd 10ed 793d
000000b0: 4988 1fbd ddb0 41bd b0dc 6b3e df2f c3bd
000000c0: be01 e5bc 1b19 f33c d321 66bd 15ab 01be
000000d0: 2219 c43c b10f 0ebc f5aa 673d 0c1e 0f3d
000000e0: cb9c 213d 5c45 80b8 790f 203d c471 1c3d
000000f0: 8277 203d c5e1 b7bc a72a 90bc c036 7b3d
00000100: a4b5 0c3c 9ced be3d 0dac 0e3b 5698 af3d
00000110: 6950 36bb c2fb 173d aa9e 333d b84a 84bd
00000120: e606 c93b de69 6abc 84ff 96bc 76df 5a3c
00000130: 1a96 dbbb 5fb1 133d 99cb f73c 2d43 50bc
00000140: 3b9e c3bc 91f3 17bd 170a 0b3d 5474 44bd
00000150: fcf3 933b 0458 8d3c df19 9e3c b231 eabc
00000160: 53c9 72bc dfc5 d63c 14b9 b4bd fd83 3bbd
00000170: f248 2fbd 252d cf3c 9475 3f3d 3714 953c
00000180: 2120 21bc 8797 c83a c74b 273a 06fc 4cbd
00000190: 7e58 223d d8df c03b 4209 91bc 66b0 063c
000001a0: 1fa4 b43a 2f30 2bbd 132d 113d b72e 6ebd
000001b0: 7186 25bd 31ec 1ebd 39b9 c93c fe8d 903d
000001c0: 7e04 bebb 361a bcbc d31b 103c 6f98 4c3d
000001d0: 144f dbbb 1003 de3b 5181 77bc c219 1c3d
000001e0: 002e cb3b 9fb7 803d 1edb 9bbb 1cdd 403d
000001f0: 9d70 40bd a47f 373a 6042 04bd 3dcb 2a3c
00000200: cce4 7c3b ff9e a53d 4cf1 53bd 1b0f be3c
00000210: 0a57 a63d 5561 803c e9ea 293b f051 b9bc
00000220: cbf2 9c3b ed81 01bd 394c 163d 04ac b1bc
00000230: 3051 2d3a 4c12 37bd 9ffa 993c ad31 973b
00000240: a811 a03c 0351 88bb 6b5e b4ba 9443 6c3d
00000250: 0d88 a2bc d2f0 a2bb bfd6 4f3b c9bc 003c
00000260: 78c6 14bd d4a3 b73d a818 8dbd 2e4f 313d
00000270: d704 b0bb d762 a33b c086 cebd ed8a 0d3c
00000280: f675 6d3d 307a d7bc cecd 87bd 0a0f 753c
00000290: 73eb 843a 42c9 19bc de55 513d 3b60 83bd
000002a0: fa26 edbc 63a0 0f3c 038a f83d 5d2f 373d
000002b0: 0693 b8bc c95a ef3c a07d 23bd a203 e03c
000002c0: b251 1dbc 5a4f b7b9 a1c0 ab3d d365 a5bd
000002d0: 528e 14bd 2706 ea3d 3217 4dbd 5400 0cbb
000002e0: 557e 4cbc 0917 2abd 4c8f 0f3e c6ab a73d
000002f0: 7e55 2bbd 7b31 c03c 6056 d4bc 0ae4 60bc
00000300: ce7c b33c e091 54bb 146c 8bbc cbf1 0ebd
00000310: 682d dcbc 30e8 82bc d277 bdbc 4361 a8ba
00000320: aa6f a73c 5de6 5cbc daa5 eabc f814 98bc
00000330: 8b91 0a3d f69f eabc 83ee b8bd 5563 e1bb
00000340: a7c4 0b3d cbc5 efbb 1b91 2cbd 1ce4 d9bc
00000350: f549 adbb fd32 f1bb 3ae4 a83a 35d8 c43c
00000360: 20d9 c33b 9b7c 393b 7b55 a93b 4e2c 09bd
00000370: b5cf a83c 30b1 6ebb 3249 16bd 9357 873c
00000380: 8624 4fbd fb21 0aba b94d 74bc a654 0bbd
00000390: 2edd 2ebd 8f53 68bd 4f1d 44bb c69c 2a3b
000003a0: 2422 073d fc45 4b3c e82a a33b 42d8 3cbc
000003b0: 8341 a7bc 1ddf abba baa6 843c 7b4c cf3c
000003c0: 1478 d9bc 7932 273c 775d bd3d 9898 71bd
000003d0: b546 edbc 9d1a 3a3c d45f 323d 0956 adbc
000003e0: 6131 503b 6ee6 9a3b 9508 f13c 29aa 8cbb
000003f0: f22e 553d c235 133d eb71 b23c b16d 33bd
0.030246973 -0.050181422 0.047055684 -0.047603473 -0.0162988 -0.031944025 0.013768324 -0.0022553173
0.028860206 0.045881726 -0.09630471 -0.028350193 0.04678609 0.029738666 0.05345602 -0.04197761
-0.028657345 0.078455254 0.087897226 -0.046895053 0.004475706 -0.010181457 -0.06671192 -0.03632215
-0.0316855 0.026141249 0.11012128 0.00071979663 0.0083367275 -0.013756822 -0.047336727 0.04886452
-0.055535667 -0.018082691 0.054935355 0.06843493 0.051961068 0.08708076 0.0046193316 -0.062797636
0.04135339 -0.100127734 -0.03267963 0.061017096 -0.03894833 -0.04728781 0.23033404 -0.09530615
-0.027954932 0.029675057 -0.0561846 -0.12662919 0.023937766 -0.008670733 0.05655952 0.034940764
0.03945617 -6.116435e-05 0.039077256 0.038194433 0.03917647 -0.022446522 -0.017598463 0.06133151
0.008588228 0.09322664 0.002177003 0.08573978 -0.0027818924 0.03710533 0.043852486 -0.06459564
0.0061348556 -0.014307467 -0.018432386 0.013358941 -0.006701243 0.036057826 0.03024845 -0.012711328
-0.023879161 -0.037097517 0.03394517 -0.0479625 0.004515169 0.017253883 0.019299446 -0.02858815
-0.014818507 0.0262174 -0.08824363 -0.04578017 -0.042794175 0.025290081 0.04674299 0.018198116
-0.00983432 0.0015303948 0.0006381836 -0.050045036 0.039635174 0.0058860593 -0.01770461 0.008220768
0.0013781822 -0.041794 0.035443377 -0.05815002 -0.040411416 -0.03879947 0.024624454 0.07058333
-0.0057988754 -0.022961717 0.008795696 0.04995006 -0.0066927765 0.0067752674 -0.015106515 0.038110502
0.006200552 0.06285023 -0.0047563454 0.047085866 -0.046982396 0.0006999916 -0.032289863 0.010424432
0.0038588522 0.08086967 -0.05174379 0.023200562 0.0812207 0.015671412 0.002592737 -0.022622079
0.0047896854 -0.031618048 0.036693785 -0.021688469 0.0006611524 -0.044695184 0.018796263 0.004614076
0.01953967 -0.004160048 -0.0013761049 0.057681635 -0.019840265 -0.0049725557 0.0031713692 0.00785751
-0.036322087 0.089667946 -0.068894684 0.043288402 -0.0053716707 0.004986148 -0.10084295 0.0086390795
0.057973824 -0.02630338 -0.06631051 0.014957199 0.001014097 -0.0093863625 0.05110728 -0.06414839
-0.02894925 0.0087662665 0.12135699 0.044722904 -0.022531044 0.029218094 -0.039914727 0.027345482
-0.009601997 -0.00034963602 0.083863504 -0.08076062 -0.03626854 0.11426955 -0.05007095 -0.00213625
-0.012481292 -0.041525874 0.14019507 0.0818706 -0.04182958 0.023461094 -0.025920093 -0.013726244
0.021910097 -0.003243558 -0.01701931 -0.03489856 -0.02687712 -0.015979856 -0.023128424 -0.0012846369
0.020438988 -0.013482657 -0.028643537 -0.018564686 0.033830207 -0.028640728 -0.090298675 -0.0068782964
0.03412309 -0.00731728 -0.04213057 -0.026598029 -0.0052883574 -0.0073608146 0.00128854 0.024028877
0.005976811 0.002830303 0.005167661 -0.033489518 0.020606855 -0.003642153 -0.0366909 0.01652125
-0.05057194 -0.0005269346 -0.014911109 -0.034016274 -0.042691402 -0.056720313 -0.0029924696 0.0026033386
0.032991543 0.012406822 0.00497948 -0.011526169 -0.02041698 -0.0013112758 0.016192783 0.025305023
-0.026546516 0.010204905 0.09246343 -0.058983415 -0.02896438 0.011358884 0.04354842 -0.021159189
0.0031767713 0.0047271764 0.029423038 -0.0042927456 0.052046724 0.03593994 0.021782836 -0.04380578

model.1.bias_mu f4 [32]
00000000: 03dd 9dbe 251c d63d f107 22be 88d0 18bf
00000010: f9bd 84be 954f 6d3e b57c 703c 3ac0 863d
00000020: 5d87 f9bd c6c4 60be 74fa 12bf 9897 87be
00000030: f947 cb3c 5d86 2d3e b47a 8a3b f2ef fe3d
00000040: be10 c2be c05c 69bd 035c 013f 96e6 1f3e
00000050: a610 d9be 4195 af3d be3e 653e 6872 dd3e
00000060: f4ec 9abe adce 11bf 118d e23d 0342 febd
00000070: d422 f9be e2ed e5be f578 7fbe 7eaa bfbe
-0.3083268 0.10454587 -0.15823342 -0.59693193 -0.25926188 0.2317489 0.01467817 0.06579633
-0.121840216 -0.21950063 -0.5741341 -0.26482844 0.024814593 0.16945787 0.004226053 0.1244811
-0.37903398 -0.05697322 0.50531024 0.15615305 -0.42395514 0.0857339 0.22387215 0.43251348
-0.30258906 -0.5695599 0.110620625 -0.124149345 -0.48659384 -0.44908053 -0.24948485 -0.37434763

model.1.bias_sigma f4 [32]
00000000: 991e 883d 223e bb3b a631 15bc 19d7 94bd
00000010: dc30 56ba 0fca a63d a5df 063d ac15 3b3c
00000020: 9133 29bc c00b 283c b195 0dbd addb 71bb
00000030: c400 523c f589 d93c bb53 2a3c 538c 973c
00000040: 3676 14bc a223 4abb dc8a 0a3b b111 1e3d
00000050: e861 ba3c 553c 333d b393 493c 8e94 d6ba
00000060: 38cd eebb be55 ccbc 70c5 c33c 08ef 07bc
00000070: 114d aabb 5d0c 773d 066c a43b af7c a13a
0.06646461 0.005714194 -0.009106075 -0.07267589 -0.0008170733 0.08144008 0.032928128 0.011418741
-0.010327236 0.010256708 -0.034566585 -0.0036904619 0.012817565 0.02655504 0.010395939 0.018499529
-0.009061387 -0.0030843993 0.0021139896 0.03859109 0.022751763 0.04375871 0.012303281 -0.0016371177
-0.0072876476 -0.024943229 0.023897856 -0.008296736 -0.0051971753 0.060314525 0.00501776 0.0012320484

model.1.weight_epsilon f4 [32, 24]
00000000: 60f8 893f 1ab9 663e ac04 a4bf c455 973e
00000010: 2b9d 873f cdb1 ffbe 68fa 133f 404b 1bbf
00000020: baf4 dc3e 1872 39bf 0dde f63e 2aa2 3ebf
00000030: 1753 7c3f 2dfb 55bf 97de 0d3f a08e 1a3f
00000040: 7494 e73e 078b 8ebf 35f8 273f 2e93 523f
00000050: 215c 88bf 6214 313f e1f1 3dbf c83c 7b3f
00000060: e9cd 3dbf a8b3 1ebe 6da3 613f b030 50be
00000070: 1690 3abf d8e0 af3e 7992 cbbe eea2 d53e
00000080: c9fb 97be ab1d ff3e 7cce a9be 5720 033f
00000090: 6f8f 2dbf 9a2f 133f 252b c3be 709f d4be
000000a0: 894a 9fbe 5d18 443f fc12 e7be ced7 10bf
000000b0: ca96 3b3f 569b f3be 16a7 023f 00d0 2cbf
000000c0: 0eda b33f 4f61 963e 8dce d5bf 0746 c53e
000000d0: bec7 b03f eda7 26bf cee5 403f 296f 4abf
000000e0: 9e03 103f 19bd 71bf 12e7 203f 4f80 78bf
000000f0: a175 a43f d777 8bbf 48ef 383f 4779 493f
00000100: 46f0 163f 10d0 b9bf 24f5 5a3f 7e3f 893f
00000110: acc0 b1bf 42d5 663f 839a 77bf 3cc0 a33f
00000120: 97dd 793f c7eb 503e fa84 94bf e208 893e
00000130: 2d99 753f 6788 e7be bbfe 053f 9a9e 0cbf
00000140: ac13 c83e 0eec 27bf 2f8a df3e a19e 2cbf
00000150: 367b 643f d9c2 41bf af76 003f ccf3 0b3f
00000160: 66b2 d13e d312 81bf ed18 183f 40ad 3e3f
00000170: 02f3 76bf b958 203f 01ff 2bbf 347f 633f
00000180: 949b 1a3f d145 013e fecb 37bf 8d95 293e
00000190: a2f7 173f 9b43 8fbe 90d2 a53e 3f05 aebe
000001a0: bd99 773e e3ce cfbe 7b51 8a3e 1b9f d5be
000001b0: 3c60 0d3f e0c8 efbe 2bfa 9e3e e031 ad3e
000001c0: b7c0 813e 65bb 1fbf 8139 bc3e baf7 eb3e
000001d0: 9fcd 18bf e96e c63e 90d9 d4be 4dc4 0c3f
000001e0: ccb3 8a3f 85f2 673e 7be3 a4bf 5823 983e
000001f0: 6355 883f 9286 00bf 6cc3 143f 351e 1cbf
00000200: e120 de3e 026e 3abf 672d f83e 1fa5 3fbf
00000210: daa9 7d3f db1d 57bf 4f9f 0e3f 9460 1b3f
00000220: 09cf e83e a94c 8fbf 62dc 283f 3bb1 533f
00000230: 5d15 89bf ee04 323f e7f3 3ebf 1292 7c3f
00000240: a476 debe 5702 babd 4f3b 043f 4c03 f4bd
00000250: 07aa dabe 2424 4e3e aa99 6ebe 7165 7a3e
00000260: 8922 32be a981 953e 5406 47be 59b0 993e
00000270: 9f6c cbbe 0683 ac3e 2ac0 64be 4d35 79be
00000280: 2eb3 3abe 33d6 e53e cf6a 87be 05c4 a9be
00000290: efdd db3e 02c3 8ebe 3b22 993e 408c cabe
000002a0: 26b0 353f 5fea 173e 65fd 57bf a949 473e
000002b0: cf95 323f 875b a8be 00de c23e 4880 ccbe
000002c0: 0b7c 913e f334 f4be a38b a23e d609 fbbe
000002d0: 7e23 263f 61e4 0cbf aad2 ba3e e387 cb3e
000002e0: cc7a 983e bdb5 3bbf 7331 dd3e 3aa6 0a3f
000002f0: 4791 33bf 9b30 e93e b221 fabe 3f6c 253f
00000300: 348d c63f 0104 a63e 7d09 ecbf e6c8 d93e
00000310: 2329 c33f d7fb 37bf 33f4 543f 657b 5fbf
00000320: dffc 1e3f c06f 85bf d9a1 313f 5b2b 89bf
00000330: 158f b53f 17f8 99bf ba29 4c3f f16b 5e3f
00000340: d6a1 263f e121 cdbf 2db9 713f a684 973f
00000350: f23b c4bf 63d5 7e3f 83ac 88bf d3c6 b43f
00000360: 73f9 fe3e 5331 d53d 5d8e 17bf 29d6 0b3e
00000370: b39e fa3e 4e44 6cbe 18bc 883e a47e 8fbe
00000380: ed2a 4c3e 005b abbe 401c 643e 2a26 b0be
00000390: 2427 e93e 0bb9 c5be 1817 833e 58d0 8e3e
000003a0: 02fc 553e 6eb6 03bf 0b35 9b3e 4d93 c23e
000003b0: 9bff fbbe 04a0 a33e 4683 afbe fb25 e83e
000003c0: 4ef2 a3bf c814 89be 13e6 c23f dbd3 b3be
000003d0: 8725 a1bf ecea 173f b4d6 2fbf 2888 383f
000003e0: 3747 03bf 425c 5c3f 52ac 12bf 5f86 623f
000003f0: 5aea 95bf b444 7e3f 7594 28bf 04a8 37bf
1.0778923 0.22531548 -1.2813926 0.2955762 1.0594839 -0.4994034 0.57803965 -0.606617
0.43155462 -0.7243972 0.48216286 -0.7446619 0.98564285 -0.8358639 0.5541777 0.6037388
0.45230448 -1.1136178 0.6561311 0.8225583 -1.0653116 0.69171727 -0.741972 0.9813962
-0.7414232 -0.15498221 0.8813999 -0.20331073 -0.7287611 0.3435123 -0.39760187 0.41725868
-0.29684284 0.49827322 -0.33165348 0.5122122 -0.6779699 0.5749451 -0.38118854 -0.4152789
-0.31111553 0.76599675 -0.4513167 -0.5657929 0.7327696 -0.4757945 0.510362 -0.6750488
1.405092 0.29371116 -1.6703659 0.3852999 1.3810956 -0.65099984 0.75350654 -0.79075867
0.5625552 -0.94429165 0.62852585 -0.97070783 1.2848397 -1.0895947 0.72240114 0.7870068
0.5896038 -1.4516621 0.85530305 1.0722501 -1.3886924 0.90169156 -0.9672014 1.279304
0.97603744 0.20402442 -1.1603081 0.2676459 0.9593685 -0.45221254 0.5234181 -0.54929507
0.39077508 -0.65594566 0.43660113 -0.6742955 0.89250505 -0.7568794 0.50181097 0.5466888
0.4095642 -1.008387 0.59413034 0.7448311 -0.9646455 0.6263538 -0.6718598 0.8886597
0.60393643 0.12624289 -0.7179564 0.16560955 0.5936223 -0.27981266 0.3238721 -0.33988377
0.2417974 -0.4058753 0.2701529 -0.4172295 0.55224967 -0.46832943 0.31050238 0.33827114
0.25342342 -0.62395316 0.36762622 0.46087438 -0.5968875 0.38756493 -0.41572237 0.5498703
1.083612 0.22651108 -1.2881922 0.29714465 1.0651058 -0.5020534 0.5811069 -0.6098359
0.4338446 -0.7282411 0.4847214 -0.7486133 0.990873 -0.8402993 0.55711836 0.6069424
0.45470455 -1.119527 0.6596128 0.8269231 -1.0709645 0.6953877 -0.74590915 0.98660386
-0.4344989 -0.090824775 0.51653 -0.11914691 -0.42707846 0.20130974 -0.23300806 0.2445276
-0.17395987 0.29200485 -0.19436008 0.30017355 -0.3973131 0.33693713 -0.2233893 -0.24336739
-0.18232414 0.44889984 -0.26448676 -0.33157364 0.4294276 -0.27883154 0.29908928 -0.39560127
0.70971906 0.14835499 -0.84371024 0.19461693 0.6975984 -0.3288233 0.38059998 -0.3994162
0.2841495 -0.47696647 0.3174716 -0.49030942 0.64897907 -0.5503598 0.3648885 0.3975211
0.29781187 -0.73324186 0.4320179 0.5415989 -0.7014355 0.45544896 -0.48853832 0.64618295
1.5511842 0.3242493 -1.8440396 0.42536086 1.5246929 -0.7186865 0.8318512 -0.8729766
0.621046 -1.0424728 0.69387585 -1.0716356 1.418429 -1.2028836 0.7975117 0.86883456
0.6509069 -1.6025964 0.9442318 1.1837356 -1.5330794 0.9954435 -1.0677646 1.4123176
0.4979969 0.104097985 -0.59201604 0.13655914 0.48949203 -0.23072931 0.26706004 -0.28026307
0.1993825 -0.33467865 0.22276402 -0.34404117 0.45537674 -0.3861774 0.25603557 0.2789333
0.20896915 -0.5145024 0.30313906 0.38003007 -0.4921845 0.3195802 -0.3427984 0.45341477
-1.280832 -0.26773667 1.5226463 -0.3512257 -1.2589577 0.5934284 -0.68686986 0.7208276
-0.5128054 0.86078274 -0.5729419 0.88486284 -1.1712143 0.9932358 -0.6585153 -0.71740746

model.1.bias_epsilon f4 [32]
00000000: 97e6 a33e cb8b bc3f fc98 0c3f b6d2 24bf
00000010: 996a bdbf a430 16be 7e79 cdbe b32f aa3f
00000020: d245 17bf d6fd a43e 223c 833f da22 d53e
00000030: 45fd 693f 4380 293f d21a 813e 3192 29bf
00000040: 5c42 7e3f 88bf 9b3f 1267 7b3f 4b2f 72bf
00000050: bedc cdbe 39b1 7e3e da1c 31bf 9665 57bf
00000060: 8992 11bf c35d 81bf 4c9d 4bbf e8a6 a63f
00000070: 440a 6e3f 4d4e 7cbf 3a6c fd3e 2938 8d3f
0.32011864 1.4730161 0.54920936 -0.6438402 -1.4798156 -0.14666992 -0.40131754 1.3295807
-0.5909091 0.3222491 1.0252726 0.41628152 0.91402084 0.66211337 0.25215775 -0.66238695
0.99320006 1.2167826 0.9820415 -0.94603413 -0.40207475 0.24872293 -0.6918465 -0.8413938
-0.5686422 -1.0106739 -0.7953689 1.3019686 0.92984414 -0.9855698 0.49496633 1.1032764

model.3.weight f4 [32]
00000000: b47b 383f 825d 1e3f 5047 263f 3148 46be
00000010: 2800 0e3f e530 173f 1581 743f 92f8 d13e
00000020: 8135 393f 200a 653f c4de 5c3f 5ed3 3d3f
00000030: 0e90 9c3f 4e92 333f f072 093f d06d ea3e
00000040: 751a 4d3f 05ec 323f e09a 173f 716b 573f
00000050: af2a 253f 39a4 c53e 45c2 4a3f 13eb 273f
00000060: f666 023f 479f c23e bece 273f 8ca1 2c3f
00000070: 75b5 493f 7bc5 023f 8464 003f f9e4 4a3f
0.72063756 0.6186143 0.64952564 -0.19363476 0.5546899 0.5905898 0.95509464 0.41009957
0.72347265 0.89468575 0.86277413 0.74150646 1.2231462 0.7014512 0.53691006 0.45786905
0.80118495 0.6989139 0.59220695 0.8414832 0.64518255 0.38601854 0.7920268 0.6559307
0.50938356 0.38012144 0.6554984 0.67434 0.78792506 0.5108258 0.50153375 0.79255635

model.3.bias f4 [32]
00000000: 03b2 1b3f e1de 293e f968 4cbc 383b b83d
00000010: 9e12 263e c5bc d53c f620 013f b99f ff3e
00000020: a3aa 433d d609 893d e2c9 513e 30e5 833e
00000030: 8785 223e 3d5a 133e 7126 213e 7934 fe3e
00000040: 56aa a43e 132f 913d d364 73be 1813 fd3e
00000050: 99f3 fd3d 17e4 be3e 6cee 0e3e 414c 233f
00000060: 1927 823e 2e98 da3c 2bd9 6f3e c4cc c43e
00000070: 0ca2 d73e 8212 883e 6eed 96bd 0ef7 383e
0.608185 0.16588928 -0.012476199 0.0899567 0.1621804 0.026090989 0.5044092 0.49926546
0.047770154 0.06691329 0.20487168 0.25760794 0.15871249 0.14389892 0.1573732 0.49649408
0.32161206 0.07089057 -0.2376893 0.4942863 0.12399978 0.37283394 0.13958138 0.6378823
0.25420454 0.026683893 0.23422687 0.38437474 0.4211582 0.2657662 -0.07369505 0.18062994

model.3.running_mean f4 [32]
00000000: 6a6f a93e 3aca e53e 2ee3 353e af2b 9f3d
00000010: 6287 093f 9aab 223f 2003 fe3e 8de4 9c3e
00000020: 6b32 853e 2031 3a3e 6ad0 833e 4dc8 843e
00000030: c7e1 c43e d95d 863f fbf7 193f 137a f23e
00000040: 1558 4a3e 2871 113f 7098 0e3f 9a6a 393f
00000050: 3f21 d03d 3877 3a3f f2af 313f c23e 2d3f
00000060: c730 b23e 77f8 b53d e0ee 313f fe2b 9b3e
00000070: 9014 233e 3f51 b63d 75db 713e 5d4e 4a3e
0.33092815 0.4488085 0.17762443 0.07772004 0.537222 0.63543093 0.4961176 0.3064312
0.26015028 0.18182802 0.25744945 0.25934067 0.38453504 1.049739 0.60144013 0.4735876
0.19760163 0.5681329 0.5570135 0.72428286 0.10162591 0.72838163 0.69409096 0.67673886
0.3480284 0.088852815 0.6950512 0.30307 0.15925813 0.08902215 0.23618872 0.19756456

model.3.running_var f4 [32]
00000000: d24d be3e d84f cb3e 4c05 143e f1d8 763d
00000010: 9ea3 0e3f b446 2c3f 6007 223f dbed 483e
00000020: 6f7c 833e 18c1 9d3d cdd9 693e 220e 413e
00000030: a239 8e3e 1488 403f f3bc 003f 2e4e bb3e
00000040: ea35 ee3d 0e9e 0a3f 7a9d 263e 7c84 253f
00000050: 4d10 eb3d 86b9 4e3f 1974 0a3f 39f3 d33e
00000060: 19da 933e 83e2 993d eda6 fd3e 2d27 543e
00000070: 8980 d93d 3402 7e3d 0801 793e dfb1 c03d
0.37168747 0.39709353 0.14455146 0.060265485 0.5571841 0.67295384 0.63292503 0.19621985
0.25680873 0.07702845 0.2283699 0.18853047 0.27778345 0.7520764 0.50288314 0.36583084
0.11631377 0.5414742 0.1627101 0.6465528 0.114777185 0.80751836 0.540834 0.41396502
0.28877333 0.07513907 0.49541417 0.2071807 0.10620219 0.06201382 0.243168 0.09408926

model.4.weight_mu f4 [32, 32]
00000000: 862a f13e ddfa a7be 4968 a83d b6ba 133e
00000010: 4390 16bf bdca d53d fa76 17be 8a39 1abe
00000020: 2ddb c4be acb7 8f3b a3ae c5be da2a 3fbf
00000030: 2c29 0abf f0e2 0c3d d085 7dbe b8fa 18bf
00000040: cb37 663e aecd c9be 0225 323f 9e7b ba3e
00000050: c24f 3cbe 2acc 49bf 707d 8cbe e508 213e
00000060: 2938 053e d963 5ebe 710e c6bd 46c8 6f3e
00000070: 4552 cfbc 17fe 08bf 4f9c dcbe 4527 533e
00000080: 380f 14be 3e5c 1bbe 68a0 35be abc3 243d
00000090: 5fa2 8c3d d570 07bf bfc1 dd3b 8d2f f5be
000000a0: aefe b9bd a331 acbe d1ff 53bc 2188 a2bc
000000b0: 753d cb3e f6eb d3bd f89c b73e cc02 2b3c
000000c0: f51b 04bf efe2 a73e 62b3 883f b0c0 f8be
000000d0: 3726 9c3e 67f7 a8be bb9a c33c 2d83 393e
000000e0: 7cdb e9be b843 61be 1d35 b8be 3878 a33d
000000f0: e897 fcbe 995f a93e 3f41 2cbe b487 ca3d
00000100: 1e4f 053f b151 503e 65bc b33c 8f95 d2be
00000110: 3890 d73e 1ede c13d 9337 0a3e 42a3 a8bd
00000120: 9583 6abe 32ee 2abe 1cc0 65bd d440 033f
00000130: 12b1 413e 513c 15be 3a2c fdbe 5b62 a03e
00000140: d914 1a3d 7966 08bd 3c17 c03d 65c1 d8be
00000150: 9a1d 67bf c657 303f 34a7 223d 3aa6 36be
00000160: 9da8 693e eeb2 6d3e 6197 06bf d33a b73e
00000170: 13f7 74be 7bb9 803e a94c f13e 6323 043f
00000180: 2621 b3be 13e5 6ebe 708d 463d e853 debe
00000190: 2526 a3be a141 f0bd a338 63bd a314 fabe
000001a0: 7a74 86be 0125 a93d 7400 4f3e a4f1 5a3d
000001b0: 17bb 433e 4edd 06be 4261 f03d a1d1 38bd
000001c0: cee0 16be 2f04 ee3d 3645 043e f65a 1fbe
000001d0: 1f6c 223d 7ddb e5be 761e e4bd 9a84 06bf
000001e0: d9f0 123d 2c7b cebd f9c1 38be 4fe1 8abe
000001f0: 1b87 07bf 8f5b 48be 4202 273e fb63 1abe
00000200: c6ae 08bf 0a4a 3cbe 92d5 873d 7226 46be
00000210: 1bc5 49bc 1bf2 0e3e f924 023e 28b6 44bf
00000220: 1fa4 9c3e 4d95 ff3e f7fb c6be beb2 52be
00000230: 03ec 05bf 7fe5 bc3c f1dd c93e 5e28 69be
00000240: 5f0d a3bc 907f 253e 873b d73e c9a7 7ebe
00000250: 7d5f ff3e 126b 3d3b bd04 9cbe ba6a 25bf
00000260: d45b 6d3e 6616 f8be e2bb 283f ef74 a3bd
00000270: 86df 0ebf 5354 1bbf ad03 943d 962c 2abb
00000280: 3eda 72be 01f0 853e 3d75 e7be 5c88 cdbd
00000290: 368d 5abf 0d58 48bf 20ed f33c 2a07 00be
000002a0: c00f ebbe 349f ed3e 159d 073f bb31 41be
000002b0: a31c dcbe 32aa 313e 852f fb3d 759e 4a3d
000002c0: 151b 86be 5b04 62bd 4317 b8bc b9d5 353e
000002d0: 18a3 97bd 5c35 36bf 3942 6dbe 0a2b d03e
000002e0: 2cb9 dcbe 0341 90bd b02c 47be 2956 b63e
000002f0: c2ff 1fbf 6353 903e 30e3 92be 4cee 0ebf
00000300: f9fa 1bbf b733 a53e bdac 23be 4f41 a3be
00000310: 908f 9abd a9e8 8d3d 3ade e2be 8d4d 6fbc
00000320: 5ec8 1f3f 69ee 59be 5384 6bbe a7f2 87be
00000330: 6a3d 253e daf8 dabe b784 e03d fe69 da3a
00000340: 0c77 8ebe 781e c23b 5973 03be cad5 5abe
00000350: 6403 123e 8c16 bbbe 7fc2 e5be e471 23bf
00000360: d312 38be 71e2 25be a102 5bbd 389e 623e
00000370: 920a 94bc 878a c4be be9f 05be c486 d5be
00000380: f9e0 51bd 4a1b 963e 0017 b53e d6e9 cabd
00000390: b2ec 993f beed f23e d4d6 d2be 3678 113e
000003a0: d4b4 203e f926 0cbe cb75 e0bc e555 a13e
000003b0: 775f 5e3d eb41 ad3c 4600 00bf 7145 6b3e
000003c0: ab88 38be 7c9b e2be 310b 433e 27fb ba3d
000003d0: fa31 8e3e 7462 603b 5a36 60bf d2e6 b1be
000003e0: 8c49 1cbf 46e2 c3be aaee a73e 76fa 443e
000003f0: 8d2c 793e 97ed 04bf e985 2c3e 941a eebd
0.47102755 -0.3280858 0.08223016 0.14426693 -0.58813876 0.1043906 -0.1479148 -0.15061012
-0.38448468 0.004385909 -0.386098 -0.7467476 -0.53969073 0.034396112 -0.24758077 -0.59757566
0.22482221 -0.39414734 0.6958772 0.36422437 -0.183898 -0.78827155 -0.2743945 0.15726049
0.13009705 -0.21717776 -0.09670723 0.23416242 -0.025307784 -0.5351271 -0.43088004 0.20620449
-0.1445893 -0.15171906 -0.17736971 0.040225666 0.06866907 -0.52906543 0.006767481 -0.4788784
-0.090817794 -0.3363162 -0.012939409 -0.019840302 0.39695325 -0.1034774 0.35861945 0.010437679
-0.5160516 0.32790324 1.0679743 -0.4858451 0.30497906 -0.33001253 0.023877492 0.18116446
-0.45675266 -0.21998489 -0.35978022 0.07981914 -0.49334645 0.33080748 -0.16821764 0.098891646
0.5207385 0.20343663 0.02194042 -0.4112973 0.42102218 0.094661936 0.13497762 -0.08234264
-0.22901757 -0.16692427 -0.056091413 0.51270795 0.18915203 -0.1457379 -0.49447805 0.3132504
0.037617538 -0.03330085 0.093794316 -0.42335048 -0.90279543 0.6888393 0.03971024 -0.17836848
0.22818227 0.23212788 -0.52574736 0.35787067 -0.23922376 0.2514151 0.471288 0.51616496
-0.34986228 -0.23329572 0.04847473 -0.4342339 -0.3186504 -0.11731268 -0.055473935 -0.4884387
-0.2626074 0.08259011 0.20215017 0.053453103 0.19114338 -0.13170359 0.117373005 -0.045121793
-0.14734194 0.11621892 0.12917027 -0.15562043 0.039653894 -0.4489402 -0.111386225 -0.52546084
0.03587422 -0.10082087 -0.18042745 -0.27125022 -0.5294053 -0.19566177 0.16309455 -0.15077202
-0.53391683 -0.18387619 0.06632532 -0.19350603 -0.01231506 0.13959543 0.12709416 -0.7684045
0.30593964 0.49918595 -0.3886411 -0.20575997 -0.5231325 0.023058651 0.3942714 -0.22769305
-0.019903837 0.16161942 0.42037603 -0.24868692 0.4987754 0.002890293 -0.30472365 -0.64615977
0.23179561 -0.4845459 0.65911686 -0.07981288 -0.5580982 -0.60675544 0.072272636 -0.0025966517
-0.23716065 0.2615967 -0.45206633 -0.10035774 -0.8537172 -0.78259355 0.029776156 -0.12502733
-0.45910454 0.46410525 0.52974063 -0.18866627 -0.42990598 0.1735008 0.12264923 0.049467523
-0.26192537 -0.055179935 -0.02247203 0.1775731 -0.074041545 -0.7117517 -0.23169793 0.40657836
-0.43110025 -0.0704365 -0.1945064 0.3561261 -0.6249963 0.2818862 -0.28688955 -0.5583236
-0.6092983 0.32266018 -0.15983863 -0.31885764 -0.075469136 0.06929142 -0.4431017 -0.014605892
0.6241511 -0.21282353 -0.22999696 -0.26552317 0.16136709 -0.42767984 0.10962813 0.0016663668
-0.278252 0.0059240423 -0.1283697 -0.21370617 0.14259106 -0.3654064 -0.4487495 -0.6384566
-0.17975931 -0.16199662 -0.053469304 0.22130668 -0.018071447 -0.38386938 -0.13049218 -0.4170438
-0.05123994 0.29317695 0.3536911 -0.09907882 1.2025359 0.47447008 -0.41179526 0.14206013
0.1569398 -0.13686742 -0.027399918 0.31510845 0.05429026 0.021149596 -0.5000042 0.22975709
-0.18020885 -0.4425925 0.19047238 0.09129935 0.27772504 0.003423837 -0.87582934 -0.34746414
-0.61049724 -0.3825857 0.32799274 0.19236168 0.24333401 -0.51925033 0.16847958 -0.11626163

model.4.weight_sigma f4 [32, 32]
00000000: 73d6 7fbd 5d6d edbc 54ab 4fbd 82a9 9b3d
00000010: 9ee8 aabd d5e8 81ba aa7b 7c3c f154 0cbc
00000020: 1a60 013c 4b56 79bc 8cd2 5a3c b719 98bd
00000030: e6d5 6abb 489c 473c 9631 0a3a de3d 2c3d
00000040: b0f5 97bb 7f00 463b 62c9 7abc 8e85 0bbd
00000050: bd1a 0bbc a5d5 3abd 80cc 63bc e683 9fbc
00000060: f04a 32bb dc69 2f3d 093c cfbc 8d2c 003d
00000070: bc66 133d 8189 6bbd a833 593c 58ad 5cba
00000080: 5825 92bd 3487 16bd 9c59 f3bb 3e85 03bd
00000090: 3b94 babd 5d25 353d bf4d 9d3d 8a79 1a3d
000000a0: f1be 373d ea07 c9bc 7bd6 023d 07f2 06bd
000000b0: bc6a 223b b192 3d3d 71fb ce3c 6bd9 b6bd
000000c0: 0201 e63d 182a ef3c f0f4 a5bd b640 afbc
000000d0: 92eb 42bd 5082 143e db9e 233a 7532 a0bd
000000e0: dbf5 aabb b2ab d6bc 4218 983d a6b6 d23c
000000f0: a549 eabc a286 173d f007 283d c629 353d
00000100: b1d5 053c e57e c8bb bb5c f73c 3fb9 973b
00000110: ee80 21bd cd14 47bc d746 9d3b ca89 03bb
00000120: 73cd cdbc 997a c33c 05be eb3c 62ff e2bb
00000130: 9696 8c3c 4848 d13b 3a2b 2d3d 8682 80bd
00000140: 6826 1ebd c7ba 4cbd aea9 d6bc 45e4 38bc
00000150: 42ea 983c 9f9b 173c 1108 313c dce4 ba3c
00000160: 4d2c 1ebd 8b2c 243d c138 9ebc 68ef 1ebc
00000170: 323c 2b3c 3a0c a43c 2568 793c 7678 703d
00000180: 5003 83bd b631 3fbd 86ff acbb 69cc d13c
00000190: e534 83bd d2ca 333d 0a12 1ebd d940 93bd
000001a0: a650 e43c af79 75bd 4384 c4bc 077e c43d
000001b0: 7a5f bdbc cd40 f2bb d5fd 973d 8980 9fbb
000001c0: 9179 fabc 729e 3dbc db80 c5bc ab43 2dba
000001d0: b860 83ba 20ee 093c 74a7 a03c e0ef 0a3d
000001e0: fa57 d93c c9b4 ca3c 89e8 c4bc 56e1 003d
000001f0: be5f d3bd f036 043e 870c 7e3d 2387 833d
00000200: b798 c1bc 7c72 07bd 40de f63c d996 0f3d
00000210: d3da 723d 4ef8 4bbd 15e7 9c3d e32d 7fbc
00000220: c7d3 00bc c08f 363b f706 d6bc e5d4 bc3b
00000230: 2484 643d 3ec7 983c 9209 89bd a8be 8abd
00000240: 9b88 be39 bac5 0abc 9143 0cbd a0f0 8f3b
00000250: 86bd dc3c 5ae8 54bb 8bfe 1e3d 30a2 a5bb
00000260: 6f86 35bc ae84 b03b 53d6 e13a be52 08bd
00000270: d7df fc3d 1f38 993d 42c4 4fbd 3a13 af3b
00000280: e3cb a63c 4755 f1bb c137 573b eb21 60bc
00000290: 56f9 5c3d 4c27 a43c c241 68bc 53f7 0f3d
000002a0: ee0a 373d d3bf 7dbb c1d9 d03c 1a9c 8fba
000002b0: 7394 2f3b d5fb 3bbc de37 0d3d ca50 b73c
000002c0: 36b0 05bd 49a9 823c e920 cabb af84 bd3c
000002d0: ea73 fc3c c839 ae3c 7092 27bc a511 abbc
000002e0: 5f92 7ebc 79a6 c23c 10dd 31bb ff5d fcbb
000002f0: 58b0 c2bb fa44 ad3b b102 773d feba d6bc
00000300: 6f82 c6bc 9aae 083b e67e 3bbb 3572 2cbd
00000310: 3764 453c c10d bfba 6ed3 e5bd 666e 8bbd
00000320: 12b2 15bd f178 82ba ecc1 ebbc ee4d 163d
00000330: cf49 583c f132 8abc 7454 033d 9897 25bc
00000340: 72ee 013c f029 9a3c 800c 8d3c e119 88bd
00000350: e20a 383c c0ab b53b a9a8 babb f5bd 81bd
00000360: 17d2 5b3d 08fc a4bc b3cc c13d 4d06 3f3c
00000370: 392b 723d 31f7 8bba c641 243d 8daf 14bb
00000380: 51bb c7ba d593 02bd 3fda 4dbd e99c 19bd
00000390: 0128 cf3c 9343 bfbc 3eab 72bc 84e0 15bb
000003a0: 943a 78bb b7bd 133c 2077 203a 7031 9237
000003b0: e00b 25bd c443 673c b0da 5fbc 83fc 11bd
000003c0: efce bebd 28bc 3aba d2bf db3c ac79 24bc
000003d0: 4885 1d3c 01cc 44bd 292e 0dbc dc85 febc
000003e0: b0dd 24bc e39a 4dbc b7ea c1ba 8479 343c
000003f0: af90 0cbd 777b 983d f388 423c 5ad5 fe3b
-0.062460374 -0.028982813 -0.0507005 0.076006904 -0.083451495 -0.0009911308 0.015410343 -0.0085651735
0.007896448 -0.015218328 0.013355862 -0.0742678 -0.003583306 0.012183256 0.0005271671 0.04205119
-0.0046374425 0.0030212698 -0.0153068025 -0.034062915 -0.008490262 -0.045613904 -0.013903737 -0.019472074
-0.002720531 0.042825565 -0.025297182 0.031292487 0.035986647 -0.05750418 0.013256945 -0.0008418164
-0.07136029 -0.036750033 -0.0074264538 -0.03210949 -0.09110304 0.044225086 0.076808445 0.037713565
0.04485983 -0.024539907 0.031942826 -0.03294566 0.0024782857 0.046282474 0.025266381 -0.08928188
0.11230661 0.029194877 -0.08103359 -0.021393161 -0.04758794 0.14502835 0.0006241628 -0.07822124
-0.0052172965 -0.026204918 0.07426502 0.02572186 -0.02859957 0.03699363 0.041023195 0.04422929
0.008168624 -0.0061186426 0.030195585 0.0046302374 -0.039429598 -0.012150955 0.0047997045 -0.0020071142
-0.02512238 0.02386217 0.028777132 -0.0069274167 0.017161649 0.0063867904 0.042277552 -0.06274895
-0.038610846 -0.049982812 -0.026203956 -0.011284892 0.01866639 0.009253412 0.010805146 0.022814207
-0.038616467 0.040081542 -0.019314172 -0.009700634 0.010451363 0.020025361 0.015222584 0.05870863
-0.06397116 -0.046678267 -0.005279484 0.025610166 -0.06406573 0.043894596 -0.038591422 -0.07190103
0.027870487 -0.0599305 -0.023988849 0.0959435 -0.023116816 -0.0073929788 0.074214615 -0.0048676175
-0.030575546 -0.011573421 -0.024109295 -0.00066095096 -0.0010023331 0.00841859 0.019611098 0.03392017
0.026531208 0.024744408 -0.024036663 0.031464897 -0.10320996 0.12911582 0.062023666 0.0642226
-0.02363239 -0.033068165 0.030135274 0.03505597 0.05929072 -0.04979735 0.07661263 -0.015574905
-0.007862992 0.0027856678 -0.026126368 0.0057626837 0.05579008 0.018649694 -0.066912785 -0.06774646
0.00036341403 -0.008469993 -0.034244124 0.0043926984 0.02694584 -0.0032487125 0.03881697 -0.0050547346
-0.011079415 0.0053869104 0.0017230011 -0.033282034 0.123473816 0.074814074 -0.050724275 0.005342868
0.020360893 -0.007364902 0.0032839628 -0.013679962 0.053948723 0.02003827 -0.014175834 0.035147976
0.044688158 -0.0038719072 0.025494458 -0.0010956556 0.0026791363 -0.011473616 0.034477107 0.02237739
-0.03263875 0.015949862 -0.006168474 0.023134558 0.03081699 0.021267787 -0.0102277845 -0.020882437
-0.015537827 0.023761021 -0.002713982 -0.007701635 -0.005941432 0.0052877637 0.0603053 -0.026212212
-0.024232117 0.0020856024 -0.0028609573 -0.042101104 0.012047819 -0.0014576243 -0.11221968 -0.06808166
-0.036546774 -0.0009954256 -0.028778993 0.036695413 0.013201191 -0.016869994 0.032062963 -0.010106944
0.007930385 0.018818825 0.017217875 -0.06645561 0.011233063 0.005544156 -0.0056963754 -0.063350596
0.053667154 -0.02013971 0.094628714 0.011659217 0.05912325 -0.0010678527 0.04010179 -0.0022687644
-0.001523832 -0.031879265 -0.050256964 -0.037503157 0.02528763 -0.023347652 -0.014811335 -0.0022869417
-0.0037876712 0.0090173995 0.00061212666 1.7427577e-05 -0.040294528 0.014115278 -0.013662979 -0.035641205
-0.09316813 -0.00071233744 0.026824865 -0.010038774 0.009614296 -0.048046116 -0.0086169625 -0.031069688
-0.01006262 -0.012549135 -0.0014794682 0.0110153 -0.03431767 0.07445424 0.011873472 0.0077768983

model.4.bias_mu f4 [32]
00000000: 883b ba3d 5bca 59be 8af2 9bbd 4de5 dbbe
00000010: d343 9bbe fbc8 f1bd 38bd 9fbe 2042 41be
00000020: 64b6 153f 2e85 47be 1901 e93c 35d7 85be
00000030: 91ca c53e 7adc e83e 117f 1ebe 3f9e c93d
00000040: 2e60 66bd 11de 2e3e 7278 eabe 934f 1dbe
00000050: 3cca cc3e 3177 17bf bf99 70be 9a74 213e
00000060: 94aa 8a3d 027d 36be cfe1 6e3e 5794 b63d
00000070: 9b9d 9a3d 985e 88be 3426 8bbe 98d1 813e
0.09093386 -0.21268599 -0.0761462 -0.4294838 -0.30325183 -0.11805912 -0.3119905 -0.18872881
0.5848143 -0.19484398 0.028442906 -0.26140752 0.38631108 0.4548071 -0.1547816 0.09844636
-0.056244068 0.17076899 -0.45795017 -0.15362386 0.39998043 -0.59166247 -0.2349615 0.15767136
0.067708164 -0.17821124 0.23328327 0.08915012 0.07549592 -0.2663467 -0.27177584 0.2535522

model.4.bias_sigma f4 [32]
00000000: 3ff5 bb3c 4527 fc3b 0a9b 2ebd a93f 9dbc
00000010: 803b 2abd 1992 ecbc f559 18bd 9a22 d5bc
00000020: af5a f0bc a960 2bbd baac 3ebd f1c8 353d
00000030: aa9a 9bbc f9fd 113d 1f78 65bd c421 b9bc
00000040: cd44 2e3c 2fbf 503c 2b98 c93d 9fa8 23bd
00000050: b853 8ebc a287 80bd b715 cfbc 8110 1cbc
00000060: 18b6 30bb e17f 81bc 44c0 663c 9ff8 cfbc
00000070: 5b51 583d 9913 d03c 82dd c43c 574b a23c
0.02294409 0.007695111 -0.042628326 -0.019195395 -0.04156065 -0.028878259 -0.037195165 -0.026017476
-0.029340116 -0.04184023 -0.046551444 0.044381086 -0.018994648 0.035642598 -0.05602276 -0.022599109
0.010636521 0.012740894 0.09843477 -0.03995573 -0.017373905 -0.0627587 -0.02527891 -0.009525419
-0.0026964005 -0.015808048 0.014083926 -0.025387106 0.05281196 0.02539997 0.024031404 0.019811315

model.4.weight_epsilon f4 [32, 32]
00000000: d0aa a2be dfda 0f3f f5ab 6c3f 4133 763e
00000010: 2c12 48bf d16d 15bf 60f3 28bf 3b0d 513f
00000020: 165f 3b3f ddf7 58bf 1c7f 0fbf 6f50 0b3f
00000030: 75c0 24bf 19b8 083f 006f 09bf afdb 133f
00000040: 0d55 00bf 6b9e 0ebf cf55 0f3f 1e24 463f
00000050: 216c a2be 1a43 c7be 805a c5be 1339 58bf
00000060: 527a 07bf 248a eb3d 0d94 cb3e 4074 213f
00000070: f388 e1be ee48 e6bd fed9 fc3e d588 863e
00000080: 5cd1 93bd 0db9 023e 0e11 573e adb9 5f3d
00000090: 9dce 35be bcc9 07be 1587 19be ccf7 3d3e
000000a0: 4f44 2a3e 6d29 45be ab65 02be 7631 fd3d
000000b0: 4ab6 15be 157a f83d 7ec6 f9bd 505c 063e
000000c0: fc3b e9bd 7c99 01be 2340 023e a80d 343e
000000d0: 6698 93bd 7212 b5bd 7256 b3bd 0d7c 44be
000000e0: 8b38 f6bd b309 d63c 87fe b83d 26b7 123e
000000f0: 50f2 ccbd 4943 d1bc fac4 e53d a981 743d
00000100: b598 91be 29c2 003f b3d5 533f 025d 5c3e
00000110: 3413 33bf 5dbf 05bf 7738 17bf ff1c 3b3f
00000120: 4cb5 273f f232 42bf 0870 00bf 6e63 f93e
00000130: 5976 13bf 32be f43e 9c05 f6be 6e57 043f
00000140: bcba e5be d64d ffbe 114b 003f ff58 313f
00000150: 9a60 91be dd59 b2be 89a4 b0be 2d88 41bf
00000160: 5685 f2be 4cd2 d23d db36 b63e bc82 103f
00000170: e2dd c9be 411e cebd 0f51 e23e 0cd5 703e
00000180: 13be f43e 3470 58bf 150b b2bf 1e36 b9be
00000190: 6382 963f 22d3 603f 4132 7e3f ec43 9dbf
000001a0: a9f4 8cbf 8438 a33f 26e6 573f 409b 51bf
000001b0: f9e0 773f b8b3 4dbf e8c6 4e3f 1976 5ebf
000001c0: 5c15 413f 1594 563f 02a8 57bf b80e 95bf
000001d0: c35f f43e 9ce6 153f 0b77 143f fda8 a23f
000001e0: 9bd5 4b3f 1031 31be d725 19bf d0ea 72bf
000001f0: 54aa 293f 163d 2d3e 0d37 3ebf 466a cabe
00000200: c887 b5be 6089 203f eb0e 843f 0060 893e
00000210: 8545 5fbf cbc1 26bf e18a 3cbf 2e4b 693f
00000220: 6e19 513f d320 72bf fa22 20bf 2478 1b3f
00000230: 4fdb 37bf c592 183f e25e 19bf 0701 253f
00000240: bf36 0fbf 3a28 1fbf e3f4 1f3f 2c1e 5d3f
00000250: d441 b5be 6f5e debe 2c3d dcbe e94b 71bf
00000260: 2430 17bf 356d 033e 842f e33e 352d 343f
00000270: 3ab0 fbbe 9b7e 00be 1816 0d3f a722 963e
00000280: a9dd a5be 05af 123f 5653 713f 990a 7b3e
00000290: 4f01 4cbf 065e 18bf db45 2cbf 9329 553f
000002a0: 4b0e 3f3f 0e3c 5dbf 7551 12bf ba0d 0e3f
000002b0: ccfd 27bf 5468 0b3f d322 0cbf fcc3 163f
000002c0: 10db 02bf 586c 11bf 5827 123f 8909 4a3f
000002d0: be9d a5be 2a2e cbbe f43b c9be 8479 5cbf
000002e0: 4d24 0abf d22b f03d d794 cf3e fda0 243f
000002f0: 45f8 e5be 28d0 eabd 69e9 003f 112e 893e
00000300: bc15 a83e 65a5 14bf d98d 74bf 6366 7ebe
00000310: 01bc 4e3f de67 1a3f df93 2e3f a203 58bf
00000320: a39c 41bf c331 603f 9446 143f 3ff4 0fbf
00000330: 263d 2a3f c945 0dbf c702 0e3f 57c8 18bf
00000340: 3b9b 043f 675e 133f e71b 14bf 7ebd 4cbf
00000350: f6d4 a73e 09e6 cd3e 29ed cb3e 9e6c 5f3f
00000360: 6cfd 0b3f 6262 f3bd c95b d2be d3d4 26bf
00000370: e40b e93e 5ef4 ed3d eba2 02bf e403 8bbe
00000380: 6587 c93e e938 32bf 4b9b 92bf 5282 98be
00000390: 56de 773f c220 393f 4050 513f 537f 81bf
000003a0: 8e22 68bf b966 863f 3bc7 313f c498 2cbf
000003b0: 871c 4c3f b861 29bf 5144 2a3f 8e2e 37bf
000003c0: bcfd 1e3f dbb0 303f 0f94 31bf 3f7a 75bf
000003d0: bc39 c93e cbdd f63e 7680 f43e 89f0 853f
000003e0: 06d8 273f c4e7 11be b836 fcbe a306 48bf
000003f0: 3cb5 0b3f 79a6 0e3e 15a1 1cbf d8ac a6be
-0.31770945 0.56193346 0.92449886 0.2404299 -0.7815273 -0.5837069 -0.6599636 0.81660813
0.73191965 -0.8475321 -0.5605333 0.54419607 -0.64356166 0.5340591 -0.53685 0.57757086
-0.5012978 -0.55710477 0.5599031 0.7739886 -0.3172312 -0.38918382 -0.3854561 -0.8446209
-0.5292102 0.115009576 0.3976139 0.6306801 -0.44049796 -0.11244379 0.49385065 0.2627627
-0.072176665 0.12765904 0.210026 0.054620434 -0.17754598 -0.1326055 -0.14992936 0.18551558
0.1662762 -0.19254084 -0.12734096 0.123629496 -0.14620319 0.1213266 -0.121960625 0.13121152
-0.11388394 -0.12656206 0.12719779 0.17583334 -0.07206802 -0.08841409 -0.087567225 -0.19187947
-0.120225035 0.026127672 0.09032922 0.14327678 -0.10007155 -0.02554478 0.11219211 0.059693966
-0.2843682 0.50296265 0.82747954 0.21519855 -0.69951177 -0.5224512 -0.59070534 0.7309112
0.6551101 -0.75858986 -0.50170946 0.4870867 -0.5760246 0.47801358 -0.48051155 0.5169591
-0.4486903 -0.49864072 0.5011454 0.6927642 -0.28394014 -0.34834185 -0.3450053 -0.7559841
-0.47367352 0.10294017 0.35588726 0.56449485 -0.39427096 -0.10064364 0.44202468 0.23518771
0.47801265 -0.8454621 -1.3909632 -0.361741 1.1758541 0.87822163 0.9929543 -1.2286353
-1.1012164 1.2751622 0.84335554 -0.8187752 0.96827656 -0.80352354 0.80772257 -0.8689895
0.75423217 0.83819705 -0.84240735 -1.1645117 0.4772931 0.58555007 0.57994145 1.2707821
0.7962281 -0.17303872 -0.59823364 -0.94889545 0.66275525 0.16917834 -0.7430275 -0.39534205
-0.35455155 0.6270962 1.0317053 0.26831055 -0.87215453 -0.65139455 -0.7364941 0.9113034
0.8167943 -0.94581336 -0.6255337 0.60730195 -0.71819013 0.5959895 -0.59910405 0.6445469
-0.5594291 -0.62170756 0.6248304 0.86374164 -0.35401785 -0.43431422 -0.4301542 -0.94256455
-0.5905783 0.12834628 0.4437219 0.7038148 -0.49157888 -0.12548296 0.5511184 0.29323313
-0.32395676 0.5729831 0.94267786 0.24515761 -0.79689497 -0.5951847 -0.6729409 0.8326656
0.74631184 -0.8641976 -0.57155544 0.55489695 -0.6562164 0.5445607 -0.5474064 0.588928
-0.5111551 -0.56805944 0.57091284 0.789208 -0.3234691 -0.39683658 -0.39303553 -0.8612292
-0.5396164 0.11727108 0.40543243 0.6430815 -0.44915977 -0.11465484 0.50356156 0.26792958
0.32829082 -0.5806487 -0.9552894 -0.24843745 0.8075562 0.6031474 0.68194383 -0.84380543
-0.75629634 0.8757593 0.57920194 -0.56232065 0.66499555 -0.5518461 0.5547299 -0.59680694
0.5179936 0.5756592 -0.57855076 -0.7997664 0.32779664 0.40214565 0.39829376 0.8727511
0.54683566 -0.118839994 -0.41085652 -0.65168494 0.45516884 0.11618875 -0.51029843 -0.27151406
0.3936111 -0.6961809 -1.1453642 -0.29786927 0.9682363 0.7231561 0.81763077 -1.0116981
-0.90677726 1.0500098 0.69444627 -0.674206 0.7973103 -0.6616473 0.6651049 -0.7155541
0.6210592 0.6901986 -0.69366544 -0.9588966 0.3930186 0.4821609 0.47754258 1.046403
0.65564 -0.14248568 -0.49260497 -0.78135127 0.54573417 0.13930692 -0.6118329 -0.32553744

model.4.bias_epsilon f4 [32]
00000000: 7d0d 19bf 6eb8 9b3f 421b d93e b8b3 2ebf
00000010: b24a 563f 8e61 a93f 0337 10bf da23 da3e
00000020: 42de dcbe cb8f 8d3f 3f93 b03f 7e73 f03e
00000030: b92b 77bf 1d2e 9abf 2b74 42bf 23a9 ad3f
00000040: 6603 5d3f 8a4f 08bf d238 083f 9bf7 623f
00000050: 68a5 3d3f 94a6 f23e 0701 5f3f 518d 6d3f
00000060: 896c 9abf fb34 46bf 99f6 03bf 2331 aabf
00000070: 686e 4b3f 4213 8abf eb58 843f c335 71bf
-0.59786206 1.2165658 0.4240361 -0.6824298 0.83707726 1.3232896 -0.5633394 0.42605478
-0.4313832 1.1059507 1.3794936 0.46963114 -0.9655109 -1.2045323 -0.7595851 1.3567241
0.8633331 -0.53246367 0.532117 0.88659066 0.74080515 0.47392714 0.8711094 0.92793757
-1.2064372 -0.7742459 -0.51548153 -1.3296245 0.7946534 -1.0787127 1.0339636 -0.9422266

model.6.weight f4 [32]
00000000: 56da ad3f 8efb 873f fbac a43f 4356 673f
00000010: 986e c53f 0d39 c03f 2615 a33f b37e 983f
00000020: b4c1 153f 175f f73f cd6b d13f 9e00 b93f
00000030: e5bd 793f baba 5f3f 8113 9b3f 5e68 c13f
00000040: 1e52 983f 523c 7d3f f3cd c83f 339d c23f
00000050: 6ed5 103f 9efd 423f 636b d73f 5a0e a43f
00000060: b2c0 813f 16af 823f 2f2e bc3f 7177 9d3f
00000070: cd28 193f 6fb5 a53f 040c 4b3f 560d aa3f
1.3582256 1.0623643 1.286529 0.90366 1.5424376 1.501741 1.2740829 1.1913666
0.5849869 1.9325894 1.6361023 1.4453313 0.9755538 0.873943 1.2115327 1.5109975
1.190006 0.98920166 1.5687851 1.5204223 0.5657567 0.7616824 1.6829647 1.281688
1.0136931 1.0209682 1.4701594 1.2302076 0.5982788 1.2945994 0.7931521 1.328532

model.6.bias f4 [32]
00000000: 4d54 243d 40fd cf3d 2592 86bc 1b70 92ba
00000010: 21bc ef3c c523 4cbd efeb 88bd cea1 44bd
00000020: 7719 0fbe 1a37 8a3c 4d13 013e afc7 293d
00000030: e888 05be c40e 6b3d 6686 063e 809b 713e
00000040: 1de3 78bd c591 9b3d 4e6a 26bd 3931 c5bc
00000050: 37d8 bebd 854d d839 4f55 063d 3918 5b3e
00000060: 671e 09be 155c 43bc 6e6b 7c3d 9021 a1bd
00000070: 6b49 b4bd 3f23 a7bd 6d26 b93c c3cc cfbd
0.040119458 0.101557255 -0.016427109 -0.0011172326 0.029264512 -0.0498388 -0.06685626 -0.04800587
-0.13974558 0.016871978 0.12605019 0.0414502 -0.13040507 0.05738713 0.13137206 0.23594475
-0.060763467 0.07596163 -0.040628724 -0.024071323 -0.093185835 0.00041256487 0.0327962 0.21395959
-0.13390504 -0.01192381 0.06162589 -0.0786773 -0.08803066 -0.081610195 0.02260133 -0.10146477

model.6.running_mean f4 [32]
00000000: b7c4 a93e ed57 3a3d 2a2a 5e3f 0400 0000
00000010: d2af f83c bfd7 a83e 3e99 4f3d 5353 d63e
00000020: 84b4 983f 0c99 c33d 3ed6 5d3e 0aec e23d
00000030: e681 453f f70c 663f b92f 8e3e a40f 8a3e
00000040: a717 4d3e fa3a 713f da22 b237 cb9e 663e
00000050: 6401 933f 1a0d 910e 663b 013e 3c28 ca3e
00000060: 91c9 a23f 8b48 6f3e 4317 033f 0239 163e
00000070: 15f0 e23e 4d05 173d 98b4 433c f167 b23f
0.33157894 0.04549401 0.8678309 6e-45 0.030357275 0.329771 0.050683253 0.41860446
1.1930089 0.09550676 0.21663758 0.11080177 0.77151334 0.8986353 0.27770784 0.26965058
0.20028554 0.94230616 2.1235483e-05 0.22521512 1.1484799 3.5757876e-30 0.12620315 0.3948382
1.2717763 0.23367517 0.5120737 0.14670184 0.44323793 0.03687029 0.011944912 1.393797

model.6.running_var f4 [32]
00000000: f6ac 933e 6cce 243d e796 c13f 0400 0000
00000010: f396 ac3c ade2 d63e 2856 633d 28be 093f
00000020: 9bc5 6f3f e09e ce3d 7067 203e 96cc e23d
00000030: db0d 903f c528 613f 4825 b63e e1e2 7f3e
00000040: 1b9f 9c3e 1c1e 893f fc05 c535 b2df 6a3e
00000050: e8c0 933f da42 950c 7bf6 093e 01cb ff3e
00000060: 6eba ba3f b46f 493e 9e0d 153f e1dc fd3d
00000070: 9952 cc3e 5f6f ea3c 2d85 fa3b df4f 1d40
0.28842896 0.04023592 1.5124177 6e-45 0.021068072 0.41969815 0.055502087 0.5380578
0.93660897 0.10088897 0.15664458 0.11074178 1.1254228 0.87952834 0.35575318 0.24988891
0.30590138 1.0712314 1.4679385e-06 0.22936895 1.1543245 2.299732e-31 0.13472931 0.49959567
1.4588144 0.19671518 0.58223903 0.12395645 0.39906767 0.028617559 0.0076452703 2.458
