Tennis/last_actor_2.pth (torch_old, 28393 bytes, 30 tensors)

model.0.weight f4 [24]
0.18169607 0.3740392 0.14989947 0.10201576 0.82614166 0.84596527 0.6418701 0.82805
0.281802 0.32859597 0.4252454 0.21742421 -0.24148305 -0.080025956 0.4180468 0.56745726
0.7374812 0.4320507 -0.040246554 0.16500863 1.4105694 1.1534853 0.5372279 0.985828
00000000: 890e 3a3e 1182 bf3e 3f7f 193e a4ed d03d
00000010: 057e 533f 2e91 583f 9951 243f 16fb 533f
00000020: 5a48 903e bb3d a83e c4b9 d93e 74a4 5e3e
00000030: 5547 77be a6e4 a3bd 3b0a d63e e144 113f
00000040: 91cb 3c3f c035 dd3e 92d9 24bd 06f8 283e
00000050: 8a8d b43f 68a5 933f c587 093f 395f 7c3f

model.0.bias f4 [24]
-0.36938637 -0.32653153 -0.10550037 -0.14857146 0.18962899 0.017953055 -0.008865871 0.01134767
-0.19455166 -0.3248903 0.021588203 0.24205902 0.1130961 -0.20987037 -0.04343903 0.068260536
-0.17818373 -0.26317376 0.16801524 -0.1119571 0.09930299 0.21358232 -0.05554889 -0.13046671
00000000: 3620 bdbe 242f a7be 9410 d8bd 1e23 18be
00000010: 1a2e 423e 4912 933c 2842 11bc 94eb 393c
00000020: 8d38 47be 0558 a6be bed9 b03c 52de 773e
00000030: ee9e e73d 42e8 56be 20ed 31bd 2ecc 8b3d
00000040: cc75 36be b6be 86be 300c 2c3e c449 e5bd
00000050: 5e5f cb3d 53b5 5a3e 3c87 63bd 1199 05be

model.0.running_mean f4 [24]
-8.187416 -0.10084521 2.1404662 0.21852025 -0.013388304 3.8520288 2.1404662 0.21852025
-8.309071 -0.098263115 2.1726456 0.24735448 -0.068718545 3.8745763 2.1726456 0.24735448
-8.421916 -0.09181503 2.150316 0.23971623 -0.053439148 3.8723009 2.150316 0.23971623
00000000: a8ff 02c1 ef87 cebd 66fd 0840 c6c3 5f3e
00000010: 9e5a 5bbc a487 7640 66fd 0840 c6c3 5f3e
00000020: f4f1 04c1 2c3e c9bd a00c 0b40 7e4a 7d3e
00000030: 4fbc 8cbd 0ff9 7740 a00c 0b40 7e4a 7d3e
00000040: 2bc0 06c1 8509 bcbd c79e 0940 2c78 753e
00000050: 02e3 5abd c7d3 7740 c79e 0940 2c78 753e

model.0.running_var f4 [24]
13.024208 0.71442765 367.1154 17.470362 30.884293 2.737453 367.1154 17.470362
11.7700205 0.72015834 380.98502 17.489986 32.467644 2.7273316 380.98502 17.489986
10.859155 0.7147204 404.99283 17.615818 34.207226 2.885423 404.99283 17.615818
00000000: 2863 5041 bbe4 363f c58e b743 4dc3 8b41
00000010: 0813 f741 6e32 2f40 c58e b743 4dc3 8b41
00000020: 0152 3c41 4c5c 383f 157e be43 7eeb 8b41
00000030: dede 0142 9a8c 2e40 157e be43 7eeb 8b41
00000040: 19bf 2d41 ebf7 363f 157f ca43 32ed 8c41
00000050: 33d4 0842 c5aa 3840 157f ca43 32ed 8c41

model.1.weight_mu f4 [32, 24]
0.09212115 -0.04550243 -0.16299222 -0.009684241 -0.104668595 -0.08274287 -0.4321619 0.0899028
-0.2717444 -0.042133626 -0.6109388 -0.1820913 -0.40195948 0.25086206 -0.36641717 0.24282898
-0.14116167 -0.15738592 -0.0425639 -0.043015067 -0.007866413 -0.6502679 0.32051927 0.20006333
0.21443956 -0.2079312 0.16925049 0.19165613 -0.094604634 -0.17191747 0.046934187 -0.056669507
0.2968611 -0.25349155 -0.3409598 0.30477422 0.34900287 -0.05025604 -0.32516587 0.5255984
0.14033186 -0.1569287 -0.14915232 -0.31533822 0.07432675 0.47120798 -0.26883554 -0.473198
0.028828861 -0.1188874 0.005858567 0.40381357 -0.51429725 -0.33973604 -0.21853895 0.17305365
-0.17485464 0.22223061 -0.09448469 0.17267187 0.3193285 -0.1243027 -0.26348972 0.39899138
0.028583694 0.12571944 -0.7726047 0.19449313 -0.0059991125 -0.11137312 -1.0378735 -0.03171642
-0.11176481 -0.21076281 0.060966887 0.06746313 -0.9113547 0.17532314 0.101720996 -0.03683633
-0.29209527 -0.22874802 -0.0341875 -0.39899132 -0.017251013 0.5142067 0.03171728 -0.06499144
0.09983603 0.37055233 -0.034717023 0.08218596 -0.022281455 0.7203359 0.1861292 0.3195307
0.0722015 0.011729599 0.12854652 0.3521473 -0.056240983 -0.054463044 0.17819813 -0.022696283
-0.064635195 -0.23752773 0.82548475 -0.31048974 -0.0304651 0.30029985 1.0465524 -0.28058973
0.20589049 0.052706726 0.039258648 -0.00611989 -0.013646708 0.15200363 0.42201817 -0.2237948
-0.12120477 -0.24144559 -0.10781366 -0.10693226 0.21697006 0.058227085 -0.41363674 -0.4663826
0.11583391 0.059851047 0.23308945 -0.19335684 -0.0727652 -0.156772 0.110117204 -0.06646393
0.18324666 0.09267608 -0.7272504 -0.28105628 0.053119786 0.42313805 -0.59522456 -0.024410076
0.028715998 -0.08275837 0.40830606 -0.159429 0.44275555 0.23102894 0.053383872 -0.011359056
-0.08233501 -0.20352519 -0.21310051 -0.40927 0.06328642 -0.0560073 -0.25154367 -0.107802674
0.079647385 -0.079014696 -0.2526828 -0.1296198 -1.050156 -0.14585473 0.07185178 0.052619457
-0.30774716 -0.11019501 -0.11172079 -0.02511239 0.65056187 -0.05589316 -0.13593648 0.09780496
-0.22446357 0.13604079 -0.33356848 -0.63170165 -0.5825976 0.20531751 -0.2434452 -0.36718425
0.1658762 0.104704075 0.26383606 -0.31753394 -0.14161262 0.16938417 0.1535129 -0.32179573
-0.40825453 -0.26545307 0.056847967 -0.227376 0.06424065 0.06347048 -0.034478307 0.13499315
-0.28763348 -0.10763431 0.12553298 0.38069773 -0.29485267 -0.26723656 0.2668459 0.47619838
-0.07792588 0.08285771 0.52393836 0.047116045 0.6899987 -0.0584819 0.12765391 0.28793478
0.02612514 0.45802638 -0.45969728 0.253741 -0.36536795 -0.13253151 -0.16724682 -0.048540454
-0.20121583 0.09884852 0.0379252 -0.253651 0.45939252 0.041169904 0.012319082 -0.3793118
-0.6030512 0.13041255 -0.34771815 0.27645898 -0.33197147 0.28600898 -0.04905841 0.5552368
0.05344968 -0.09003024 -0.12820162 -0.0074662534 0.41424948 0.34811518 -0.16081277 -0.25517416
-0.37683272 -0.018310577 -0.2500484 -0.3994337 0.08166268 -0.09271002 -0.1354566 -0.16676587
00000000: 03aa bc3d c260 3abd 6fe7 26be a7aa 1ebc
00000010: 7d5c d6bd 1875 a9bd 5344 ddbe f61e b83d
00000020: 1522 8bbe 4f94 2cbd 7c66 1cbf 2476 3abe
00000030: a2cd cdbe fe70 803e 089b bbbe 29a8 783e
00000040: af8c 10be c629 21be 7c57 2ebd 9130 30bd
00000050: 21e2 00bc f577 26bf 1a1b a43e 67dd 4c3e
00000060: 0b96 5b3e ebeb 54be 0050 2d3e 8141 443e
00000070: 13c0 c1bd 220b 30be 103e 403d 491e 68bd
00000080: 2efe 973e a5c9 81be 4892 aebe 5e0b 9c3e
00000090: 81b0 b23e 47d9 4dbd 247c a6be 9e8d 063f
000000a0: 28b3 0f3e ebb1 20be 63bb 18be 0374 a1be
000000b0: a038 983d 2c42 f13e d0a4 89be 0247 f2be
000000c0: 812a ec3c 3d7b f3bd 39f9 bf3b a7c0 ce3e
000000d0: fca8 03bf e2f1 adbe adc8 5fbe fa34 313e
000000e0: 180d 33be 6c90 633e 3081 c1bd e5d0 303e
000000f0: 067f a33e 6a92 febd 20e8 86be 9948 cc3e
00000100: 5a28 ea3c 99bc 003e 6cc9 45bf 3529 473e
00000110: 3494 c4bb 9717 e4bd 0ad9 84bf 14e9 01bd
00000120: f3e4 e4bd 35d2 57be 6ab8 793d 1c2a 8a3d
00000130: 8b4e 69bf e987 333e 1953 d03d b1e1 16bd
00000140: 838d 95be ec3c 6abe 3108 0cbd 9748 ccbe
00000150: ff51 8dbc 0da3 033f fbe9 013d 3b1a 85bd
00000160: d576 cc3d 09b9 bd3e 7033 0ebd 1d51 a83d
00000170: 9987 b6bc ef67 383f a798 3e3e 8799 a33e
00000180: 61de 933d 812d 403c b3a1 033e a74c b43e
00000190: f25c 66bd a414 5fbd 9279 363e 8eed b9bc
000001a0: 755f 84bd 783a 73be f852 533f 83f8 9ebe
000001b0: f291 f9bc e7c0 993e 6ef5 853f 75a9 8fbe
000001c0: f5d4 523e 02e3 573d adcd 203d 5c89 c8bb
000001d0: 7196 5fbc d7a6 1b3e c412 d83e 772a 65be
000001e0: 353a f8bd 833d 77be 68cd dcbd 4dff dabd
000001f0: 662d 5e3e 867f 6e3d 32c8 d3be b3c9 eebe
00000200: 543a ed3d 5f26 753d 00af 6e3e 56ff 45be
00000210: ec05 95bd d788 20be 2185 e13d 3e1e 88bd
00000220: 03a5 3b3e f5cc bd3d 152d 3abf 9ce6 8fbe
00000230: 2294 593d 8da5 d83e a360 18bf a4f7 c7bc
00000240: d03d eb3c 387d a9bd 7e0d d13e 5b41 23be
00000250: dbb0 e23e da92 6c3e 0ca9 5a3d 561b 3abc
00000260: 429f a8bd e868 50be 0537 5abe d68b d1be
00000270: 509c 813d e967 65bd 55ca 80be a6c7 dcbd
00000280: 2b1e a33d 75d2 a1bd a45f 81be 0ebb 04be
00000290: 836b 86bf f15a 15be 0727 933d 8087 573d
000002a0: 0991 9dbe ecad e1bd dfcd e4bd 80b8 cdbc
000002b0: 398b 263f 3af0 64bd ef32 0bbe f84d c83d
000002c0: c7d9 65be 474e 0b3e 7dc9 aabe 33b7 21bf
000002d0: 1e25 15bf c13e 523e b349 79be 93ff bbbe
000002e0: 73db 293e 176f d63d 8515 873e cf93 a2be
000002f0: e602 11be 0b73 2d3e 7c32 1d3e 69c2 a4be
00000300: bd06 d1be 77e9 87be 6ad9 683d 41d5 68be
00000310: 9a90 833d d0fc 813d 2039 0dbd a53b 0a3e
00000320: b244 93be 616f dcbd b88b 003e d0ea c23e
00000330: eef6 96be 3bd3 88be 07a0 883e 46d0 f33e
00000340: 9b97 9fbd 4eb1 a93d d320 063f c1fc 403d
00000350: c1a3 303f b78a 6fbd b5b7 023e 306c 933e
00000360: 6404 d63c 6f82 ea3e 715d ebbe 57ea 813e
00000370: 8211 bbbe 57b6 07be c042 2bbe 5bd2 46bd
00000380: 860b 4ebe 1871 ca3d 7457 1b3d 8bde 81be
00000390: 7f35 eb3e c6a1 283d fad5 493c 2835 c2be
000003a0: 9061 1abf de8a 053e 1d08 b2be 088c 8d3e
000003b0: 2af8 a9be c56f 923e 79f1 48bd 0024 0e3f
000003c0: 0dee 5a3d c661 b8bd 4947 03be 79a7 f4bb
000003d0: 8218 d43e 273c b23e 1aac 24be 30a6 82be
000003e0: 38f0 c0be 1000 96bc 5806 80be 9382 ccbe
000003f0: c33e a73d c0de bdbd 23b5 0abe acc4 2abe

model.1.weight_sigma f4 [32, 24]
0.00021344025 0.00094228005 0.0046566036 0.13800095 0.028843958 -0.011538267 -0.03136848 -0.001180939
0.04922087 -0.03298293 -0.0050741355 0.02793323 -0.020468967 0.08074076 -0.009065902 0.010159178
-0.031034457 -0.024659501 0.0045575467 0.0007249106 -0.022537185 0.008468881 -0.033554766 0.03204325
0.04190014 -0.022159617 0.0083292425 0.02811804 -0.0029141183 -0.004606055 -0.0009976181 -0.0017284213
-0.028784383 -0.023725905 0.031448457 0.014045973 -0.0012372931 -0.011394931 -0.010681295 -0.032250233
-0.002312764 0.03018625 0.010304417 -0.014947984 -0.012504566 0.008536077 -0.010962484 0.040854942
0.007468449 -0.009637783 0.001588118 -0.036957383 0.013911862 -0.023263728 0.009724503 0.021579564
-0.00729965 0.034233283 0.004222259 0.0075364984 0.10728606 -0.041999694 0.02180667 0.010580606
-0.014687983 -0.055324968 -0.011094214 -0.015455356 -0.0084238015 -0.0011515594 -0.025321078 -0.01740668
0.054114502 -0.004897422 -0.003166734 0.05388692 0.014913578 0.0032819998 0.013476276 -0.02384897
0.030534578 -0.030928789 -0.03483695 0.008805773 0.059230953 -0.121148646 -0.06866344 0.0014377693
0.012821644 0.052286256 -0.0626703 0.05797175 -0.030710693 0.014963093 -0.00086371903 0.009676488
-0.06742886 -0.06853006 -0.018440802 0.086598426 -0.07990881 -0.029274303 -0.06686327 0.022622459
-0.018115567 0.012841022 -0.08092307 -0.009454872 0.04581732 -0.028307075 -0.042921685 0.01713526
-0.009506078 0.03450223 -0.01617113 0.008964078 0.003995718 -0.0018250855 -0.04478559 0.008340764
0.01802625 0.016941642 0.012509618 -0.018772759 -0.026109962 0.012490729 -0.01866141 -0.0025744191
-0.009693761 -0.037460078 -0.07546564 -0.03570129 0.027835386 -0.033134624 -0.004247283 -0.020423023
0.030351987 -0.013720189 -0.073485315 -0.065826125 0.0154342335 2.4427543e-05 0.024162764 0.029159483
0.0037379556 -0.034079 0.04664412 -0.049120124 -0.038879998 0.032452166 0.031546384 -0.0074016047
-0.052486148 0.038411725 0.025586363 0.0017635411 -0.06892474 -0.0054777865 0.039725754 0.016967764
-0.03979747 -0.007095189 0.0010407527 -0.09691003 0.088019855 -0.019731358 0.04185845 -0.009783824
0.036863938 0.002536991 -0.049124505 0.00422247 -0.028022101 -0.007077126 -0.016236743 -0.010748674
0.010245912 -0.0047921166 -0.0004045669 0.0033642533 0.028945742 -0.021826247 -0.034000024 0.008215019
0.0068080104 0.0030079246 0.054588348 -0.036624745 -0.010367934 -0.0036472213 0.00010583041 -0.010533697
-0.01653402 -0.05659891 0.0782895 -0.04598745 0.0107288305 -0.009293242 0.021642394 -0.009488788
-0.057770103 0.02951976 -0.019715318 0.025030185 0.05507407 0.077853926 0.0039399336 0.010863942
0.05567046 -0.02478486 0.040575046 -0.059948012 -0.013346816 -0.023907693 -0.052964725 -0.022044426
0.03703827 -0.0050914707 0.0447226 -0.060952343 0.0040479437 -0.0068334853 0.012472399 0.012918421
0.039945908 0.0031970015 -0.013474446 -0.011880671 0.047704346 -0.03925674 -0.019818176 0.0041802265
-0.011424747 0.0303969 -0.035397828 0.078084804 0.0076668756 0.03156713 0.010187013 0.013892501
0.035976343 -0.006185217 -0.07006134 0.0059900316 0.0071010515 -0.02554376 0.053968113 -0.016392184
0.058022678 0.025273547 -0.050097577 -0.023556689 0.042758167 0.019578476 -0.00047135775 -0.040208757
00000000: eece 5f39 5803 773a 6c96 983b 1f50 0d3e
00000010: 2a4a ec3c 000b 3dbc 3c7c 00bd bdc9 9aba
00000020: d39b 493d 1c19 07bd ef44 a6bb 3bd4 e43c
00000030: 89ae a7bc 695b a53d 2689 14bc ae72 263c
00000040: f93b febc b902 cabc 7957 953b ed07 3e3a
00000050: e79f b8bc 10c1 0a3c b970 09bd c83f 033d
00000060: 7b9f 2b3d 1688 b5bc 6077 083c ce57 e63c
00000070: cbfa 3ebb 64ee 96bb 82c2 82ba 328c e2ba
00000080: 3acd ebbc d45c c2bc 19d0 003d 1521 663c
00000090: ab2c a2ba ceb1 3abc 9900 2fbc d218 04bd
000000a0: be91 17bb 2849 f73c dcd3 283c 64e8 74bc
000000b0: f4df 4cbc e7da 0b3c fe9b 33bc 8357 273d
000000c0: e4b9 f43b cbe7 1dbc 6628 d03a a060 17bd
000000d0: 94ee 633c 9393 bebc 8653 1f3c a0c7 b03c
000000e0: e731 efbb 3338 0c3d e05a 8a3b bbf4 f63b
000000f0: cbb8 db3d df07 2cbd e7a3 b23c 475a 2d3c
00000100: dea5 70bc 6f9c 62bd 82c4 35bc 7638 7dbc
00000110: fc03 0abc ecef 96ba 266e cfbc 7498 8ebc
00000120: 2ba7 5d3d 8e7a a0bb fb88 4fbb 88b8 5c3d
00000130: 1458 743c d216 573b 99cb 5c3c ea5e c3bc
00000140: a723 fa3c 5f5e fdbc 31b1 0ebd 1746 103c
00000150: 289c 723d c81c f8bd 6b9f 8cbd 8873 bc3a
00000160: df11 523c 1d2a 563d 4959 80bd c973 6d3d
00000170: fe94 fbbc c327 753c 346b 62ba 228a 1e3c
00000180: 2418 8abd 7d59 8cbd 2a11 97bc 845a b13d
00000190: 3ba7 a3bd aad0 efbc 9cef 88bd bc52 b93c
000001a0: 1967 94bc 2663 523c ffba a5bd 9ce8 1abc
000001b0: f1aa 3b3d 3de4 e7bc a6ce 2fbd 3f5f 8c3c
000001c0: 62bf 1bbc 3652 0d3d 5179 84bc 11de 123c
000001d0: 83ee 823b b537 efba 1871 37bd b3a7 083c
000001e0: c9ab 933c 33c9 8a3c 24f5 4c3c 54c9 99bc
000001f0: 8fe4 d5bc eaa5 4c3c d0df 98bc 96b7 28bb
00000200: 95d2 1ebc bd6f 19bd bb8d 9abd 843b 12bd
00000210: 0907 e43c 2cb8 07bd cb2c 8bbb 2f4e a7bc
00000220: bba4 f83c a5ca 60bc 787f 96bd d9cf 86bd
00000230: dedf 7c3c c0e9 cc37 fdf0 c53c dedf ee3c
00000240: 7df8 743b 6c96 0bbd e80d 3f3d 2f32 49bd
00000250: a240 1fbd 90ec 043d c836 013d 2989 f2bb
00000260: b7fb 56bd 9d55 1d3d 7e9a d13c 9f26 e73a
00000270: 6a28 8dbd 017f b3bb 79b7 223d fbff 8a3c
00000280: ac02 23bd c27e e8bb de69 883a c478 c6bd
00000290: c143 b43d a8a3 a1bc c473 2b3d 554c 20bc
000002a0: a4fe 163d a543 263b c736 49bd a55c 8a3b
000002b0: 9b8e e5bc 3ce7 e7bb eb02 85bc 351b 30bc
000002c0: 78de 273c 3007 9dbb 0d1c d4b9 ce7a 5c3b
000002d0: 9f1f ed3c f5cc b2bc 9c43 0bbd 4998 063c
000002e0: bb15 df3b 9a20 453b 0898 5f3d d403 16bd
000002f0: 44de 29bc 3806 6fbb 45f1 dd38 8795 2cbc
00000300: 5a72 87bc 42d4 67bd 3f56 a03d 565d 3cbd
00000310: fac7 2f3c af42 18bc 644b b13c dd76 1bbc
00000320: 58a0 6cbd 6cd3 f13c 0582 a1bc 1a0c cd3c
00000330: 5995 613d e171 9f3d 8f1a 813b adfe 313c
00000340: b506 643d 9e09 cbbc 0532 263d 0c8c 75bd
00000350: 9bac 5abc 11da c3bc 8af1 58bd 8396 b4bc
00000360: 71b5 173d 5ad6 a6bb 0c2f 373d 2aa9 79bd
00000370: 9da4 843b 6eeb dfbb 0859 4c3c c9a7 533c
00000380: 529e 233d c984 513b ecc3 5cbc 25a7 42bc
00000390: a265 433d adcb 20bd ba59 a2bc 48fa 883b
000003a0: dd2e 3bbc eb02 f93c 50fd 10bd edea 9f3d
000003b0: 6a3a fb3b 894c 013d 6ee7 263c 5f9d 633c
000003c0: ee5b 133d 5cad cabb 527c 8fbd 0748 c43b
000003d0: f0af e83b 2641 d1bc ab0d 5d3d e748 86bc
000003e0: 30a9 6d3d 780a cf3c 1e33 4dbd f5f9 c0bc
000003f0: 3023 2f3d 0a63 a03c 9120 f7b9 f0b1 24bd

model.1.bias_mu f4 [32]
-0.43768516 0.115373164 -0.13669465 -0.17994201 -0.24520446 -0.24731043 -0.046822324 -0.4376542
0.5245624 -0.2411969 -0.36397704 -0.3371719 0.11041461 0.16050492 -0.3337699 -0.5340396
0.41054225 -0.018743578 -0.04927825 0.15990931 -0.12746257 -0.26824212 -0.1430687 -0.03414561
-0.07152395 0.109784074 -0.5227233 -0.28853408 -0.37826908 -0.3229981 0.12037428 -0.46591637
00000000: 4518 e0be c448 ec3d aff9 0bbe b842 38be
00000010: e116 7bbe f23e 7dbe c4c8 3fbd 3614 e0be
00000020: b949 063f 52fc 76be 335b babe cca1 acbe
00000030: 0e21 e23d 675b 243e e3e3 aabe d2b6 08bf
00000040: 9832 d23e 228c 99bc fed7 49bd 44bf 233e
00000050: 8c85 02be 0857 89be 9a80 12be 44dc 0bbd
00000060: 267b 92bd 79d6 e03d 32d1 05bf bdba 93be
00000070: 7cac c1be 0260 a5be ca86 f63d 978c eebe

model.1.bias_sigma f4 [32]
0.00833603 0.031494707 0.016899154 0.021477338 -0.0019481424 0.026820628 0.024062583 0.019500304
-0.013296538 -0.014266035 0.019726755 0.011525337 -0.008063832 -0.0009511645 -0.024057727 0.0140523175
-0.010935259 -0.015507824 -0.023791838 0.0033662347 0.053942602 0.0067056403 0.01707659 -0.04737696
0.028182931 -0.036121845 0.004085595 0.028200824 -0.034548208 -0.00060846604 -0.019534161 -0.004151491
00000000: d893 083c 9800 013d 1870 8a3c 3ef1 af3c
00000010: d058 ffba efb6 db3c e51e c53c 1abf 9f3c
00000020: b9d9 59bc 16bc 69bc 019a a13c c4d4 3c3c
00000030: 2a1e 04bc 9257 79ba b614 c5bc b13b 663c
00000040: cd29 33bc 8714 7ebc 1ae7 c2bc 0c9c 5c3b
00000050: ebf2 5c3d fdba db3b 34e4 8b3c 580e 42bd
00000060: e4df e63c 80f4 13bd 74e0 853b 6a05 e73c
00000070: 6c82 0dbd 7781 1fba 1b06 a0bc 3b09 88bb

model.1.weight_epsilon f4 [32, 24]
0.29537985 0.56982833 -0.7077325 0.8624241 -0.558188 -0.77882403 -0.6953323 0.45180255
0.83934355 -0.2758829 0.7963426 0.6702128 -0.510386 -0.87505215 -0.78872305 -0.25522584
-0.68046916 0.18758897 -0.81838083 0.9660039 0.32765606 0.48250216 -0.7555638 -0.49647385
-0.3065393 -0.59135646 0.7344706 -0.8950065 0.5792764 0.808248 0.7216019 -0.46887165
-0.871054 0.28630576 -0.8264284 -0.69553345 0.5296684 0.90811163 0.818521 0.2648683
0.7061773 -0.19467609 0.84929925 -1.0024995 -0.34003493 -0.5007311 0.784109 0.51523066
-0.22259541 -0.42941716 0.5333404 -0.6499145 0.42064512 0.58691424 0.5239957 -0.34047404
-0.6325212 0.2079027 -0.6001161 -0.5050659 0.38462198 0.65943086 0.59437406 0.19233574
0.512795 -0.14136524 0.6167239 -0.7279712 -0.24691845 -0.36360896 0.5693856 0.3741379
-0.38643867 -0.74549335 0.9259102 -1.1282896 0.73026454 1.0189176 0.9096872 -0.5910829
-1.0980939 0.36093128 -1.0418367 -0.876824 0.6677263 1.1448106 1.0318682 0.3339061
0.89024216 -0.24541834 1.0706688 -1.2638006 -0.42866492 -0.6312465 0.9884867 0.64952534
0.12851688 0.24792674 -0.3079275 0.37523228 -0.24286215 -0.33885872 -0.3025323 0.19657487
0.36519018 -0.12003396 0.34648088 0.29160303 -0.22206396 -0.38072664 -0.34316567 -0.11104627
-0.29606548 0.08161812 -0.3560695 0.42029884 0.14255996 0.20993197 -0.32873842 -0.21601091
-0.40747932 -0.78608364 0.97632366 -1.1897222 0.7700257 1.0743951 0.9592174 -0.6232659
-1.1578823 0.38058308 -1.0985621 -0.9245649 0.70408237 1.2071427 1.0880508 0.35208648
0.93871367 -0.25878075 1.1289641 -1.3326114 -0.45200467 -0.6656163 1.0423074 0.6848904
0.41072375 0.7923426 -0.9840974 1.1991951 -0.7761568 -1.0829498 -0.966855 0.6282285
1.1671017 -0.38361338 1.1073092 0.93192655 -0.7096884 -1.2167543 -1.0967143 -0.35488987
-0.9461879 0.26084125 -1.1379532 1.3432221 0.45560363 0.6709161 -1.0506065 -0.6903437
0.558601 1.0776181 -1.3384125 1.630954 -1.0556048 -1.4728557 -1.3149621 0.8544163
1.5873058 -0.5217298 1.5059855 1.267458 -0.96520513 -1.6548353 -1.491576 -0.48266467
-1.286854 0.3547547 -1.5476626 1.8268367 0.61963946 0.9124732 -1.4288676 -0.9388954
-0.44835708 -0.86494243 1.0742671 -1.3090736 0.8472736 1.182177 1.0554448 -0.6857911
-1.2740396 0.41876265 -1.2087685 -1.017316 0.77471495 1.3282417 1.1972027 0.3874073
1.0328841 -0.2847413 1.2422203 -1.4662973 -0.49734914 -0.73239005 1.1468703 0.7535977
-0.6182926 -1.1927716 1.4814341 -1.8052365 1.1684059 1.6302437 1.4554778 -0.9457185
-1.7569239 0.5774814 -1.6669139 -1.4028975 1.0683461 1.8316696 1.6509645 0.5342418
1.4243662 -0.39266348 1.7130445 -2.0220509 -0.6858536 -1.0099792 1.5815551 1.039225
0.034512028 0.06657845 -0.082691096 0.10076518 -0.0652184 -0.09099739 -0.08124226 0.052788377
0.09806846 -0.032234017 0.09304425 0.078307316 -0.059633236 -0.10224064 -0.09215399 -0.029820455
00000000: 073c 973e 45e0 113f f52d 35bf d3c7 5c3f
00000010: 69e5 0ebf 0361 47bf 4c01 32bf aa52 e73e
00000020: 38df 563f 8640 8dbe 1cdd 4b3f 1193 2b3f
00000030: a8a8 02bf 6b03 60bf c1e9 49bf f6ac 82be
00000040: 3a33 2ebf 5317 403e 6881 51bf 084c 773f
00000050: 89c2 a73e 860a f73e a16c 41bf d231 febe
00000060: b8f2 9cbe 2363 17bf 4406 3c3f 251f 65bf
00000070: 754b 143f 57e9 4e3f e7ba 383f f20f f0be
00000080: 65fd 5ebf ab96 923e d090 53bf 7b0e 32bf
00000090: 5998 073f 017a 683f 988a 513f d19c 873e
000000a0: 09c8 343f 2b59 47be ad6b 593f e751 80bf
000000b0: 0f19 aebe ea2f 00bf 5ebb 483f 28e6 033f
000000c0: 0df0 63be 91dc dbbe ff88 083f cc60 26bf
000000d0: cc5e d73e 0340 163f 9524 063f 9d52 aebe
000000e0: e9ec 21bf 72e4 543e 35a1 19bf 004c 01bf
000000f0: 2ced c43e 76d0 283f e628 183f a9f3 443e
00000100: 8846 033f 0dc2 10be 9ee1 1d3f 525c 3abf
00000110: 31d8 7cbe f42a babe 41c3 113f 018f bf3e
00000120: 4adb c5be a7d8 3ebf 7308 6d3f cb6b 90bf
00000130: 9ef2 3a3f e46b 823f 43e1 683f 3551 17bf
00000140: 578e 8cbf fccb b83e e85a 85bf 8a77 60bf
00000150: 1cf0 2a3f 2789 923f 4214 843f bef5 aa3e
00000160: e9e6 633f f24e 7bbe ad0b 893f 38c4 a1bf
00000170: f879 dbbe 5f99 21bf 770d 7d3f 4b47 263f
00000180: ee99 033e 82e0 7d3e aca8 9dbe 721e c03e
00000190: dbb0 78be e47e adbe 83e5 9abe ec4a 493e
000001a0: 35fa ba3e 5dd4 f5bd f165 b13e fe4c 953e
000001b0: bc64 63be 9aee c2be 69b3 afbe 3a6c e3bd
000001c0: e595 97be 6727 a73d be4e b6be 6931 d73e
000001d0: 3dfb 113e 68f8 563e 6750 a8be f731 5dbe
000001e0: 21a1 d0be c73c 49bf 59f0 793f d148 98bf
000001f0: 6720 453f c785 893f 468f 753f 5b8e 1fbf
00000200: 7d35 94bf c9db c23e af9d 8cbf 49b0 6cbf
00000210: be3e 343f a783 9a3f 4045 8b3f ae44 b43e
00000220: 8a4f 703f e97e 84be e581 903f 0393 aabf
00000230: 286d e7be d465 2abf 546a 853f fa54 2f3f
00000240: 624a d23e f7d6 4a3f cfed 7bbf 3a7f 993f
00000250: 36b2 46bf 199e 8abf cf83 77bf 95d3 203f
00000260: 9763 953f f968 c4be 4fbc 8d3f bd92 6e3f
00000270: 24ae 35bf 9bbe 9bbf 2261 8cbf 20b4 b5be
00000280: 5f39 72bf fc8c 853e 73a8 91bf b4ee ab3f
00000290: e144 e93e 28c1 2b3f 467a 86bf 5dba 30bf
000002a0: 7a00 0f3f 64ef 893f 1a51 abbf 1ac3 d03f
000002b0: 0f1e 87bf 8986 bcbf ae50 a8bf 07bb 5a3f
000002c0: d62c cb3f 1690 05bf 22c4 c03f 103c a23f
000002d0: af17 77bf a5d1 d3bf f6eb bebf d31f f7be
000002e0: a2b7 a4bf 68a2 b53e cf19 c6bf c9d5 e93f
000002f0: b1a0 1e3f d897 693f 22e5 b6bf 735b 70bf
00000300: 0f8f e5be de6c 5dbf 9681 893f b98f a7bf
00000310: ece6 583f 9351 973f d118 873f 0190 2fbf
00000320: bb13 a3bf 0f68 d63e edb8 9abf 6937 82bf
00000330: b853 463f d303 aa3f f03d 993f 405a c63e
00000340: 8c35 843f 9dc9 91be 1301 9f3f a1af bbbf
00000350: 8ca4 febe ea7d 3bbf a5cc 923f c7eb 403f
00000360: 6d48 1ebf bdac 98bf a29f bd3f fd11 e7bf
00000370: 538e 953f d3ab d03f 194d ba3f 9c1a 72bf
00000380: e2e2 e0bf d2d5 133f 6f5d d5bf 2592 b3bf
00000390: 91bf 883f 2674 ea3f ce52 d33f 12c4 083f
000003a0: a251 b63f 300b c9be 0b45 db3f 4869 01c0
000003b0: 1a94 2fbf 0047 81bf 6670 ca3f 5305 853f
000003c0: 7c5c 0d3d 485a 883d f359 a9bd fa5d ce3d
000003d0: 3991 85bd d75c babd 5862 a6bd a038 583d
000003e0: 1ed8 c83d d107 04bd fc8d be3d 965f a03d
000003f0: fb41 74bd 8a63 d1bd 3bbb bcbd 074a f4bc

model.1.bias_epsilon f4 [32]
0.41883147 1.0650102 1.1208959 -0.77446395 0.640876 0.671917 -1.0563344 -0.65966165
1.1832504 0.2103215 1.000965 0.9111779 1.2529895 -0.3213161 1.1867096 -1.4534705
0.33233058 -0.13978375 0.28008333 -1.3841873 -0.32264632 -0.6846401 0.63149416 -0.9140024
-0.6938465 -0.3330546 -0.4431656 -0.2407806 -1.4521265 0.37805235 -0.9106789 0.11983681
00000000: 1471 d63e 4152 883f 8479 8f3f 4543 46bf
00000010: 7310 243f c102 2c3f f735 87bf 96df 28bf
00000020: c074 973f 855e 573e 9f1f 803f f442 693f
00000030: f661 a03f 8b83 a4be 1ae6 973f 520b babf
00000040: 3c27 aa3e 7923 0fbe 1567 8f3e 0d2d b1bf
00000050: e631 a5be 9344 2fbf 9aa9 213f 10fc 69bf
00000060: ed9f 31bf 2286 aabe 9ae6 e2be 318f 76be
00000070: 48df b9bf 1490 c13e 4122 69bf 006d f53d

model.3.weight f4 [32]
0.5624386 0.67450833 0.59827447 0.44856662 -0.32127252 0.5758358 0.7066488 0.7807785
0.7243396 0.7603843 0.7125381 0.39732864 0.91177523 0.93838054 0.42712006 0.6133256
0.70132655 0.75328696 0.54142725 1.0952368 0.2427482 0.32404372 0.6790588 0.5228157
0.92780256 0.40741736 -0.42194563 0.88915944 0.52857095 0.846642 0.63063216 0.7642009
00000000: fafb 0f3f 94ac 2c3f 8428 193f 86aa e53e
00000010: d57d a4be fa69 133f f0e6 343f 1ae1 473f
00000020: 526e 393f 8ca8 423f e668 363f a96e cb3e
00000030: 1a6a 693f b539 703f 7baf da3e e802 1d3f
00000040: 238a 333f 6ad7 403f fa9a 0a3f b830 8c3f
00000050: fc92 783e 0fe9 a53e ccd6 2d3f 40d7 053f
00000060: 7884 6d3f 0299 d03e 4209 d8be f49f 633f
00000070: 6d50 073f 88bd 583f 1c71 213f aca2 433f

model.3.bias f4 [32]
-0.012631738 -0.15713848 0.26376006 -0.12740286 0.20229712 0.2771318 0.12854324 0.18788056
0.361237 0.2037598 0.2074756 -0.09520967 0.027217532 0.12849149 0.16580221 -0.16720814
0.5275774 0.06384183 0.14004037 0.12084446 -0.31744656 0.2225471 0.10767417 0.49142087
-0.07534059 -0.2084549 -0.51039636 0.36768854 0.47545445 0.01960458 0.07377824 0.11084397
00000000: 59f5 4ebc e9e8 20be 8f0b 873e e575 02be
00000010: fa26 4f3e 38e4 8d3e d7a0 033e c363 403e
00000020: 0ef4 b83e 69a6 503e 7c74 543e 4afd c2bd
00000030: 4df7 de3c 4693 033e 0ec8 293e 9c38 2bbe
00000040: 500f 073f 81bf 823d be66 0f3e 4d7d f73d
00000050: 5b88 a2be 63e3 633e 4684 dc3d 849b fb3e
00000060: 2b4c 9abd 3475 55be 56a9 02bf ac41 bc3e
00000070: c46e f33e c999 a03c 0c19 973d 2a02 e33d

model.3.running_mean f4 [32]
0.18899916 0.5439104 0.22032367 0.32147884 0.23968951 0.25321966 0.45284092 0.1666171
1.2860359 0.2428028 0.47648862 0.07070419 0.5652166 0.70833045 0.1715701 0.03033179
1.0548959 0.53855497 0.35067385 0.59476537 0.66864514 0.19730343 0.13084123 0.5541789
0.54975104 0.56103176 0.005782955 0.6300918 0.20201272 0.3738876 0.48937947 0.088885345
00000000: ff88 413e b63d 0b3f 879c 613e e098 a43e
00000010: 2b71 753e 02a6 813e c4da e73e ac9d 2a3e
00000020: d39c a43f 4ca1 783e 51f6 f33e 5ccd 903d
00000030: 09b2 103f 2555 353f 13b0 2f3e 607a f83c
00000040: d406 873f bdde 093f 868b b33e 8b42 183f
00000050: 542c 2b3f e909 4a3e 3efb 053e abde 0d3f
00000060: 7cbc 0c3f c79f 0f3f f17e bd3b b24d 213f
00000070: 6cdc 4e3e 326e bf3e f28f fa3e 8509 b63d

model.3.running_var f4 [32]
0.18455467 0.26823086 0.15497953 0.25283712 0.2233428 0.1318753 0.378864 0.087246254
1.1496907 0.20566209 0.46470237 0.05304317 0.37275565 0.80383414 0.17297724 0.020453831
0.6825704 0.5574445 0.31183124 0.4191066 0.35336274 0.17181468 0.097200066 0.41473678
0.46218565 0.6028575 0.0017358256 0.58604264 0.19535638 0.43876028 0.44966406 0.05587733
00000000: e6fb 3c3e 8e55 893e f4b2 1e3e de73 813e
00000010: fab3 643e 520a 073e 76fa c13e 2aae b23d
00000020: 1129 933f 1599 523e 78ed ed3e cc43 593d
00000030: d4d9 be3e 13c8 4d3f f220 313e cb8e a73c
00000040: efbc 2e3f afb4 0e3f 58a8 9f3e 2495 d63e
00000050: f6eb b43e 30f0 2f3e d410 c73d 6158 d43e
00000060: 99a3 ec3e de54 1a3f a484 e33a e406 163f
00000070: 810b 483e 30a5 e03e 5e3a e63e a1df 643d

model.4.weight_mu f4 [32, 32]
0.08942667 -0.038172573 -0.2380621 0.061533302 -0.42619735 -0.19767141 0.005435956 -0.43954986
-0.006167555 -0.12736815 0.09403991 -0.1143443 -0.41302282 -0.47948763 -0.20458126 -0.11829644
-0.32554632 0.1097646 -0.67994195 -0.12578687 0.4390543 -0.5009565 0.0587225 -0.31945258
0.39289382 0.21610387 0.07460526 0.46754298 -0.41793555 0.49928287 -0.012783755 -0.2378608
-0.33137065 -0.20438737 -0.026834546 0.028129295 -0.27552095 0.1347909 0.3376767 -0.31253898
-0.0076305415 -0.21802822 0.1758113 0.12767035 -0.5090184 -0.120619506 -0.4326723 0.16993141
-0.009479642 0.04184104 -0.65243506 0.36396286 0.116224475 -0.09778692 0.16359733 -1.0278865
0.3341078 -0.07144002 0.5704439 -0.326665 -0.25698727 0.12997076 -0.13535418 0.1314455
0.10863334 0.11988402 0.07497922 -0.27316934 -0.21806252 0.00036937618 0.010549781 -0.2176194
-0.16966292 -0.051426925 0.03412114 0.16153419 0.09496495 -0.18028632 -0.13809057 0.15371735
-0.171976 -0.030378094 0.03911262 -0.16186778 0.12551229 0.1404356 -0.031343896 -0.5791921
0.2609558 0.13642947 0.85239965 0.1447987 -0.6095994 0.124128476 0.21598954 0.024151623
0.029467495 0.40256387 0.02676473 -0.24277116 -0.45019105 0.480717 -0.21584706 0.17541356
0.17496997 -0.046938345 0.28748533 0.1478723 0.2734864 -0.380032 -0.06390633 0.01906906
0.2151741 0.051508356 -1.2906317 -0.25907028 0.45720547 0.05252268 0.089561485 -0.41382506
0.04563429 0.19253121 0.14439873 0.25258285 0.058644895 -0.38270724 0.22643866 -0.21794844
0.123605356 -0.18220678 0.05229251 0.4539394 0.38907063 0.16149266 -0.36111847 -0.44093496
-0.07797159 -0.29716733 -0.0996509 0.4115797 -0.12805955 -0.04232273 0.4726234 -0.6246914
-0.07008196 0.29733092 0.117227405 -0.30731437 -0.08405348 -0.67552423 -0.42979822 0.29016963
-0.3063757 -0.779812 -0.58154184 -0.17869426 -0.08290406 -0.28920543 -0.35029387 0.036250606
0.095268354 0.018030649 -0.05513137 -0.7666728 -0.88362277 -0.2479477 0.16758338 -0.92368
-0.9727697 -0.14411506 -0.20344798 0.28625816 -0.029517364 -0.0679251 0.14510441 0.02526482
0.12881508 -0.0039869165 0.08805643 0.38930714 -0.05612037 -0.83082825 -0.13256393 -0.09725393
0.016408421 -0.5307288 0.24779718 -0.37031263 0.30677515 0.02480406 0.112338975 -0.07190197
0.14507219 -0.018727763 0.14464383 0.54703575 0.54740375 0.009533745 -0.2374904 -0.48812813
-0.14097118 0.02914956 -0.25785223 0.1693106 0.2783759 0.29870728 0.21081053 -0.07002972
-0.30890468 0.35183874 -0.1722287 -0.6049444 0.19788541 -0.17074132 -0.24123219 0.123123616
-0.11092283 -0.49506366 0.023297325 -0.8726535 -0.40967578 -0.103857115 -0.47544992 -0.2215333
-0.4244761 0.11581595 0.45510542 0.06496751 -0.029008454 0.35707814 -0.31659558 0.49489397
-0.3078751 -0.17359565 -0.30765468 -1.0451539 -0.22446348 -0.65248716 -0.21423008 0.23915218
0.41922647 -0.09977581 0.18258885 0.049490493 0.70166767 0.44286215 -0.35161498 -0.057034448
0.31679183 0.21720766 0.0637035 0.28865686 0.13427104 0.2373882 -0.17057095 0.2472793
00000000: 5425 b73d d85a 1cbd 8dc6 73be 580a 7c3d
00000010: 8a36 dabe 606a 4abe 1b20 b23b ae0c e1be
00000020: 3419 cabb cc6c 02be ff97 c03d 582d eabd
00000030: ba77 d3be 677f f5be c07d 51be 6745 f2bd
00000040: 02ae a6be 43cc e03d ad10 2ebf 46ce 00be
00000050: bacb e03e af3e 00bf 0187 703d 4a8f a3be
00000060: 6129 c93e 554a 5d3e a4ca 983d cb61 ef3e
00000070: a6fb d5be 01a2 ff3e f472 51bc c891 73be
00000080: 6aa9 a9be ec4a 51be 1fd4 dbbc 686f e63c
00000090: 1511 8dbe a006 0a3e f6e3 ac3e 1c05 a0be
000000a0: 9f09 fabb ca42 5fbe e107 343e 04bc 023e
000000b0: 084f 02bf 5c07 f7bd 3987 ddbe 8002 2e3e
000000c0: 8050 1bbc 8361 2b3d fc05 27bf 5759 ba3e
000000d0: 1907 ee3d 8244 c8bd 0f86 273e c991 83bf
000000e0: 2d10 ab3e 254f 92bd 9d08 123f a340 a7be
000000f0: d693 83be 0e17 053e 499a 0abe a699 063e
00000100: 287b de3d c185 f53d b58e 993d dadc 8bbe
00000110: c84b 5fbe d5a8 c139 fdd8 2c3c 9fd7 5ebe
00000120: 1ebc 2dbe 0aa5 52bd 9cc2 0b3d 3869 253e
00000130: fc7c c23d fa9c 38be 9d67 0dbe 1568 1d3e
00000140: 7a1a 30be 7bdb f8bc 8e34 203d abc0 25be
00000150: 4b86 003e 5ace 0f3e 7562 00bd ef45 14bf
00000160: 009c 853e 2bb4 0b3e dd36 5a3f 1c46 143e
00000170: b50e 1cbf 1237 fe3d 5d2c 5d3e a0d9 c53c
00000180: d165 f13c da1c ce3e b541 db3c 0199 78be
00000190: 717f e6be 8a20 f63e 0307 5dbe 9d9f 333e
000001a0: 542b 333e 6c42 40bd 4731 933e d66b 173e
000001b0: 6906 8c3e 8e93 c2be 52e1 82bd b836 9c3c
000001c0: 9956 5c3e 6dfa 523d 6b33 a5bf dca4 84be
000001d0: d616 ea3e 0622 573d 036c b73d e1e0 d3be
000001e0: 05eb 3a3d e726 453e 43dd 133e 8a52 813e
000001f0: a135 703d 34f2 c3be 89df 673e e02d 5fbe
00000200: ce24 fd3d 6a94 3abe ac30 563d bf6a e83e
00000210: 4434 c73e 555e 253e 85e4 b8be 3ac2 e1be
00000220: 92af 9fbd 5126 98be c515 ccbd 93ba d23e
00000230: 0b22 03be 995a 2dbd b2fb f13e c7eb 1fbf
00000240: 2187 8fbd c23b 983e ec14 f03d 4f58 9dbe
00000250: 3b24 acbd 28ef 2cbf 830e dcbe 1d91 943e
00000260: 47dd 9cbe c2a1 47bf eddf 14bf a1fb 36be
00000270: 9bc9 a9bd bc12 94be b859 b3be 847b 143d
00000280: 0e1c c33d 03b5 933c 6ed1 61bd ab44 44bf
00000290: 1a35 62bf 00e6 7dbe fa9a 2b3e 4b76 6cbf
000002a0: 6f07 79bf e692 13be ab54 50be 6e90 923e
000002b0: 66ce f1bc 511c 8bbd 4096 143e 2bf8 ce3c
000002c0: 1ae8 033e aea4 82bb ee56 b43d 4453 c73e
000002d0: 79de 65bd 29b1 54bf d7be 07be 122d c7bd
000002e0: f46a 863c d8dd 07bf 8bbe 7d3e 9e99 bdbe
000002f0: a211 9d3e e231 cb3c fa11 e63d 5741 93bd
00000300: ce8d 143e f76a 99bc 831d 143e 890a 0c3f
00000310: a722 0c3f 6d33 1c3c af30 73be eeeb f9be
00000320: c05a 10be 0fcb ee3c 3505 84be c25f 2d3e
00000330: 4987 8e3e 29f0 983e b7de 573e be6b 8fbd
00000340: c128 9ebe 3524 b43e b85c 30be a3dd 1abf
00000350: 79a2 4a3e d0d6 2ebe 9205 77be 3c28 fc3d
00000360: 822b e3bd fc78 fdbe 08da be3c 3866 5fbf
00000370: 06c1 d1be 0ab3 d4bd 2c6e f3be a0d9 62be
00000380: ee54 d9be ea30 ed3d 9403 e93e b00d 853d
00000390: 23a3 edbc f2d2 b63e d118 a2be be62 fd3e
000003a0: cea1 9dbe 0fc3 31be ea84 9dbe 9ac7 85bf
000003b0: c1d9 65be 6609 27bf 215f 5bbe 4fe4 743e
000003c0: daa4 d63e 4357 ccbd 92f8 3a3e 8bb6 4a3d
000003d0: 7ea0 333f d4be e23e e106 b4be f49c 69bd
000003e0: 8a32 a23e af6b 5e3e fb76 823d d5ca 933e
000003f0: 597e 093e e415 733e 27aa 2ebe c936 7d3e

model.4.weight_sigma f4 [32, 32]
-0.042245034 0.007154503 -0.014886457 0.025420105 0.05382131 -0.025011463 0.09499008 -0.014003758
0.01100867 -0.066085555 -0.04466444 -0.016425865 0.063005924 0.04908935 0.0038790742 0.015512358
0.021818167 -0.031334594 0.04505324 -0.0016011215 0.0400064 -0.020468066 0.06335424 -0.08022
-0.02206222 -0.013813629 -0.018853819 -0.007619981 -0.04108436 0.010406539 -0.015222687 0.025332507
-0.041311007 0.0036501726 0.01190915 0.0016398275 0.018194173 -0.019335134 0.016206533 0.08026266
0.02732684 -0.007339767 0.041599035 -0.009715099 0.025968315 0.006196745 -0.017323164 -0.016951017
0.0005756764 -0.03744632 -0.045988146 0.0045358916 0.07877569 0.026262417 -0.023012584 0.033164334
0.024675973 0.022489086 -0.013637691 -0.069140024 0.019816386 0.0046569156 0.012534495 -0.011299784
-0.02764719 0.05589643 -0.040322408 -0.02791175 0.026333578 0.05953343 0.07302597 0.013489135
0.017682107 -0.09203928 -0.011368303 -0.0115946 -0.0018905044 0.02885715 -0.011957536 -0.033043433
-0.08713977 0.045796122 -0.061172772 0.023629012 -0.00034380963 0.09039745 0.023586147 0.0965017
0.07706412 -5.3170894e-05 -0.030724151 0.0068350355 -0.062472347 0.06986921 -0.029873885 -0.06585067
0.017012322 0.03468064 0.05737787 -0.07955263 0.04074376 0.060256727 0.02763035 0.012702919
0.014166402 0.032155313 0.04049758 0.0016591975 -0.04356497 0.07657574 -0.050641384 -0.029333618
0.0033085258 -0.05201592 0.024939816 -0.056432996 -0.06390889 0.04389422 -0.06705978 0.020353174
-0.014133514 -0.020092992 -0.011359897 -0.049625956 -0.008103302 -0.002031382 0.020731034 0.028536435
0.015082998 0.015091639 0.029047776 0.024620127 -0.02550694 -0.0046161115 -0.028185224 0.004213369
-0.00087744 -0.04455793 0.011174367 0.059119456 -0.01552013 0.03119557 -0.025204059 0.0046193954
0.017804192 -0.009558415 0.00082863274 0.0032359797 -0.040484477 -0.0012756106 0.013461429 0.006617098
-0.045473963 -0.016357057 -0.02391598 0.045668006 0.0071140346 0.018296171 -0.020878794 0.01927745
-0.007923408 -0.015473949 -0.002162796 0.002343652 0.0061715245 0.015728736 -0.0002949923 0.064290024
0.06769626 0.03240311 -0.031672835 0.029039485 0.042382598 -0.041558474 -0.034988686 -0.038100626
0.008886683 -0.034997184 0.0130988825 -0.016050525 0.008750421 0.015989935 0.05303015 -0.0020620977
-0.01219957 -0.05471456 0.027986119 0.008345652 0.024509842 0.015745837 0.0029973604 -0.006325698
-0.021417977 0.026164697 0.005735319 -0.041872043 -0.058112036 -0.012247988 -0.012743656 0.041524496
0.04570174 -0.0005141472 0.06901116 -0.03214938 -0.005810989 -0.0077623054 0.027583536 0.036545053
-0.01666712 0.0017719056 0.036117293 -0.025771115 -0.016218457 -0.05065454 0.012142064 0.0138639
0.025749553 0.0032680563 -0.096845016 -0.058774453 0.0061490834 -0.019066758 0.0023448786 -0.036613435
0.0033065735 0.05095115 -0.020360105 0.040234163 0.07500266 -0.012417251 -0.008231208 0.013718273
-0.001307786 -0.009782674 0.041949905 -0.043361556 -0.026974995 0.025328262 0.027856907 -0.021415537
-0.010197047 -0.017937856 0.026659485 -0.0018308416 -0.041678146 -0.01784261 0.048212335 -0.01682362
0.0041769976 0.04481409 0.010878242 0.021853274 0.0073328377 -0.002380687 0.01314917 -0.010628235
00000000: 2109 2dbd 5270 ea3b 53e6 73bc d33d d03c
00000010: bc73 5c3d d7e4 ccbc 298a c23d 0570 65bc
00000020: b55d 343c dd57 87bd 0ff2 36bd 898f 86bc
00000030: 4009 813d ea11 493d 1138 7e3b 8c27 7e3c
00000040: 03bc b23c b458 00bd bf89 383d b9dc d1ba
00000050: c0dd 233d a5ac a7bc debf 813d 624a a4bd
00000060: d4bb b4bc 8f52 62bc 5373 9abc 09b1 f9bb
00000070: 1348 28bd 3080 2a3c 9468 79bc 1e86 cf3c
00000080: bb35 29bd bc37 6f3b 981e 433c 7bef d63a
00000090: f20b 953c b764 9ebc 90c3 843c c060 a43d
000000a0: 8adc df3c 6e82 f0bb c063 2a3d 142c 1fbc
000000b0: 81bb d43c 110e cb3b 4fe9 8dbc dcdc 8abc
000000c0: fde8 163a 5061 19bd 115e 3cbd d1a1 943b
000000d0: 2655 a13d 4824 d73c e384 bcbc 53d7 073d
000000e0: 4425 ca3c 083b b83c 9f70 5fbc 4999 8dbd
000000f0: f955 a23c 0a99 983b 7c5d 4d3c bb22 39bc
00000100: 5c7c e2bc a8f3 643d 1c29 25bd 2fa7 e4bc
00000110: 84b9 d73c 53d9 733d a48e 953d 8801 5d3c
00000120: 11da 903c 177f bcbd 1e42 3abc 47f7 3dbc
00000130: cdca f7ba d465 ec3c 8be9 43bc 8d58 07bd
00000140: 5676 b2bd b794 3b3d 4d90 7abd a191 c13c
00000150: 5941 b4b9 4c22 b93d bc37 c13c afa2 c53d
00000160: cbd3 9d3d d003 5fb8 37b1 fbbc 6ff8 df3b
00000170: 01e3 7fbd 9717 8f3d 14ba f4bc b7dc 86bd
00000180: 6d5d 8b3c 490d 0e3d 0f05 6b3d 7dec a2bd
00000190: eee2 263d c2cf 763d 0b59 e23c e71f 503c
000001a0: 321a 683c 4ab5 033d cae0 253d 6e79 d93a
000001b0: 2f71 32bd bed3 9c3d 576d 4fbd 0e4d f0bc
000001c0: dad3 583b a50e 55bd 964e cc3c 4926 67bd
000001d0: aae2 82bd 6dca 333d a356 89bd b3bb a63c
000001e0: 4190 67bc 0f9a a4bc dd1e 3abc 9644 4bbd
000001f0: b6c3 04bc ef20 05bb 21d4 a93c 3ec5 e93c
00000200: ae1e 773c ec42 773c 9af5 ed3c 26b0 c93c
00000210: eef3 d0bc c042 97bb b3e4 e6bc 4d10 8a3b
00000220: 0004 66ba 6082 36bd b114 373c 3e27 723d
00000230: 2548 7ebc da8d ff3c be78 cebc 4c5e 973b
00000240: 19da 913c e69a 1cbc 9a38 593a bb12 543b
00000250: 0dd3 25bd 6432 a7ba 538d 5c3c 3ed4 d83b
00000260: e842 3abd 3cff 85bc 72eb c3bc 600e 3b3d
00000270: d91c e93b dae1 953c 010a abbc beeb 9d3c
00000280: 2fd1 01bc 7286 7dbc b2bd 0dbb f597 193b
00000290: 803a ca3b 8dd9 803c 32a9 9ab9 7daa 833d
000002a0: 56a4 8a3d 20b9 043d 60bb 01bd 37e4 ed3c
000002b0: 6099 2d3d 3839 2abd 4c50 0fbd 670f 1cbd
000002c0: 7399 113c 3559 0fbd b29c 563c 647c 83bc
000002d0: ed5d 0f3c 53fd 823c 2436 593d 4224 07bb
000002e0: b5e0 47bc 601c 60bd 2543 e53c 34bc 083c
000002f0: ddc8 c83c 6afd 803c 5d6f 443b cd47 cfbb
00000300: c174 afbc 5957 d63c 58ef bb3b 0582 2bbd
00000310: e306 6ebd c9ab 48bc c4ca 50bc 9715 2a3d
00000320: bf31 3b3d d6c7 06ba b955 8d3d 11af 03bd
00000330: 1c6a bebb f05a febb def6 e13c 44b0 153d
00000340: 7c89 88bc 493f e83a baef 133d f21d d3bc
00000350: 92dc 84bc 237b 4fbd 82ef 463c 6925 633c
00000360: baf0 d23c e32c 563b ae56 c6bd 7bbd 70bd
00000370: 407e c93b e431 9cbc 89ac 193b f8f7 15bd
00000380: 19b3 583b 27b2 503d 3cca a6bc 94cc 243d
00000390: ff9a 993d ba71 4bbc 30dc 06bc 9bc2 603c
000003a0: 046a abba 8247 20bc aad3 2b3d e39b 31bd
000003b0: aafa dcbc 377d cf3c 2b34 e43c a36f afbc
000003c0: 8411 27bc 69f2 92bc fe64 da3c daf8 efba
000003d0: b4b6 2abd aa2a 92bc 4c7a 453d b0d1 89bc
000003e0: 32df 883b fb8e 373d a73a 323c a305 b33c
000003f0: 4d48 f03b 4d05 1cbb 9e6f 573c 0c22 2ebc

model.4.bias_mu f4 [32]
-0.17903104 -0.47698006 -0.9546995 0.15576938 0.06000392 -0.23952216 -0.14102152 0.009112997
0.059020925 0.10949986 0.0532404 0.07026643 -0.07009301 -0.30794287 -0.46202815 -0.36121517
0.09921542 -0.018288737 -0.13169375 -0.23671658 -0.22433363 0.16661376 -0.3054307 -0.20478243
-0.28704417 -0.32087365 0.016773425 -0.24590966 -0.14244293 0.027945379 -0.24993625 -0.30642954
00000000: ea53 37be bb36 f4be 3067 74bf 0282 1f3e
00000010: acc6 753d 4c45 75be f267 10be ae4e 153c
00000020: edbf 713d 7641 e03d 9b12 5a3d d9e7 8f3d
00000030: ed8c 8fbd b0aa 9dbe f48e ecbe 32f1 b8be
00000040: 7431 cb3d 43d2 95bc bada 06be d565 72be
00000050: b7b7 65be cc9c 2a3e 6a61 9cbe 7cb2 51be
00000060: 74f7 92be 8d49 a4be 6c68 893c becf 7bbe
00000070: 8fdc 11be b5ed e43c 4aef 7fbe 55e4 9cbe

model.4.bias_sigma f4 [32]
0.005218027 0.02947585 -0.0010271237 0.0015132882 0.07220214 -0.012671645 -0.030555826 -0.03384744
0.014328187 0.0066636926 0.004768067 0.024553947 -0.004306667 0.058800153 -0.0067773615 0.043471683
-0.00040349903 0.030553931 0.018442115 -0.006177956 -0.06029953 -0.036660083 -0.03519545 -0.015369885
0.03227908 -0.009540227 0.00075201015 0.032214545 -0.04014393 0.005376685 0.017830757 -0.010107686
00000000: fcfb aa3b 5677 f13c 8da0 86ba 8759 c63a
00000010: b7de 933d bb9c 4fbc 3650 fabc 9da3 0abd
00000020: c6c0 6a3c 1b5b da3b 723d 9c3b 5c25 c93c
00000030: f11e 8dbb 6ed8 703d a114 debb 5d0f 323d
00000040: b98c d3b9 3d4c fa3c eb13 973c 7370 cabb
00000050: a4fc 76bd e228 16bd 1b29 10bd f8d1 7bbc
00000060: 1237 043d 9d4e 1cbc 8c22 453a 66f3 033d
00000070: f66d 24bd e72e b03b cf11 923c b59a 25bc

model.4.weight_epsilon f4 [32, 32]
0.2377173 0.24626505 -0.27396145 0.8454771 -1.1378682 -1.0246196 -0.3883703 1.1618165
-1.0239829 -0.4566239 -0.178464 -0.67849666 1.1331868 0.5718487 -0.7166301 -0.95405877
-0.41578087 0.58215004 1.2625239 -1.0694522 -0.84590423 -0.36030194 -1.159471 0.3710881
-0.5395968 0.90973854 0.25965038 0.99364793 -0.9158511 -0.8434155 -0.38343355 -0.12971441
0.39997843 0.4143607 -0.46096212 1.4225831 -1.9145545 -1.7240046 -0.6534642 1.9548495
-1.7229333 -0.7683063 -0.30027997 -1.141625 1.9066777 0.96218127 -1.2057877 -1.6052804
-0.69958466 0.9795142 2.1242979 -1.7994391 -1.4233017 -0.60623693 -1.9509029 0.6243855
-0.9079149 1.5307081 0.4368826 1.6718923 -1.540993 -1.4191142 -0.6451577 -0.21825492
-0.10550315 -0.10929679 0.12158895 -0.37523773 0.5050061 0.45474434 0.17236562 -0.5156348
0.45446172 0.20265777 0.07920548 0.30112883 -0.5029284 -0.25379658 0.31805313 0.42342818
0.18453093 -0.25836852 -0.5603305 0.47464183 0.3754273 0.15990838 0.5145938 -0.16469547
0.23948261 -0.40375808 -0.11523744 -0.44099855 0.40647095 0.37432274 0.1701746 0.05756956
-0.29449877 -0.30508825 0.33940026 -1.0474288 1.4096608 1.2693616 0.48113695 -1.4393296
1.2685727 0.5656937 0.22109213 0.8405633 -1.4038613 -0.7084412 0.88780534 1.1819465
0.5150949 -0.7212032 -1.564092 1.324903 1.047958 0.44636413 1.4364238 -0.4597267
0.6684856 -1.1270399 -0.3216708 -1.230992 1.1346126 1.0448748 0.475021 0.16069818
0.20064375 0.20785843 -0.2312354 0.7136195 -0.9604103 -0.8648235 -0.32780144 0.9806237
-0.86428607 -0.38541046 -0.15063138 -0.5726807 0.956459 0.48266518 -0.604867 -0.80526716
-0.35093716 0.49136 1.0656252 -0.9026642 -0.71398 -0.30411053 -0.978644 0.3132145
-0.45544317 0.7678589 0.21915622 0.8386821 -0.77301824 -0.7118794 -0.3236346 -0.10948462
-0.3578739 -0.37074217 0.412438 -1.2728319 1.713015 1.5425237 0.5846759 -1.7490683
1.5415652 0.687429 0.2686704 1.0214496 -1.7059674 -0.8608953 1.0788579 1.4362973
0.62594146 -0.8764036 -1.9006792 1.6100174 1.2734749 0.54242015 1.7455372 -0.55865824
0.81234133 -1.3695749 -0.39089325 -1.4958972 1.3787771 1.2697282 0.57724386 0.19527987
0.102485545 0.106170684 -0.11811126 0.36450517 -0.49056187 -0.44173774 -0.16743562 0.50088656
-0.4414632 -0.19686136 -0.076940045 -0.29251596 0.48854363 0.24653749 -0.30895618 -0.4113173
-0.17925297 0.25097865 0.5443039 -0.46106613 -0.36468932 -0.15533468 -0.49987537 0.15998484
-0.23263294 0.3922098 0.11194142 0.4283851 -0.39484507 -0.36361635 -0.16530727 -0.05592295
0.09020073 0.09344413 -0.103953406 0.32081237 -0.4317588 -0.38878715 -0.1473653 0.4408459
-0.38854554 -0.17326382 -0.067717336 -0.2574524 0.42998248 0.21698533 -0.27192196 -0.3620132
-0.15776613 0.22089414 0.47905886 -0.40579867 -0.32097444 -0.1367149 -0.4399559 0.14080766
-0.2047475 0.34519607 0.09852313 0.37703508 -0.34751546 -0.3200301 -0.14549208 -0.049219534
00000000: 2a6c 733e e82c 7c3e ad44 8cbe 3071 583f
00000010: aaa5 91bf bc26 83bf 79d8 c6be 67b6 943f
00000020: df11 83bf 9cca e9be 44bf 36be f5b1 2dbf
00000030: 440c 913f ad64 123f 1275 37bf 323d 74bf
00000040: 3be1 d4be c907 153f 629a a13f cfe3 88bf
00000050: 2e8d 58bf 7f79 b8be 8c69 94bf 42ff bd3e
00000060: 0423 0abf a0e4 683f e5f0 843e b65f 7e3f
00000070: 3875 6abf 14ea 57bf 6751 c4be dbd3 04be
00000080: f9c9 cc3e 1627 d43e 3a03 ecbe 3417 b63f
00000090: 1f10 f5bf 2fac dcbf 6e49 27bf 8238 fa3f
000000a0: 1489 dcbf b9af 44bf 4cbe 99be c520 92bf
000000b0: 040e f43f 8351 763f 4057 9abf d479 cdbf
000000c0: fb17 33bf 71c1 7a3f 7ff4 0740 0554 e6bf
000000d0: c02e b6bf 5832 1bbf 30b7 f9bf bad7 1f3f
000000e0: 1c6d 68bf 3eee c33f 13af df3e 9100 d63f
000000f0: 423f c5bf 89a5 b5bf 0e29 25bf 387e 5fbe
00000100: 0912 d8bd ffd6 dfbd a103 f93d 291f c0be
00000110: 1448 013f 40d4 e83e 9d80 303e a400 04bf
00000120: 35af e83e 8585 4f3e 7c36 a23d 8f2d 9a3e
00000130: eabf 00bf a0f1 81be dcd7 a23e 94cb d83e
00000140: adf5 3c3e e148 84be d271 0fbf 4104 f33e
00000150: 0238 c03e 06bf 233e 6bbc 033f eea5 28be
00000160: ee3a 753e 61b9 cebe 9b01 ecbd 90ca e1be
00000170: f61c d03e 3ba7 bf3e 4042 2e3e 0fce 6b3d
00000180: 8bc8 96be 8734 9cbe dfc5 ad3e 2612 86bf
00000190: c46f b43f 717a a23f 9557 f63e f43b b8bf
000001a0: 9760 a23f 4dd1 103f fa65 623e 282f 573f
000001b0: bab1 b3bf 675c 35bf 3647 633f 064a 973f
000001c0: 42dd 033f c6a0 38bf 2b34 c8bf 6c96 a93f
000001d0: 7d23 863f d789 e43e bcdc b73f 4c61 ebbe
000001e0: df21 2b3f d842 90bf 09b2 a4be 2591 9dbf
000001f0: fc3a 913f 75be 853f f435 f33e 108e 243e
00000200: 8e75 4d3e d7d8 543e f9c8 6cbe c4af 363f
00000210: 73dd 75bf 1365 5dbf 97d5 a7be 280a 7b3f
00000220: da41 5dbf 8554 c5be 1d3f 1abe 349b 12bf
00000230: 7fda 743f e41f f73e 90d8 1abf fd25 4ebf
00000240: 09ae b3be 8a93 fb3e 6866 883f 0015 67bf
00000250: 65c7 36bf 60b4 9bbe 6a88 7abf a75d a03e
00000260: d92f e9be 6792 443f 7d6a 603e dfb3 563f
00000270: 86e4 45bf ba3d 36bf 6fb3 a5be 7939 e0bd
00000280: 3f3b b7be ebd1 bdbe 132b d33e 28ec a2bf
00000290: 1344 db3f 6b71 c53f 52ad 153f 78e1 dfbf
000002a0: 0252 c53f 59fb 2f3f 2b8f 893e dcbe 823f
000002b0: 245d dabf a263 5cbf 0418 8a3f 97d8 b73f
000002c0: b33d 203f fd5b 60bf 7549 f3bf 0d15 ce3f
000002d0: 3a01 a33f 0cdc 0a3f c36d df3f 3a04 0fbf
000002e0: 9af5 4f3f 3b4e afbf 2923 c8be 8f79 bfbf
000002f0: c57b b03f 7486 a23f 41c6 133f 72f7 473e
00000300: f1e3 d13d 0470 d93d 51e4 f1bd 6ca0 ba3e
00000310: ed2a fbbe 732b e2be 3e74 2bbe 1a3a 003f
00000320: 7707 e2be 0696 49be be92 9dbd a7c4 95be
00000330: 6422 fa3e 5374 7c3e 812f 9ebe 2e98 d2be
00000340: 178e 37be 4680 803e 8057 0b3f dc10 ecbe
00000350: 8fb8 babe 0e10 1fbe aaef ffbe 11d3 233e
00000360: 5437 6ebe b9cf c83e 8b41 e53d 4b55 db3e
00000370: 2229 cabe ec2b babe 4f46 29be 770f 65bd
00000380: 29bb b83d a35f bf3d 86e5 d4bd 8541 a43e
00000390: 7d0f ddbe 1c0f c7be eee6 16be 8eb6 e13e
000003a0: 71ef c6be 126c 31be 63af 8abd cdd0 83be
000003b0: aa26 dc3e 6731 5e3e 5b39 8bbe cb59 b9be
000003c0: 728d 21be 1332 623e 3447 f53e d8c4 cfbe
000003d0: c356 a4be fefe 0bbe e641 e1be e22f 103e
000003e0: 54a9 51be 8abd b03e 7fc6 c93d be0a c13e
000003f0: 8ced b1be fcda a3be e0fb 14be 6c9a 49bd

model.4.bias_epsilon f4 [32]
-0.6377678 0.7265807 0.7464091 -0.4447428 -1.1863675 -0.23226397 -0.5511771 -1.4890946
0.7684415 -0.9527116 0.44584885 -0.76258236 -1.191195 -0.75487506 1.5904294 -1.1780617
-0.57312477 1.246558 -0.21712826 -1.3512403 0.9360386 -1.4748467 0.34261155 -0.3990583
0.75865483 1.0993675 -0.7698509 -0.8534338 -1.1676605 1.6722459 -0.1506725 0.8665947
00000000: c044 23bf 3101 3a3f ab14 3f3f 54b5 e3be
00000010: e4da 97bf 9bd6 6dbe f119 0dbf a79a bebf
00000020: 95b8 443f e8e4 73bf 4d46 e43e 9938 43bf
00000030: 1479 98bf 7e3f 41bf 3193 cb3f baca 96bf
00000040: 4eb8 12bf 368f 9f3f df56 5ebe 71f5 acbf
00000050: 3aa0 6f3f c7c7 bcbf c86a af3e 5f51 ccbe
00000060: 3437 423f 13b8 8c3f f314 45bf a37a 5abf
00000070: e675 95bf 270c d63f e449 1abe 26d9 5d3f

model.6.weight f4 [32]
1.6233314 1.036582 0.90868336 1.0644004 1.2610203 1.5094237 1.909236 1.0870186
0.788557 1.468174 1.3313955 1.5458543 1.4125415 1.0854506 1.3381029 1.781082
0.9182944 0.6734048 0.9554747 0.8795827 0.8771879 1.1121981 1.5100403 0.9065243
1.7131165 0.8542331 1.5654007 1.0636971 0.74695504 1.2879515 -0.7982321 1.1353743
00000000: 53c9 cf3f b8ae 843f 799f 683f 463e 883f
00000010: 1d69 a13f cc34 c13f d861 f43f 6d23 8b3f
00000020: dfde 493f 20ed bb3f 2b6b aa3f 8ede c53f
00000030: 29ce b43f 0cf0 8a3f f546 ab3f 7ffa e33f
00000040: 5815 6b3f 4264 2c3f fd99 743f 552c 613f
00000050: 638f 603f 825c 8e3f 0049 c13f fa11 683f
00000060: 6747 db3f 05af 5a3f 0d5f c83f 3a27 883f
00000070: 7238 3f3f 98db a43f f058 4cbf f253 913f

model.6.bias f4 [32]
0.24015518 0.16630663 0.010627495 0.14133574 -0.24227646 0.24132842 -0.31870994 -0.06968889
-0.2635917 0.15324777 0.20811664 0.42767245 -0.09652826 0.147259 0.14214665 -0.16756792
-0.07929996 0.006627309 0.043929733 0.13702418 0.002122542 0.08371942 0.52799404 -0.011433854
-0.11302646 0.025033282 0.24400681 -0.07950512 -0.16017328 -0.16335219 -0.12088553 -0.07898854
00000000: 3deb 753e 494c 2a3e f21e 2e3c 51ba 103e
00000010: 5217 78be cc1e 773e f32d a3be 0cb9 8ebd
00000020: 7ef5 86be fcec 1c3e 871c 553e e2f7 da3e
00000030: 9cb0 c5bd 10cb 163e e48e 113e ed96 2bbe
00000040: 0468 a2bd e629 d93b aaef 333d 1150 0c3e
00000050: 581a 0b3b 1675 ab3d 9e2a 073f 0f55 3bbc
00000060: 6b7a e7bd 9912 cd3c ecdc 793e 95d3 a2bd
00000070: 7704 24be cc45 27be d592 f7bd bec4 a1bd

model.6.running_mean f4 [32]
0.052133076 0.056806773 7.468593e-07 0.5902623 0.6216291 0.23074916 0.10346352 0.49258947
0.49566442 0.27539885 0.32584038 0.19334304 0.15595026 0.08183047 0.022891447 0.01259496
0.16136369 0.389363 0.25569123 0.12658456 0.6855499 0.19799477 0.011168797 0.65401727
0.065408625 0.052818365 0.26388398 0.15951356 0.3249942 0.9428562 0.13978782 0.24537244
00000000: 7e89 553d 38ae 683d c87b 4835 6e1b 173f
00000010: 1623 1f3f 8249 6c3e afe4 d33d b034 fc3e
00000020: bac7 fd3e 1401 8d3e 8dd4 a63e b8fb 453e
00000030: 6db1 1f3e bc96 a73d d886 bb3c 175b 4e3c
00000040: 863c 253e 965a c73e f6e9 823e 629f 013e
00000050: 3380 2f3f 24bf 4a3e 54fd 363c ad6d 273f
00000060: f5f4 853d 1258 583d cd1b 873e 8657 233e
00000070: a465 a63e 065f 713f 8a24 0f3e ea42 7b3e

model.6.running_var f4 [32]
0.05033986 0.046943605 3.742826e-08 0.82996917 0.53843564 0.24515903 0.06885939 0.47205058
0.44919848 0.27640763 0.3555528 0.15353526 0.09738396 0.06401911 0.01593525 0.005628547
0.086623974 0.2912385 0.23525736 0.090906814 0.7228548 0.1537993 0.00772119 0.6982445
0.07140479 0.033872787 0.27462098 0.19776313 0.35779262 0.8282745 0.12825055 0.17225905
00000000: 2b31 4e3d f047 403d cfc0 2033 dc78 543f
00000010: ebd6 093f f80a 7b3e 2706 8d3d 9db0 f13e
00000020: 58fd e53e 4d85 8d3e 040b b63e 5938 1d3e
00000030: 3e71 c73d 731c 833d a48a 823c ad6f b83b
00000040: e967 b13d 361d 953e 4ee7 703e 5a2d ba3d
00000050: 030d 393f 907d 1d3e 0902 fd3b 27c0 323f
00000060: ad3c 923d 31be 0a3d 1f9b 8c3e 6b82 4a3e
00000070: 9830 b73e cc09 543f 1d54 033e ad64 303e
