Tennis/last_actor_1.pth (torch_old, 28393 bytes, 30 tensors)

model.0.weight f4 [24]
000000 2e fd 93 3e 3d 50 ee 3e fe 2c a9 3c 24 b9 20 3e
       0.28904098 0.46545592 0.020651337 0.15695626
000010 a2 f4 7c 3f 03 e2 33 3f a7 63 3a 3e af 62 33 3f
       0.9881078 0.7026674 0.18202077 0.70072454
000020 7b d4 fb 3e 6f a6 8d 3e db f2 c1 3e 4b c0 7d 3e
       0.49185547 0.2766604 0.37880597 0.24780385
000030 69 6d 1b 3e a8 27 10 3e f6 77 17 3e 20 5a bd 3e
       0.15178455 0.14077628 0.14791855 0.36982822
000040 00 6c 49 3f 67 0e a3 3e 0a df 97 3c 6d 84 d4 3d
       0.7868042 0.31846926 0.01853897 0.10376821
000050 00 e6 a8 3f 00 92 9d 3f 8e 71 ac 3e 27 65 16 3f
       1.319519 1.2310181 0.33680385 0.58748096

model.0.bias f4 [24]
000000 84 31 a3 bb a9 de cc bd 91 0e 33 3d ab d1 e3 be
       -0.004980268 -0.100034066 0.043715063 -0.444959
000010 07 c3 5e 3e 4d 33 b0 3e b6 0d 09 3e a7 9f be be
       0.21754085 0.3441414 0.13384137 -0.3723118
000020 72 06 f3 3d 39 f3 15 bd ac 64 4e 3e 9c 6b 25 bd
       0.11866464 -0.03660891 0.20155591 -0.040385827
000030 22 d5 0b 3c f7 64 24 3e 4f ed 9e 3e a1 39 6e be
       0.008534702 0.1605414 0.31040427 -0.23264171
000040 ae b1 96 3d be 79 89 bc d4 ae 46 bd 13 de 3b 3d
       0.073581085 -0.016781684 -0.048506573 0.045866083
000050 8f 47 8d 3e 92 1a 80 be a1 7f 17 be 1f d0 d5 3b
       0.27593657 -0.25020272 -0.1479478 0.006525054

model.0.running_mean f4 [24]
000000 d6 e2 f5 c0 8f e5 99 be 62 96 d0 3f df ce 3f 3e
       -7.68394 -0.30057952 1.6295893 0.18731259
000010 09 74 7c 3d 54 10 75 40 62 96 d0 3f df ce 3f 3e
       0.061634097 3.8291216 1.6295893 0.18731259
000020 ce 5f fa c0 5a 18 98 be e9 ca f2 3f b0 a9 56 3e
       -7.824195 -0.2970608 1.8968173 0.20963168
000030 4c 50 ae 3d 78 78 75 40 e9 ca f2 3f b0 a9 56 3e
       0.08511409 3.8354778 1.8968173 0.20963168
000040 9e 3d 00 c1 02 fd 96 be 2e 40 c0 3f 82 70 38 3e
       -8.015043 -0.29489905 1.5019586 0.18011668
000050 d2 da 5f 3d 0c ba 75 40 2e 40 c0 3f 82 70 38 3e
       0.054652043 3.8394804 1.5019586 0.18011668

model.0.running_var f4 [24]
000000 87 d0 3b 41 a6 71 63 3f 60 03 05 44 a3 88 7d 41
       11.73841 0.8884529 532.05273 15.845859
000010 27 c2 ff 41 e3 6c 3a 40 60 03 05 44 a3 88 7d 41
       31.9698 2.912896 532.05273 15.845859
000020 36 d2 2d 41 c8 cc 67 3f a1 26 07 44 0c 39 81 41
       10.863821 0.90546846 540.6036 16.152855
000030 58 bd 05 42 a1 08 3b 40 a1 26 07 44 0c 39 81 41
       33.434906 2.9224017 540.6036 16.152855
000040 2c a7 18 41 fa a7 6d 3f be ea 09 44 42 70 80 41
       9.540813 0.92834437 551.66785 16.054813
000050 d3 99 0d 42 fe 61 46 40 be ea 09 44 42 70 80 41
       35.40022 3.099731 551.66785 16.054813

model.1.weight_mu f4 [32, 24]
000000 f8 db 52 bc a5 db ab 3e 92 00 43 3d 08 40 1c be
       -0.012869827 0.33566013 0.047607966 -0.15258801
000010 61 16 ae 3e 3d cd 1a be a3 f7 1d be 69 fd 2f 3e
       0.3400145 -0.15117355 -0.15426497 0.17186512
000020 a9 6b d4 bd 87 45 e2 3d 62 48 28 be 36 0f f1 be
       -0.10372097 0.110484175 -0.16433862 -0.47081918
000030 d3 bc 14 3f 8d 83 62 3e f4 ee 60 3d 93 01 80 bd
       0.5810062 0.22120495 0.054915383 -0.062503
000040 c9 9b 1d 3c f4 d7 3b be 08 fb 76 be d9 9b 15 bf
       0.009619662 -0.18344098 -0.24119198 -0.5844093
000050 c7 26 4a 3e 84 5d 45 3f d9 e1 83 3c ab 78 6c be
       0.19741355 0.7709582 0.016098903 -0.23092906
000060 fa e8 6d 3e b7 12 23 3f 03 28 d5 3e 3f 98 e8 3e
       0.23233405 0.6370043 0.4163209 0.45428655
000070 fd 59 b7 3d 39 5d 8c bd 3d 54 d5 3e c1 dd d6 3c
       0.08952711 -0.06853718 0.4166583 0.026228787
000080 16 04 17 3e 0f e1 d8 3e 78 97 14 bf 81 33 79 be
       0.14747652 0.42359206 -0.5804362 -0.24336053
000090 b5 2e 0a 3e a7 d4 41 be 6e b5 04 bf 87 b8 05 3c
       0.1349438 -0.18928777 -0.5183934 0.0081616705
0000a0 49 96 73 3e c1 5a f3 3e 6c 40 ae 3d 6b 78 6a be
       0.23787798 0.47530177 0.08508381 -0.22897498
0000b0 1f dc 61 be 30 e5 9a 3e 08 00 95 bc bc 69 8d be
       -0.22056626 0.3025298 -0.018188491 -0.2761973
0000c0 be f5 9c 3e c4 56 38 3f 29 aa a0 be f0 9a 4e b8
       0.30656236 0.72007394 -0.31379822 -4.9258524e-05
0000d0 de 31 fb 3d 75 7f c9 3e b7 ab 2c bf 27 b4 a7 bd
       0.12265371 0.39355054 -0.67449516 -0.08188658
0000e0 92 e5 3e 3d 06 ff 6e 3f 5b 86 37 be 0c 16 b4 3d
       0.046605654 0.93357885 -0.17922346 0.087932676
0000f0 01 2d 8b 3d 20 75 89 be 94 d9 82 be dc 04 a3 3d
       0.06795693 -0.26847172 -0.25556624 0.07959911
000100 53 5e 1d be 90 83 82 3e 91 58 08 3e 13 32 9b bc
       -0.15368013 0.25491 0.13315035 -0.018944776
000110 58 bb f1 3e b1 21 13 3d e5 57 2b be 34 83 72 be
       0.47213244 0.035920803 -0.16732748 -0.23682863
000120 30 6f a1 3e 81 1a 9b be 6c 19 91 be 7e 74 03 3e
       0.31530142 -0.30293658 -0.28339708 0.12837407
000130 d4 0a 8e bd 06 f8 27 3e 50 13 93 be 9a 0b c5 bc
       -0.06935659 0.16403207 -0.28725672 -0.024053384
000140 37 83 9f bd 80 46 fa be 02 6d 32 be fc 95 ba be
       -0.07788699 -0.48881912 -0.17424396 -0.36442554
000150 eb f3 4f be 6a 9f 81 3e 77 72 3e be ea 6d 06 bb
       -0.20307891 0.25316936 -0.18598352 -0.0020512291
000160 6d e2 dd 3c 3b 9e 3d be fd 2c c8 bd b4 5d 80 bd
       0.027085507 -0.18517391 -0.09774206 -0.062678725
000170 3b 31 3a bf 81 4d e2 3e 9d 1a 17 be 0e 1f 8f 3e
       -0.7273137 0.44199756 -0.14756246 0.2795338
000180 5f 7c 78 bd ae 10 30 be f0 13 c1 bc ef 71 1e bc
       -0.060665485 -0.17193863 -0.023569077 -0.009670719
000190 2b 89 35 bf 50 f2 09 bf b1 05 3d bd 94 59 eb be
       -0.70912427 -0.53885365 -0.046148006 -0.4596678
0001a0 a9 f9 11 bd a6 05 f2 be 9c b5 93 be 8e 9b 86 be
       -0.035638485 -0.47269934 -0.28849494 -0.26290554
0001b0 82 75 20 3d 68 37 e1 be c7 7b 0d be 3e 4c 5e be
       0.039174564 -0.43987584 -0.13816749 -0.21708772
0001c0 6b 8d 7f bc fa d8 dd be b8 41 fc 3c c7 d7 2a 3d
       -0.0155976815 -0.43329602 0.030793056 0.041709688
0001d0 e6 97 b4 3d 8a 29 ba bd a6 cc 61 3e 66 c1 db bd
       0.08818035 -0.09089954 0.22050723 -0.10730247
0001e0 f9 44 03 bf 19 c6 a3 be 3b 8b 64 3e 68 ab ee 3d
       -0.5127712 -0.31987074 0.22318737 0.11653787
0001f0 b5 1c a9 be c3 c4 16 3f ab 76 fe bc 46 c5 a5 bd
       -0.33029714 0.58893985 -0.031062445 -0.080942675
000200 43 0f 91 be dd db ed bc d3 a3 53 be 05 0d bb bd
       -0.28331956 -0.029035503 -0.20667963 -0.09133343
000210 f7 c2 b7 3e 35 1f 80 3d 20 ab 9b be 39 63 59 bd
       0.35890934 0.06255952 -0.30403996 -0.05307314
000220 14 bd ee bd 94 a6 aa be c0 4e 0f 3d 77 b6 d3 bd
       -0.116571575 -0.33330214 0.03498721 -0.10337537
000230 a2 5c 22 3f 8f e6 cb be 05 31 7c 3e d4 09 f4 3d
       0.63422596 -0.3982434 0.24628074 0.11915937
000240 1d 74 83 be 74 55 80 be 04 12 09 3e af 5b 7a 3e
       -0.25674525 -0.25065196 0.13385779 0.24449037
000250 ac c1 b2 3e 83 bf 99 be f6 81 4b bd 7e 6c 0c 3f
       0.34913385 -0.30028924 -0.049684487 0.54853046
000260 e1 df ab be c4 c1 0e be f4 d0 f5 3d fd cd a1 3e
       -0.33569244 -0.13941103 0.12002745 0.3160247
000270 bd 1a 1a 3f 80 e2 1d be 49 de 42 3d 9c 94 0c 3f
       0.6019705 -0.15418434 0.04757527 0.5491426
000280 9f c8 31 3e af 18 b8 3d 01 a5 2c 3f c1 d4 b0 3d
       0.17361687 0.08989083 0.67439276 0.086343296
000290 b1 98 0b be 89 fe 4b 3e 93 ab 7c 3f eb 50 8f 3e
       -0.13632466 0.19921316 0.986993 0.27991423
0002a0 82 38 1f 3d a2 af 96 bc b8 e1 88 be 8c bd 61 3d
       0.03887225 -0.018394295 -0.2673471 0.055112407
0002b0 3b f6 44 bf 2f e7 0f be aa 95 98 be 41 ff a7 3d
       -0.7693822 -0.14053033 -0.29801685 0.08202983
0002c0 32 ef 03 3e 4c 65 53 bd 7a 98 5a be 88 92 0f bf
       0.12884215 -0.051610276 -0.21347228 -0.56082964
0002d0 b0 41 07 bf 48 c3 86 3d 46 8f 47 be 99 5e 07 be
       -0.52834606 0.06580216 -0.19488248 -0.1321968
0002e0 5d 31 90 be 03 8d 3f be 25 cd 77 be 32 72 8f be
       -0.2816266 -0.18706135 -0.2419935 -0.28016812
0002f0 e7 f6 9f 3e 82 c9 03 3f 9a b6 e0 be e0 54 88 be
       0.3124306 0.5147935 -0.43889314 -0.26627254
000300 15 64 87 bd ad fe 06 bd 91 f0 fb 3e ad 4d 0f bc
       -0.06610886 -0.03295772 0.49206975 -0.008746547
000310 25 19 93 3e 4a 16 ae 3e 4e e5 bd 3e 61 a0 1c 3e
       0.2873012 0.3400138 0.37089008 0.15295555
000320 61 46 80 be 8c 90 49 3e 4b be 0e bf e4 41 56 bd
       -0.25053695 0.19684047 -0.55759114 -0.052308932
000330 2f c7 11 3f 64 fc 09 bd 29 1e a5 be c5 47 8e 3e
       0.56944555 -0.033687964 -0.32249573 0.2778913
000340 77 ff 11 bd 05 36 93 3e 5f c7 42 bc cc 65 86 be
       -0.03564402 0.2875215 -0.011888354 -0.2624954
000350 39 1f d4 3e 89 bc dd be cb 0b da 3a df 2e 3d bd
       0.4143007 -0.43307903 0.0016635595 -0.046187278
000360 9d 87 80 bc 0c c1 17 3e 4c 90 24 be d3 10 18 3e
       -0.015689665 0.14819735 -0.1607067 0.14850168
000370 80 49 40 3e bc d8 57 bf b7 0e 74 bd 0c 8d 4b be
       0.18778038 -0.84315085 -0.059584346 -0.19878024
000380 2d d2 7f be c2 4a 15 3e 6c 21 a2 be ac c8 02 3e
       -0.2498252 0.14579299 -0.31666124 0.12771863
000390 75 54 06 3f fe 2c e3 be 7c 5a c6 be d0 46 61 3d
       0.5247262 -0.44370264 -0.3874091 0.054999173
0003a0 83 cf 8d be af 75 b4 3e eb 2e 6d bc 27 59 76 3d
       -0.2769738 0.35246035 -0.014476518 0.060143616
0003b0 82 6b 8a 3e 8c 43 4f be 48 0c c7 3d bc cd b5 3e
       0.27035147 -0.20240611 0.09719139 0.35508525
0003c0 c5 11 02 3e 54 27 8a be 0f df 5f be ee 60 0f 3c
       0.12702091 -0.2698313 -0.21862434 0.008751137
0003d0 89 40 b9 3e e9 8c 02 3d f8 1e 86 be ad 66 a8 be
       0.3618205 0.031872664 -0.26195502 -0.32890835
0003e0 b1 03 07 be 85 15 40 be d6 25 3b be 81 d5 b0 3c
       -0.13185002 -0.18758209 -0.18276152 0.021586182
0003f0 f9 9b 63 3f 85 7d 12 3e bc cd 54 be 60 8f 50 3e
       0.8890987 0.14305694 -0.20781606 0.20367193

model.1.weight_sigma f4 [32, 24]
000000 fa 7b 67 3d 13 38 b2 bc 57 39 27 bd 7e 6b 9a bc
       0.056514718 -0.021755254 -0.040826168 -0.018850084
000010 8c 32 76 bc 42 08 85 3c aa 7c e2 3c 7f 05 53 3b
       -0.0150267 0.01623929 0.027647335 0.003219932
000020 43 a5 b6 3c 67 e5 ff 3b 6b f8 71 3c 43 8f e7 bc
       0.0222956 0.0078093293 0.0147687 -0.028266555
000030 d3 ef 43 bc d8 9e f6 bb 04 b2 e5 bc 40 c8 22 3d
       -0.011959034 -0.00752626 -0.028038986 0.039741755
000040 d9 1b a7 3c 78 84 86 bc a8 fa f7 3d 0d 4a c3 3c
       0.020399021 -0.016420588 0.12108356 0.023839021
000050 7c a2 b8 3b f1 90 9e 3c 4f f3 24 3b 24 00 a4 3c
       0.005634604 0.019356223 0.0025169437 0.020019598
000060 84 e6 12 3c cf ad 35 3d 6b e3 00 be ec f1 fd 3a
       0.008966092 0.04435521 -0.12586753 0.0019374467
000070 5f b8 0d 3d 7f 58 80 bc d6 33 a4 3c d7 e6 60 3c
       0.034599658 -0.015667198 0.020044249 0.0137269115
000080 f4 fa a2 3d 67 c4 c0 bc 6f 60 a7 bc 6d ba 99 3c
       0.07958022 -0.023531152 -0.020431725 0.018765653
000090 b0 3d 22 3e 3b 88 69 3b 22 c6 35 bd 14 f2 bd bc
       0.15843844 0.0035634178 -0.044378407 -0.02318672
0000a0 44 b7 b6 3d 1a 2d 9d bd c8 a4 f9 bd 19 3b ad 3c
       0.08921674 -0.07674618 -0.12189633 0.021146344
0000b0 4d 5f 08 bd f1 3d b2 bb 51 87 9b 3c 7f fd 43 bd
       -0.03329401 -0.005439513 0.018985422 -0.047849175
0000c0 2b b1 14 bd 0a e2 96 3a 5a 22 a0 bd 4a ec 40 3d
       -0.036301773 0.0011511457 -0.07819052 0.047100343
0000d0 10 94 cc bc 92 c9 5f 3b 37 a0 29 3c b8 bb 98 39
       -0.024972945 0.0034147245 0.01035314 0.0002913156
0000e0 b9 33 e7 bc 9c 91 84 3c dc ad 8d 3d 43 c8 78 3d
       -0.028222905 0.016182713 0.06917927 0.06073786
0000f0 15 25 28 bd ff f8 0e 3d 1c df 8b 3d 38 d9 8c 3d
       -0.04105099 0.03490543 0.06829664 0.06877369
000100 25 39 a2 3b b1 23 05 bc 21 1a f3 bd 0f 62 66 bd
       0.00495066 -0.008126185 -0.11870218 -0.05624586
000110 20 bd ea 3c 60 5f 3f bc a7 e2 3e bd 29 45 16 3c
       0.028654635 -0.011680454 -0.04660287 0.0091717625
000120 4d 57 9a bc 50 ae 46 3d 10 b9 bf bc 71 e4 ea bc
       -0.018840456 0.04850608 -0.023403674 -0.028673382
000130 c0 00 4d 3d 08 68 43 3d c2 a4 07 bd 18 df 41 bd
       0.050049543 0.047706634 -0.03311611 -0.0473319
000140 7a c0 fb bc d1 1c 60 bd a9 33 13 3c 70 ff 07 bb
       -0.030731428 -0.05471498 0.008984485 -0.0020751618
000150 fb f4 c2 bc db 57 ba 3d d6 f7 0d bd 84 56 76 bc
       -0.023798456 0.09098788 -0.034660183 -0.015035275
000160 62 86 c3 3a fd c3 d7 3b 79 54 df bd 0e 81 7e 3d
       0.0014917369 0.006584643 -0.10904784 0.062134795
000170 bf 7e eb bc d9 e8 2d bd 8e 1c e0 3c 1e 01 53 3d
       -0.02874696 -0.04245839 0.027357366 0.051514737
000180 c8 69 a1 bd 24 58 9c 3d 0e 2f ca bc 94 eb 97 bd
       -0.07881504 0.07633999 -0.02468064 -0.0741798
000190 72 0d d4 bc 05 0c 2e 3d 56 df 95 bb 25 6b c8 bd
       -0.025885317 0.04249193 -0.004573743 -0.09786061
0001a0 60 86 88 3d 1d bc 31 bc 28 bf bc 3c 43 78 1c be
       0.06666255 -0.010848072 0.02304037 -0.15280251
0001b0 6d 42 b4 bd 2c 9c 85 3d 74 34 29 3d 8b 29 dd bb
       -0.08801732 0.06523928 0.04130979 -0.006749337
0001c0 a0 e0 a1 3d 4f 07 15 bd 29 d9 b1 bd 94 44 14 bd
       0.07904172 -0.036383923 -0.08683998 -0.036198214
0001d0 e8 11 13 bc 1d 35 96 bc 1b 44 80 3d 07 10 ad 3a
       -0.008976437 -0.018335873 0.0626299 0.0013203629
0001e0 b2 16 09 bd c0 0e 8e 3c 01 67 56 bc b0 48 9c bc
       -0.03346891 0.017341018 -0.0130860815 -0.019077629
0001f0 c7 a4 d7 3c f6 84 7e bc 3f 20 8d bb b3 cb 08 bd
       0.02632369 -0.01553463 -0.0043068225 -0.033397388
000200 ba 8b 33 3c 7f 9d ad 3d 1a 66 2d bc 7e 81 bb 3c
       0.010958606 0.084773056 -0.010583425 0.022888895
000210 a0 a7 f3 3b 0f 0e 22 bd bf 78 07 bd 9e e7 0b bc
       0.007435754 -0.03956419 -0.033074137 -0.008539109
000220 8f 8b 99 bc 2c 91 96 bd 9c a2 61 3d c4 bd 48 bd
       -0.018743305 -0.07351908 0.055086717 -0.0490091
000230 ce 65 c7 3b 93 d2 d5 3c cd 41 1b bd 29 5b 94 3b
       0.006085134 0.026101386 -0.03790455 0.0045274687
000240 a2 5a 5d bd 6e 67 27 3c 60 7a c3 3d 04 0d 2c 3d
       -0.054041512 0.010217531 0.095448256 0.0420046
000250 25 46 33 3d 87 ec c6 3c f0 a3 96 3d f5 85 96 3c
       0.043768067 0.024282707 0.07355487 0.018374423
000260 96 f9 03 3e da 31 01 be 84 f5 aa bc ed 1b 8e 3d
       0.12888178 -0.12616673 -0.020869024 0.0693892
000270 45 79 5b 3c 6a 64 11 3d 59 4d 72 bd 17 8e ad bd
       0.013395612 0.035496153 -0.059155796 -0.08474367
000280 39 27 b2 bc c0 b5 e9 3c 6e a7 9b bd f0 dd 86 3c
       -0.021747218 0.028529048 -0.07600294 0.01646325
000290 e3 29 d2 3b 94 7a 4b 3c 84 9a 6a bd 46 61 b9 3d
       0.0064136847 0.012419362 -0.057276264 0.090517566
0002a0 38 ea c8 3b bc 36 f3 3c 4b b4 8a 3c 75 99 09 bd
       0.0061314367 0.029689185 0.016931674 -0.033593614
0002b0 19 82 88 bc cf 15 c3 3a b5 d4 e7 bc e2 f3 e5 3b
       -0.016663598 0.0014883819 -0.028299669 0.0070175985
0002c0 69 dd 10 3d 6c a0 95 bc 82 d9 20 bd 3f 7a 82 bc
       0.035367403 -0.018264972 -0.03926993 -0.015927432
0002d0 3e e7 b9 bc 3f 86 bf bd 69 a9 c3 bb 74 26 46 bd
       -0.022693273 -0.09351777 -0.005971123 -0.048376516
0002e0 a9 4d 3f bb cf 59 0d bd d0 2d 29 bc 6c 4a 5a 3b
       -0.0029190576 -0.034509476 -0.010325864 0.003330852
0002f0 1d 90 90 bc 9f 46 98 3c 7f 61 01 3c 56 08 17 bb
       -0.017646844 0.018588362 0.00789678 -0.002304574
000300 61 54 b6 3c b0 89 be 3c ca 0c 97 bc 19 7b e3 bc
       0.022257032 0.023259014 -0.018438715 -0.027768658
000310 66 5a 97 3b 3a fe 15 3d b8 5c ee b9 fe 93 e2 bb
       0.0046189306 0.036619402 -0.00045463978 -0.0069146147
000320 3a 25 90 bc 40 15 f5 bc 2c 70 bb bc bc 02 b2 3d
       -0.017595876 -0.02991736 -0.022880636 0.08691928
000330 30 8b eb bd e9 2d 29 bd ff c3 b4 bd da 49 31 3d
       -0.11501157 -0.04130355 -0.08826446 0.04328332
000340 a2 13 9a bc 76 04 9f 3d a5 ed 11 be be 4d 2e bd
       -0.01880819 0.07764523 -0.1425081 -0.04255461
000350 c8 59 0f 3d 7b 01 9a bc 0b 10 32 bd 29 22 b7 3c
       0.03499773 -0.018799534 -0.04347233 0.022355156
000360 35 30 e2 3c e0 ad a4 bd 13 3e eb bd 1c 0b cf 3c
       0.027610878 -0.080409765 -0.11486449 0.025273852
000370 e9 5b b3 bb 23 66 61 bd be 0e c8 3c 1e be 14 bd
       -0.005473603 -0.055029046 0.024421092 -0.036314122
000380 00 e8 0f 3c a1 1f 22 bd fc 68 19 3d fa d4 c5 bd
       0.00878334 -0.039580945 0.037453637 -0.09659763
000390 2a 7b ea 3c d5 a0 0a 3c 1f 65 d9 3b a5 f4 03 bd
       0.028623182 0.008461197 0.006634369 -0.032215733
0003a0 ff fc fa 3c fd 59 59 bd e5 ea d6 bd 71 56 84 3a
       0.030638216 -0.053064335 -0.10494021 0.0010096562
0003b0 c8 04 54 3d 89 d2 fc 3c 27 0f be 3c a4 02 34 bd
       0.051762372 0.03086211 0.023200585 -0.04394783
0003c0 0f 40 8d 3c 51 50 4a bc c0 88 09 bd 90 b4 60 ba
       0.01724246 -0.0123482505 -0.03357768 -0.0008571828
0003d0 e0 35 16 bc eb 5b 03 3c 3a 88 a3 bc a6 3c 38 bc
       -0.009168118 0.00801752 -0.019962419 -0.011244928
0003e0 c2 74 94 3b 34 49 c1 bc 68 9c 20 39 ab 92 cb bd
       0.00453052 -0.023594476 0.00015317055 -0.09940084
0003f0 98 77 51 bd e7 eb a8 bd d7 eb a8 bd 02 8d 28 3d
       -0.051139444 -0.0824812 -0.08248108 0.0411501

model.1.bias_mu f4 [32]
000000 49 ec 7d be 7f ca 32 be 15 96 0f 3e a4 ff 01 bf
       -0.24797167 -0.17460059 0.14022096 -0.507807
000010 c4 66 b0 be 86 eb 2e 3e a8 57 0b bc 5b f4 26 be
       -0.34453404 0.17082033 -0.008504786 -0.16304152
000020 03 4f a6 3c 7c 64 81 be 38 56 a5 be 8d 41 ae be
       0.020301348 -0.25271976 -0.32292342 -0.34034386
000030 d4 dd bb be ff 3d 6e be f8 97 e4 bd d6 3e 2c 3e
       -0.3669268 -0.23265837 -0.11161798 0.16820845
000040 31 79 67 3d 10 8a 35 3e 4f fa 8d bb e3 ec f0 bd
       0.05651206 0.17728448 -0.0043328176 -0.117639326
000050 02 1a 89 3e 10 ac 22 bf c7 c2 98 be 53 ad 72 be
       0.26777655 -0.63543797 -0.29836103 -0.2369893
000060 a0 72 67 3d a2 f3 43 be 9a 4f 0f 3e b3 3d f4 3e
       0.0565058 -0.19135907 0.1399521 0.47703323
000070 52 d6 01 3e 5c d2 d5 be c2 03 55 bc 86 7a d5 be
       0.12679413 -0.41762054 -0.013001384 -0.4169504

model.1.bias_sigma f4 [32]
000000 6f 38 ca 3c 08 a9 ee bb ba 2c 83 3b a4 7c 2f 3d
       0.024685113 -0.0072833337 0.0040031346 0.042843476
000010 a2 d0 55 3c 37 d6 8f 3b 1f dc eb 3c 5a e2 83 bc
       0.01305023 0.00438955 0.028791485 -0.016099144
000020 b1 f8 4b bc 53 55 3e 3c 14 4d 85 3d 70 9e 3d bc
       -0.012449429 0.011617023 0.06508842 -0.011573419
000030 2f a4 75 3b 49 72 07 bc 64 2f 1b 3d 67 51 b1 bc
       0.0037481894 -0.008266994 0.037886992 -0.021645261
000040 c1 f6 07 bd 12 68 5f 3d f2 b9 c2 3c 16 65 4a 3d
       -0.033194307 0.05454261 0.023770306 0.04941281
000050 ee cc 81 bc f7 19 ad 3c d3 f6 fb 3c 4f 73 6a 3d
       -0.015844788 0.021130545 0.030757343 0.057238873
000060 02 70 f0 bc 2f 38 bf bc f5 2b 5b 3c 20 42 c0 bc
       -0.029350284 -0.02334222 0.013377179 -0.02346903
000070 ee 14 d4 3c f0 68 0c bd 9a 1d ac bc e1 5f 80 bc
       0.025888886 -0.034279764 -0.021010209 -0.015670719

model.1.weight_epsilon f4 [32, 24]
000000 05 17 39 3f 41 8d 5e 3f 08 a5 1e 3f 58 99 29 3f
       0.7230075 0.86934286 0.6197057 0.6624961
000010 68 a9 10 3f 8a b0 c6 3e 7d 67 a9 bf 49 72 73 3f
       0.56508493 0.38806564 -1.3234707 0.9509626
000020 dd 6b 20 bf 66 ff 25 bf dc c0 13 3e c2 3a 77 bf
       -0.62664586 -0.6484283 0.14429039 -0.9657403
000030 9e c6 51 3f 0f 5d 2c bf 05 86 45 3f 72 7b 9c bf
       0.8194369 -0.67329496 0.7715762 -1.2225173
000040 a7 40 ed 3e d9 52 21 3f e1 c3 c0 bf c2 14 98 3f
       0.46338388 0.6301704 -1.5059777 1.1881335
000050 da d7 82 3f 06 0d 62 bf 06 2a 94 3f c3 2b 70 3f
       1.0222123 -0.8830112 1.1575325 0.93816775
000060 9a cf 9b 3e c7 58 bb 3e 8b 8c 85 3e 3f c5 8e 3e
       0.30431825 0.3659117 0.26083788 0.27884862
000070 58 8e 73 3e 62 42 27 3e 47 9b 0e bf a8 ef cc 3e
       0.23784769 0.16333917 -0.55705684 0.40026593
000080 6d 0b 87 be 24 bd 8b be da c2 78 3d ee 1e d0 be
       -0.26375905 -0.2729274 0.0607327 -0.40648597
000090 84 97 b0 3e 03 19 91 be 17 47 a6 3e 87 ba 03 bf
       0.34490597 -0.28339395 0.32476112 -0.51456493
0000a0 d9 b8 47 3e df cd 87 3e a5 45 22 bf 11 06 00 3f
       0.19504108 0.26524255 -0.6338752 0.50009257
0000b0 6d 4a dc 3e d8 4a be be e9 73 f9 3e c7 2d ca 3e
       0.43025532 -0.37166476 0.48721245 0.3948805
0000c0 73 e9 2b bf e1 b4 4e bf 78 59 13 bf 1f 86 1d bf
       -0.6715309 -0.8074475 -0.57558393 -0.6153278
0000d0 b5 5c 06 bf 17 8b b8 be d1 57 9d 3f 12 1d 62 bf
       -0.5248521 -0.36043617 1.2292424 -0.8832561
0000e0 eb ff 14 3f d1 2d 1a 3f cf 3b 09 be 97 a0 65 3f
       0.58203 0.6022616 -0.13401721 0.89698166
0000f0 1b d7 42 bf 73 17 20 3f d3 75 37 bf 4c 57 91 3f
       -0.76109475 0.6253578 -0.7166416 1.1354766
000100 54 5c dc be 75 d6 15 bf 6a 0a b3 3f d4 40 8d bf
       -0.4303919 -0.5853036 1.3987553 -1.1035409
000110 08 0e 73 bf de f4 51 3f 7c 9d 89 bf 3f 12 5f bf
       -0.94943285 0.8201426 -1.0751185 -0.87137216
000120 3e 3c f5 be 6c 6f 13 bf 54 32 d2 be e9 b5 e0 be
       -0.47897524 -0.5759189 -0.41054022 -0.43888786
000130 7f ab bf be 8b a0 83 be db 73 60 3f 07 47 21 bf
       -0.3743553 -0.25708422 0.8767678 -0.62999004
000140 f6 8c d4 3e 60 f0 db 3e 23 c4 c3 bd 9e c8 23 3f
       0.41513795 0.4295683 -0.095588945 0.6397799
000150 b4 f8 0a bf 9a 5f e4 3e c8 da 02 bf db 54 4f 3f
       -0.5428574 0.44604188 -0.51115084 0.80988854
000160 95 2c 9d be 01 bf d5 be 96 67 7f 3f 0c 80 49 bf
       -0.30698076 -0.41747287 0.99767435 -0.7871101
000170 68 5c 2d bf d9 c0 15 3f 79 4f 44 bf 87 1b 1f bf
       -0.67719126 0.5849739 -0.76683766 -0.6215138
000180 35 3e c4 3e 54 f6 eb 3e 47 34 a8 3e 92 d1 b3 3e
       0.3832871 0.4608637 0.32852384 0.35120827
000190 f4 60 99 3e 84 a9 52 3e b6 9c 33 bf d7 0e 01 3f
       0.29956782 0.20572478 -0.70160997 0.5041327
0001a0 84 16 aa be 12 00 b0 be 19 a8 9c 3d 41 10 03 bf
       -0.33220303 -0.34375054 0.076492496 -0.51196676
0001b0 9d 6a de 3e ef bf b6 be 02 6d d1 3e 55 e9 25 bf
       0.43440714 -0.3569331 0.4090348 -0.6480916
0001c0 7f 8c 7b 3e 6b 0b ab 3e 77 61 4c bf c1 3e 21 3f
       0.24565314 0.3340715 -0.7983622 0.6298638
0001d0 3b ba 0a 3f 13 ac ef be 99 17 1d 3f a1 a4 fe 3e
       0.54190415 -0.4681097 0.6136413 0.49734977
0001e0 41 0f d1 be 73 5f fb be 88 30 b3 be 03 90 bf be
       -0.4083195 -0.4909626 -0.34997964 -0.3741456
0001f0 56 65 a3 be a3 6b 60 be b3 57 3f 3f 99 7c 09 bf
       -0.3191325 -0.2191606 0.74743193 -0.53705746
000200 44 32 b5 3e ac 7e bb 3e 49 e3 a6 bd 8b 9f 0b 3f
       0.35389912 0.3662008 -0.0814882 0.5454032
000210 42 f1 ec be 61 af c2 3e 76 1a df be 41 bf 30 3f
       -0.46277815 0.38024428 -0.43574876 0.6904183
000220 1c fd 85 be 2a 37 b6 be 91 ba 59 3f a8 c6 2b bf
       -0.2616967 -0.35588962 0.850503 -0.671
000230 a8 c9 13 bf 39 53 ff 3e 11 5a 27 bf 0a a3 07 bf
       -0.5772958 0.4986818 -0.65371805 -0.5298315
000240 05 df 87 be 0a 5f a3 be 96 ea 68 be c8 ff 78 be
       -0.26537338 -0.31908447 -0.22745737 -0.24316323
000250 1d 63 54 be bd da 11 be 96 b6 f8 3e ab b5 b2 be
       -0.20740934 -0.14243598 0.48576802 -0.34904227
000260 5b 86 6b 3e 36 b6 73 3e 18 ed 58 bd 9b 7c b5 3e
       0.23000471 0.23799977 -0.052960485 0.3544663
000270 20 fe 99 be d2 0e 7d 3e 9b ff 90 be d5 bd e5 3e
       -0.30076694 0.24712685 -0.28320011 0.44871393
000280 ae 29 2e be 7b d9 6c be 63 81 0d 3f ac 47 df be
       -0.17008087 -0.23129837 0.55275553 -0.4360937
000290 66 19 c0 be 9b f0 a5 3e 7e 87 d9 be 1f 4e b0 be
       -0.37519377 0.3241013 -0.42486185 -0.34434602
0002a0 ce f9 6e 3e 0a ac 8f 3e d8 d4 4c 3e 96 f9 5a 3e
       0.2333748 0.28060943 0.20003068 0.21384272
0002b0 12 c7 3a 3e 74 44 00 3e 38 b9 da be 32 29 9d 3e
       0.18240002 0.12526113 -0.42719436 0.30695492
0002c0 18 20 4f be 3b 53 56 be f1 c4 3e 3d 69 9a 9f be
       -0.20227087 -0.20930187 0.046574537 -0.31172493
0002d0 a0 6c 87 3e 58 8b 5e be 7b 07 7f 3e 18 0a ca be
       0.26450062 -0.21732843 0.24905197 -0.39460826
0002e0 90 29 19 3e 53 4a 50 3e b3 e2 f8 be 63 5b c4 3e
       0.14957261 0.20340852 -0.48610458 0.38350973
0002f0 9d ef a8 3e 51 ee 91 be b9 4c bf 3e df 0b 9b 3e
       0.3299531 -0.28502133 0.37363222 0.30282494
000300 6c 0e cb be 92 27 f4 be 48 0b ae be ce 0f ba be
       -0.3965944 -0.4768644 -0.33992982 -0.36340183
000310 30 b4 9e be e3 f9 59 be 1c d9 39 3f e9 89 05 bf
       -0.30996847 -0.2128673 0.7259691 -0.5216356
000320 43 fe af 3e 5e 1c b6 3e 77 18 a2 bd 27 9d 07 3f
       0.34373674 0.35568517 -0.079148225 0.5297417
000330 75 23 e6 be 38 18 bd 3e 65 b2 d8 be f6 ab 2b 3f
       -0.44948927 0.3693254 -0.42323604 0.67059267
000340 23 24 82 be ab fb b0 be 02 7a 53 3f e8 d7 26 bf
       -0.25418195 -0.34567007 0.82608044 -0.65173197
000350 3f 8b 0f bf 4a fe f7 3e d7 8b 22 bf f4 bd 03 bf
       -0.5607185 0.48436195 -0.6349463 -0.5146172
000360 2b c6 ca be b0 d0 f3 be 59 cd ad be 99 cd b9 be
       -0.39604315 -0.47620153 -0.3394573 -0.3628967
000370 b7 7b 9e be 52 ac 59 be fa 96 39 3f 65 5a 05 bf
       -0.30953762 -0.21257141 0.72495997 -0.52091056
000380 a3 bf af 3e 90 db b5 3e c9 de a1 bd e5 6c 07 3f
       0.34325895 0.35519075 -0.07903821 0.52900535
000390 90 d1 e5 be ee d4 bc 3e 48 65 d8 be df 6e 2b 3f
       -0.44886446 0.36881202 -0.4226477 0.6696605
0003a0 d3 f5 81 be b1 bc b0 be c1 2e 53 3f 89 9c 26 bf
       -0.25382861 -0.3451896 0.82493216 -0.65082604
0003b0 2b 58 0f bf 0a a6 f7 3e ff 51 22 bf 13 8f 03 bf
       -0.5599391 0.48368865 -0.63406366 -0.5139019
0003c0 bd d3 42 bf 7f 42 6a bf 99 fd 26 bf 70 85 32 bf
       -0.76104337 -0.91507715 -0.6523071 -0.6973486
0003d0 a8 45 18 bf 6a 24 d1 be f6 50 b2 3f 77 20 80 bf
       -0.59481287 -0.40848094 1.3930957 -1.0009907
0003e0 5b dc 28 3f fe ba 2e 3f bf 86 1b be 2d 1e 82 3f
       0.65961236 0.6825408 -0.1518812 1.0165459
0003f0 cd cf 5c bf 63 6e 35 3f 31 ea 4f bf e3 b6 a4 3f
       -0.8625458 0.7087156 -0.8121672 1.2868313

model.1.bias_epsilon f4 [32]
000000 33 b0 b3 bf 18 bf fb 3e 86 9d 18 bf c4 d2 0b bf
       -1.4038147 0.4916923 -0.5961536 -0.5461848
000010 24 70 52 3f 49 57 99 3f b4 e1 93 3f 5e 8a a4 be
       0.82202363 1.1979762 1.1553254 -0.32136816
000020 cd bf 34 bf 6f bb 8b bf c1 a3 5a bf 18 47 96 bf
       -0.70605165 -1.0916575 -0.8540612 -1.1740446
000030 5e 13 0b bf fd d2 2b 3f 9a b7 57 3f 61 26 37 bf
       -0.54326427 0.6711882 0.8426453 -0.71542937
000040 60 0f 30 bf 06 8b e1 be 95 ee 0d 3f c6 b5 c9 bf
       -0.6877346 -0.4405138 0.5544217 -1.5758598
000050 4f a2 6c bf 38 be 7f bf eb 0d 02 3f c2 ce 9c bf
       -0.92435163 -0.99899626 0.5080249 -1.2250597
000060 04 94 77 be 4a 59 3c 3f 85 49 2f bf 64 0b dc 3e
       -0.24177557 0.73573744 -0.68471557 0.4297744
000070 4e 69 5a 3f fd 2b 37 bf 9a 5e 93 bf 01 6b 4a bf
       0.8531693 -0.71551496 -1.1513245 -0.79069525

model.3.weight f4 [32]
000000 a5 bd 20 3f b4 05 33 3e b8 8e 5d 3f 41 44 06 bf
       0.62789375 0.17482644 0.86545897 -0.524479
000010 61 86 c6 be e9 4b 27 3f ec 72 47 3f 62 8a 0e 3f
       -0.38774398 0.65350205 0.7790973 0.55679905
000020 c4 58 20 3f f2 a7 29 3f c2 46 5a 3f 40 37 82 3f
       0.62635446 0.6627189 0.8526422 1.0173111
000030 00 14 2b 3f 66 68 1c 3f ef 8c 07 3f 5a 2d 3b 3f
       0.6682739 0.610968 0.5294942 0.73116076
000040 b9 c0 12 3f 01 90 6b 3f 6a bc 2c 3f 6a 57 47 3f
       0.5732532 0.9201661 0.67475 0.7786776
000050 fe ad b2 3e 25 49 8c 3d 7d 49 44 3f 0d 3b 1a 3f
       0.3489837 0.06849889 0.76674634 0.60246354
000060 42 72 08 3f 06 cc 45 3f ea 8e ff 3e ca f4 0a 3f
       0.53299344 0.7726444 0.49913722 0.5427977
000070 4d 2f 6d 3f d1 9f 42 3f 4c a4 dd 3e b8 a6 2d 3f
       0.926503 0.7602511 0.4328941 0.6783252

model.3.bias f4 [32]
000000 1e 59 fc 3e 0e 74 0b bf 4c 70 4d 3d 2e de 9f bd
       0.4928674 -0.5447396 0.050155923 -0.07806049
000010 24 9b 05 bf 40 74 f3 3e 20 b8 7c 3e 1a da e0 3e
       -0.5218985 0.4754963 0.24679613 0.43916398
000020 4d e3 28 3e c1 d8 c6 bd 90 98 20 3e 95 82 13 3b
       0.16492958 -0.09709311 0.15683198 0.0022508253
000030 2d f8 8d 3d dd 49 ec 3e 34 60 1a bc 72 fc dd 3d
       0.069321014 0.46150103 -0.009422351 0.10839166
000040 0d e8 b3 3d 1d 5e 17 be 8d 3a 13 3e 65 cb e3 3d
       0.087844945 -0.14781995 0.14377804 0.11122779
000050 88 23 ec 3e 3d 13 2d 3e 8d 84 e9 3d f6 8e 04 3f
       0.46120858 0.1690187 0.11402235 0.5178064
000060 5a 54 dc 3d ab e1 2b 3e 59 36 2c 3e 15 c7 83 3d
       0.10758276 0.16785304 0.16817607 0.06434456
000070 77 18 7b 3e f2 75 f5 3d 26 2b 76 3a 4d 8c d0 3e
       0.24521051 0.11985387 0.0009390585 0.4073204

model.3.running_mean f4 [32]
000000 9f 7d 91 3e 29 b0 20 3d 5b f5 e8 3e 55 cc 3c 3e
       0.28416154 0.0392305 0.4549969 0.18437321
000010 57 64 61 3e 8c c7 0b 3f c0 c2 bc 3d 8d 03 0f 3e
       0.22010933 0.5460136 0.09216833 0.13966198
000020 6b 31 ed 3e 95 2f fe 3d 2b 80 01 3f 7f f6 c7 3d
       0.46326765 0.12411419 0.50586194 0.09763812
000030 13 b1 7f 3e 5c 24 42 3e 7d 68 ac 3e 0b b6 4d 3e
       0.24969892 0.18959183 0.33673468 0.20088975
000040 c0 82 c0 3e b0 e9 97 3f 10 2a 0c 3f f5 52 1e 3e
       0.37599754 1.1868191 0.5475168 0.15461333
000050 64 07 03 3f 04 00 00 00 05 be a7 3e e5 06 4a 3e
       0.5118315 6e-45 0.3276216 0.19729193
000060 59 c0 90 3e e2 3b 3b 3f e7 b7 56 3e 1b c3 3b 3f
       0.2827175 0.7313825 0.2096859 0.7334458
000070 42 54 ca 3e 42 b0 c4 3d 28 4a 01 3e 4a fe b0 3d
       0.3951741 0.09603931 0.12625945 0.08642252

model.3.running_var f4 [32]
000000 fb 3a 25 3e 4e 36 78 3c 40 99 bf 3e 04 0f 16 3e
       0.1613578 0.015149666 0.37421608 0.14654166
000010 5e 24 8c 3e d2 a3 a5 3e 5e b3 7a 3d a2 a1 a2 3d
       0.27371496 0.32351547 0.061206214 0.07940985
000020 19 9d d8 3e f4 3a 0b 3e f8 70 d7 3e e0 d6 ea 3d
       0.42307356 0.13596708 0.42078376 0.114667654
000030 3c a5 24 3e 98 a2 29 3e 46 b6 92 3e b3 21 30 3e
       0.16078657 0.16565931 0.2865469 0.17200355
000040 e9 7d 9c 3e bb c0 81 3f d5 5f 31 3f b9 98 ef 3d
       0.30564812 1.0136942 0.69286853 0.116990514
000050 32 4d a5 3e 04 00 00 00 f5 1d 9a 3e 92 dd 14 3e
       0.32285458 6e-45 0.3010098 0.14537647
000060 64 ec 14 3e 68 57 42 3f 17 0f f0 3d b8 64 10 3f
       0.14543301 0.7591462 0.11721628 0.56403685
000070 4b 26 b3 3d 62 ba 86 3d d9 5a 8c 3d 88 6b 4f 3d
       0.08747538 0.065785185 0.06853265 0.05063966

model.4.weight_mu f4 [32, 32]
000000 d9 ed 98 bf 71 07 95 bd 69 fc bf 3e 57 11 0e be
       -1.1947585 -0.0727681 0.3749726 -0.13873802
000010 fa c7 94 3c db 0e 42 be 8a 23 e0 3d 35 6d d6 3d
       0.018161763 -0.1895098 0.109442785 0.10470048
000020 eb 85 cf 3e 1a a4 c4 be 57 49 65 3d 76 67 06 bf
       0.4053186 -0.3840645 0.055978145 -0.5250162
000030 f4 5d 86 be 97 f0 70 bd f1 50 1d 3d ec 94 f0 be
       -0.26243556 -0.058823194 0.03840727 -0.46988618
000040 20 ae c1 3d de 79 ae be 57 08 6a bf 5f 01 99 3e
       0.0945704 -0.34077352 -0.91418976 0.2988386
000050 8e ae 60 be 61 2d 1d bf 5c 90 5e 3e 9c d2 e3 be
       -0.21941587 -0.6139737 0.21734756 -0.4449662
000060 41 71 1e 3f b9 94 6b be bd 0f 94 be 6b 4a 2f 3e
       0.6189156 -0.23005952 -0.28918257 0.17118232
000070 71 61 15 3e e7 6d b1 3b c5 7f 73 bd 9d db 65 3e
       0.14587952 0.0054147127 -0.059448022 0.22447057
000080 3a 86 a6 be 03 da 76 3e 28 83 0e bf f3 da 26 bd
       -0.32524282 0.24106602 -0.5566888 -0.04073615
000090 45 0c b1 bd ad 90 d6 bd e3 e2 47 3e 37 6a 42 be
       -0.08644918 -0.104768135 0.19520144 -0.1898583
0000a0 82 9c 19 bf ad 30 4b bc 5e 3f 23 3e e3 cf 7e bf
       -0.60004437 -0.012401742 0.15942141 -0.9953596
0000b0 3b cc c5 be fe 74 4c bc 17 ec 84 bd 00 07 d2 3e
       -0.38632378 -0.012479065 -0.06490343 0.41020966
0000c0 cb 7d a4 bd 87 ee dc 3d 55 b0 df be 36 da fd bc
       -0.080318056 0.10787683 -0.43689218 -0.03098784
0000d0 87 a1 b6 3e d1 1c ae be e7 76 d3 3e f3 da a6 be
       0.3567011 -0.3400636 0.41301653 -0.3258892
0000e0 55 1a b5 3c 5c b2 a3 bd 11 1a c4 bd df 27 d3 3e
       0.022107283 -0.07993004 -0.09575284 0.41241357
0000f0 b1 89 64 be 4e 7c 72 be 82 06 97 bd 78 04 88 3e
       -0.2231815 -0.23680231 -0.07374288 0.2656591
000100 f4 23 af 3e c1 d1 78 3e ab 74 f2 bd 25 fb 20 3f
       0.34207118 0.24298765 -0.11838659 0.62883216
000110 7d cb fa 3d 43 a4 66 bd 48 72 ce 3c c3 7d 42 3f
       0.122458436 -0.056308996 0.025200978 0.7597315
000120 a7 d2 07 bf 57 18 c1 3d a7 cc ca 3e 45 e3 37 be
       -0.53055805 0.094284706 0.39609262 -0.1795779
000130 9d ea 40 be 35 67 46 3e e9 51 92 be 7a e5 20 bf
       -0.18839498 0.19375308 -0.28578117 -0.62850153
000140 01 4d b3 3e e5 57 82 3e 50 54 ca 3e be 0c 25 3e
       0.35019687 0.25457683 0.3951745 0.16118142
000150 ad 99 29 bf c5 9a 8f bc 69 bd b8 3e 22 29 a3 be
       -0.66250116 -0.017529855 0.36082008 -0.3186732
000160 02 e8 6b 3d a2 b5 c1 3e 08 ec dc be eb 7a 39 3e
       0.057594307 0.37833887 -0.43148828 0.18113296
000170 fd 49 11 bf b6 a9 89 3d ac ff ad be 0a 6b 8a be
       -0.5675352 0.06721823 -0.33984125 -0.2703479
000180 86 9a 9c 3c 44 75 01 bf f9 ed 14 bf 6d 11 02 3f
       0.019116651 -0.5056956 -0.5817562 0.5080784
000190 8e 55 a7 be ee 26 8d 3e 9c 69 5d 3e 12 47 97 3d
       -0.3268246 0.27568763 0.21622318 0.073866025
0001a0 3f 44 43 bf 1c 0d ba 3e 67 89 14 3f e4 8f ee bb
       -0.7627601 0.36338127 0.5802216 -0.0072803367
0001b0 ea 98 df 3d fa 43 b3 bc 74 40 d8 3e f3 72 df 3e
       0.10917838 -0.021883 0.42236674 0.43642387
0001c0 39 11 e1 bd 83 5b 6b be 74 b8 e0 bd 4c 16 32 bf
       -0.10989613 -0.22984128 -0.10972682 -0.6956527
0001d0 02 ed 36 3e 3c 59 f6 be 29 31 3e be 35 c6 ba 3e
       0.17863849 -0.48114955 -0.1857344 0.36479345
0001e0 8b 2a 64 be e5 76 ca 3e 3d 5b a3 be 9a e5 a0 3e
       -0.22281854 0.39543834 -0.31905547 0.31425172
0001f0 13 f7 90 be f7 1f bb bd 91 38 61 bf 58 45 26 be
       -0.28313503 -0.09136956 -0.8797694 -0.1623739
000200 3d 68 98 3d 0a f8 23 be 3f 0d c1 3d e5 4b a0 bc
       0.07441757 -0.16012588 0.094263546 -0.01956744
000210 e7 cd 70 be f8 d4 2c 3e ae e4 2a 3d d3 84 4f 3f
       -0.23516046 0.16878116 0.041721992 0.8106205
000220 37 74 25 bc de 33 54 be d2 89 92 be cb b7 ad 3e
       -0.010098509 -0.20722911 -0.28620774 0.33929285
000230 94 18 bd be bd e4 fa 3e 0c 36 96 bf 6e 50 be bd
       -0.36932814 0.49002638 -1.1735244 -0.092926845
000240 9a c3 fc be dc a4 c8 3e 73 b3 1c 3f 28 c5 29 bd
       -0.49367982 0.39188278 0.6121132 -0.04144779
000250 0b 22 08 3c 98 f0 bf be 1c b7 e8 be a9 78 c0 bd
       0.008308898 -0.37488246 -0.454522 -0.09398014
000260 c7 6c 56 3d d2 65 25 be 25 a3 0d bf fe e4 00 bf
       0.052349832 -0.16152123 -0.55327064 -0.50349414
000270 b8 36 1e 3d ea c3 bd bd 1b a7 e9 3d e0 ba a3 bd
       0.038626403 -0.09265883 0.11408826 -0.07994628
000280 b9 eb 75 bf bd 1e 4f 3e b6 d0 88 3e 5e a9 35 bb
       -0.9606281 0.2022657 0.26721734 -0.002771936
000290 10 7a 3b be a5 8a 4d be 4d 65 f3 3d 3d 9b d7 be
       -0.18308282 -0.2007242 0.11884556 -0.42110625
0002a0 ff 53 61 3d 25 27 c4 3c 63 bf 87 3e 23 74 1a be
       0.055011746 0.023944447 0.26513204 -0.15083365
0002b0 a9 65 60 bd e9 d0 db 3d 04 8c 4a 3e 24 7f ef 3e
       -0.05478445 0.10733206 0.19779974 0.46776688
0002c0 5b ff 73 be 26 04 2a be bb b1 be be ae 15 b2 3e
       -0.23827879 -0.16603145 -0.37244973 0.34782165
0002d0 0f 0c 2f be 38 79 fa be c4 3c c2 3e 47 12 36 be
       -0.17094444 -0.48920608 0.37936985 -0.1778041
0002e0 32 85 c1 be 53 f6 83 bd ad 13 36 be b1 a2 79 3e
       -0.37796932 -0.06443467 -0.17780943 0.24378468
0002f0 51 1b 8c be 6e e1 0b 3f 17 53 34 3e 77 34 83 bd
       -0.2736459 0.54640853 0.17609821 -0.06406491
000300 d7 15 91 3e 08 b8 f6 bc 38 a3 c9 3e 2c 60 56 be
       0.28336975 -0.03011705 0.3938234 -0.20935124
000310 ba 1c f3 3d 71 9d ce 3e e6 5b 8a bd 38 14 94 3e
       0.118707135 0.40354493 -0.067558095 0.28921676
000320 64 e8 f1 be 8e 99 14 be 22 4c 42 3e 4e 52 c2 be
       -0.47247612 -0.14511701 0.18974355 -0.37953418
000330 22 15 48 3e 6b 63 1d 3d e7 6d 2c 3f bd 89 aa 3c
       0.19539312 0.03842489 0.673552 0.020817632
000340 1c 4d cb 3e e8 c0 26 bd e6 31 39 3f 4d 21 d5 be
       0.39707267 -0.040711313 0.72341764 -0.4162697
000350 04 6a fe be 0c dd 70 3d 4d 45 cd be 29 f6 d3 be
       -0.49690259 0.058804557 -0.40091935 -0.41398743
000360 e4 36 7a be ea 34 06 be 6e 48 95 be 5c ed cd 3e
       -0.24435002 -0.13106123 -0.29156822 0.40220153
000370 ef 8c ce 3e 93 89 af be ef ac 11 3e e7 55 98 be
       0.403419 -0.34284648 0.14226125 -0.29753038
000380 28 34 03 be 19 51 2a 3d 31 eb b2 be d7 63 9f 3e
       -0.12812865 0.041581247 -0.34945062 0.3113086
000390 be f1 36 3f df b9 92 3e f7 fb ee bd 3b 93 b2 bd
       0.7146262 0.28657433 -0.11669152 -0.08719488
0003a0 82 f0 04 be 16 b3 87 3c 96 ff a9 3e e4 5d 1a 3d
       -0.12982371 0.016564887 0.3320281 0.037687197
0003b0 7e ff b5 3d b8 c9 f2 be 44 b4 b2 be 06 e5 45 bf
       0.08886622 -0.47419524 -0.34903157 -0.7730259
0003c0 92 ae c7 3d 14 04 04 bf 8b 4b 89 3e 83 47 e5 be
       0.097500935 -0.5156872 0.26815447 -0.44781122
0003d0 b0 cf da be a9 d4 c6 be fc 95 e3 bd bd 90 43 bf
       -0.42736578 -0.38834122 -0.111125916 -0.7639273
0003e0 55 e8 e5 bd 58 4c d6 bd 69 d8 84 3e 86 85 41 be
       -0.112259544 -0.1046378 0.25946358 -0.18898591
0003f0 1d 2e 6f be d7 63 6d be 3b c8 04 bf e2 b3 e3 3d
       -0.23357435 -0.23182617 -0.5186803 0.11118294

model.4.weight_sigma f4 [32, 32]
000000 9b a8 00 bd 02 86 96 bc 28 e5 5f bc c0 4c be 3b
       -0.031410795 -0.018374447 -0.013665475 0.005807489
000010 f1 86 86 3c c5 ef cc b9 1d d7 18 bc ba c4 99 3c
       0.016421767 -0.00039088554 -0.009328631 0.018770564
000020 be dd 9e 3b 5f 1a d4 3c 4d 84 e7 3b 08 8d 53 bb
       0.004848211 0.025891481 0.007065332 -0.0032280106
000030 57 ee 91 3d 21 cb 6c 3d 38 66 f2 3b 59 f9 6f 3c
       0.07125538 0.057810906 0.0073974393 0.014646851
000040 5d db bf bb 5a 0c 9a 3a 20 fd ef bc 8e 8c 16 3d
       -0.0058550076 0.0011752949 -0.029295504 0.036755137
000050 3a 0c a6 bc 68 21 02 be c3 db c4 ba 57 d7 48 bd
       -0.020269502 -0.12708056 -0.0015019107 -0.04903349
000060 ba b3 5b bc c3 81 dd bc ef b4 74 bd d4 b4 0b 3d
       -0.013409549 -0.027039414 -0.059742864 0.034107998
000070 19 5f 43 bc e5 9c 5e bd 9c 33 92 3c fe b6 40 3d
       -0.0119245285 -0.054348845 0.017846875 0.047049515
000080 98 fe f7 3d e6 11 06 bc d8 9e 83 bd 3b eb b7 3b
       0.12109107 -0.008182978 -0.064267814 0.0056127585
000090 b5 00 85 bd 16 3e 11 bd 93 95 1b 3d ee 81 19 3d
       -0.064942755 -0.0354596 0.037984442 0.037477426
0000a0 46 b6 45 bd 33 b1 2e bc 84 5e 94 bd 88 76 52 3d
       -0.048269533 -0.010662365 -0.0724459 0.05138257
0000b0 7c b3 05 3c 09 f0 32 bc 16 cb 13 bd a8 49 05 ba
       0.008160468 -0.010921487 -0.03608235 -0.0005084523
0000c0 f4 95 a4 bc 5b b6 fa 3c cf 84 46 3c 27 78 fe 3c
       -0.020091034 0.030604532 0.012116625 0.031063152
0000d0 82 26 90 3c a8 3a 51 bd 23 69 ad 3c 60 ce 9c 3c
       0.017596487 -0.05108133 0.021168297 0.019141376
0000e0 e1 8b 10 3d df 13 bc 3c b6 8a 65 bc 6b 57 8a bd
       0.03528965 0.022958694 -0.014010122 -0.06754955
0000f0 a8 73 f9 3c 17 ea ae 3c b0 80 b9 bd a4 cc a8 3d
       0.030450657 0.021351857 -0.09057748 0.08242157
000100 d0 b0 1b 3d d1 1e 45 bd 43 70 6b 3c 02 7e 34 3d
       0.03801042 -0.048125092 0.014370027 0.044065483
000110 34 cb 03 3d a0 2a 66 3d e8 8d 54 3c 36 7d 71 3d
       0.03217621 0.056192994 0.012973286 0.0589573
000120 9a 7f 55 3d 08 94 8d 3d bd db 8d 3c ce f5 b3 3c
       0.052123643 0.06913 0.017316693 0.021967795
000130 19 22 44 bd c0 44 c2 bc 18 9b 00 bd 74 89 7e bd
       -0.04788408 -0.023714423 -0.03139791 -0.062142804
000140 f7 a4 c2 bb 10 85 ff bc d2 09 0c 3d c3 f2 50 bc
       -0.0059400755 -0.031191379 0.034189053 -0.012753191
000150 3a 47 26 3d 0b 83 72 bd e2 7f e2 bc 16 23 1a bc
       0.04059527 -0.059207004 -0.02764887 -0.009407779
000160 21 75 18 3d f9 c4 8e bd 5f 78 21 3c ec cf df bc
       0.037221078 -0.06971163 0.009855359 -0.027320825
000170 1f 9d fe bb f3 2a ff bc 26 4e a6 bd 9e 17 09 3d
       -0.007770195 -0.03114841 -0.081203744 0.03346979
000180 e8 f7 08 bd 77 f7 1b 3d d5 80 85 3d 6b e3 d8 bc
       -0.033439547 0.038077798 0.065187134 -0.026475629
000190 20 42 83 bc c3 50 7a 3c fd 30 33 bb 1b 16 bc 3c
       -0.016022742 0.015278044 -0.0027342432 0.02295976
0001a0 fa e5 f8 bc cb 94 67 bd b5 b8 9b 3d 1f 9a fe 3c
       -0.030383099 -0.056538384 0.076035894 0.03107935
0001b0 c5 65 f1 3c 4c ee 8d bd 7a 20 35 bc d5 61 09 bd
       0.029467473 -0.06930217 -0.011055106 -0.033540566
0001c0 0d 4f 45 bd 13 67 29 bc 76 d6 1f 3c ed 31 85 3b
       -0.04817109 -0.010339516 0.009755721 0.0040647895
0001d0 5d 64 cb 3b 55 af 3e 3e a1 d3 c4 bd 08 73 a7 bc
       0.0062070326 0.18621571 -0.096106775 -0.020440593
0001e0 21 77 35 bd ab b4 13 3d 89 f5 af 3c 89 ab 09 3d
       -0.044303063 0.03606097 0.021479385 0.033610854
0001f0 1e 56 0e 3d eb 31 0d bd 91 3d cb bd 78 21 de 3b
       0.034750096 -0.034471434 -0.09923852 0.006778892
000200 23 fc 0a be 71 94 f1 bb fc b5 b4 3c 72 41 60 3d
       -0.13572745 -0.007372432 0.022059433 0.054749914
000210 35 24 d7 3a d9 b4 b1 bc ec 36 78 bd b5 64 d4 bd
       0.0016413989 -0.02169268 -0.060599253 -0.10370771
000220 53 2c b4 bc 36 3f c9 bc 92 68 19 3b 4b 6c 28 3d
       -0.021993792 -0.024566274 0.0023408276 0.0411189
000230 e6 fe f8 3c 5c 29 1f bc b3 f6 04 bd f2 6b 84 bc
       0.030394983 -0.009714451 -0.032461833 -0.016164754
000240 0b bb 72 3b 85 16 0e bb 1d 76 fe bc 43 a8 a0 bc
       0.0037037756 -0.0021680903 -0.03106218 -0.019611483
000250 cb f7 bd 3d db d3 5e bd bc 8f 04 3a 99 4e 4d 3d
       0.092757784 -0.05440126 0.00050568185 0.050123785
000260 46 71 38 bd c5 98 24 3d 98 6e 5c 3d 03 06 c7 3b
       -0.0450299 0.040184755 0.053816408 0.0060737147
000270 f0 5a 9b 3c 2b 64 9a 3c bf 55 53 3d 61 03 d9 3d
       0.01896426 0.018846592 0.051595446 0.105963476
000280 43 19 ce bc 33 8a c7 bc ed bf f6 3c c3 10 12 bd
       -0.02515853 -0.02435789 0.030120814 -0.035660516
000290 77 bb 40 bd c0 bd a5 3c e2 17 3c bd b4 fb 40 bd
       -0.04705378 0.020232081 -0.045921214 -0.047115043
0002a0 cf a7 8f 3c db ec f2 3c 61 bf 29 3c a7 ed 24 3d
       0.017536072 0.029653957 0.01036057 0.040265705
0002b0 35 60 8c bc de f0 48 bd 4a ca 09 3d fe 6b 59 bd
       -0.017135719 -0.049057834 0.033640184 -0.053081505
0002c0 79 d6 e8 bd 8e 84 b9 bc 56 ba 2d 3c bc 5d 72 3d
       -0.113690324 -0.022646215 0.010603508 0.059171423
0002d0 cc b1 52 3d 58 9c 15 be 38 51 55 3d f5 4b 8d 3c
       0.05143909 -0.14610422 0.05207941 0.017248133
0002e0 8b c8 1d 3c 88 9d 9f 3c b2 64 6d 3d de fc d5 3c
       0.009630333 0.019484296 0.05795736 0.026121553
0002f0 20 f2 0a 3d 76 53 16 bd 10 96 d3 3c 77 c2 37 bd
       0.033922315 -0.03670069 0.025828391 -0.04486319
000300 48 cb ca 3c 13 7f 92 ba fa d9 29 bc 36 f6 b0 3c
       0.024755135 -0.0011176787 -0.010366911 0.021601778
000310 54 5f a2 3c c7 49 17 bd 6b 67 b2 3c 43 40 24 3c
       0.019820847 -0.036935594 0.02177783 0.010025087
000320 af 7f 53 bc f1 35 2b 3c 04 c5 fc 3c 5b 8c 00 3d
       -0.01290886 0.010449872 0.030855663 0.031383853
000330 2f 93 ba bc 8c 7f 0a bd 04 ab 44 bd 83 2b 75 3d
       -0.02277526 -0.033813044 -0.048014656 0.05985595
000340 35 44 a0 bc 3d f0 30 bd 4b 97 80 3c 0a fc be bc
       -0.019563774 -0.04319786 0.015697142 -0.023313541
000350 c2 ac e6 bc e6 54 3d 3d 7b cf 88 3d d7 89 11 3d
       -0.02815855 0.046223544 0.06680199 0.035531845
000360 ec 00 e3 bb f5 28 25 bd b1 c0 99 bc 92 52 ae 3c
       -0.0069276 -0.040322263 -0.01876864 0.021279607
000370 cb be 89 ba 63 4c f1 bd 7c f2 a9 bc 49 a8 4c 3c
       -0.0010509131 -0.11782148 -0.020745508 0.012491294
000380 8f 46 4c 3d 04 22 96 bc 38 1a 1d bc cf 59 9a 3d
       0.049871977 -0.018326767 -0.009588771 0.07536661
000390 d3 df 83 3d cb 9d c0 3c 3c e5 11 3c 8f f2 4e bc
       0.064391755 0.023512742 0.008904751 -0.012631073
0003a0 46 39 0e bd 88 f6 86 bc 40 d4 6e 3c ab ce f6 b9
       -0.03472259 -0.016474977 0.0145769715 -0.00047074756
0003b0 76 8b c4 bc 9a 5d 11 bc 28 94 ac 3b 7d 08 78 bc
       -0.023992281 -0.008872414 0.005266685 -0.0151387425
0003c0 57 10 04 3d 71 42 12 bd 5f 52 da bd 7e f5 f4 bc
       0.032242145 -0.035707895 -0.10660242 -0.029902216
0003d0 25 94 0a be 41 43 23 bd fd ed 0d be b3 87 ce 3d
       -0.13533075 -0.03985906 -0.13860317 0.10084476
0003e0 3e 02 e7 3a 8c 8d f5 3b f8 64 2c bd 40 3e e1 bd
       0.001762457 0.0074936803 -0.04208848 -0.10998201
0003f0 b5 b3 b2 bc 52 34 98 bd 0b 22 6e 3d 9b 88 37 bd
       -0.021814207 -0.07431854 0.058137935 -0.04480801

model.4.bias_mu f4 [32]
000000 b9 11 41 be 73 de 21 be ce 17 2d be b9 27 94 3e
       -0.18854417 -0.15807514 -0.16903612 0.28936556
000010 a4 1e c0 3d 54 d0 eb be cf af 28 be e1 35 3d be
       0.09380844 -0.4605738 -0.16473316 -0.18477584
000020 b2 56 fb be 22 15 9c be aa c3 4a 3d 41 a7 84 be
       -0.4908958 -0.30484873 0.049503006 -0.25908855
000030 9e cb 1a be f3 d1 9e bd c8 09 e8 3d b6 4e 42 3d
       -0.15116736 -0.077548884 0.113299906 0.047438346
000040 40 7b a9 bc 8d 0b 87 3e c7 2c ad 3c e3 a6 0d bf
       -0.020688653 0.26376 0.021139516 -0.55332774
000050 74 39 29 be e3 7f c8 be bd 56 c4 be 60 9a b2 bd
       -0.16525823 -0.3916007 -0.38347426 -0.08720851
000060 cd cb bf 3c 50 91 97 be 19 80 cb be 5f f9 88 be
       0.02341261 -0.29603052 -0.39746168 -0.26752755
000070 35 b9 16 be 24 c1 3a bf 3b ed 5b bb 03 52 40 3e
       -0.14719088 -0.7295096 -0.0033558148 0.18781285

model.4.bias_sigma f4 [32]
000000 f8 8e d2 3c ba c4 e8 bc be d4 f5 b9 e1 38 02 3c
       0.025702938 -0.028414119 -0.00046888547 0.007948131
000010 a0 1a 9f 3d e2 0c 80 3d 0f 11 43 3c 9c 57 34 bd
       0.0776875 0.06252457 0.011905923 -0.044028863
000020 f8 fc 16 bd e9 ed f8 3c b8 21 94 3c 02 ba 09 bd
       -0.036862344 0.030386882 0.018082485 -0.033624656
000030 f2 d7 34 3d 43 b7 1e 3b d5 5e 4f bc 86 0b 03 3d
       0.044151254 0.002421812 -0.012656887 0.03199341
000040 0d 7c a3 3a 16 44 da 3c 88 e8 b4 3d e9 de 3c bb
       0.0012472883 0.026643794 0.08833414 -0.0028819388
000050 32 9b 12 bd 6e 67 24 bd a7 fe 54 bd 0a c9 2a bc
       -0.035792537 -0.0401377 -0.052000668 -0.010423908
000060 3a 4e 5b bd 22 50 4f 3b 45 a4 4c bd 2a 1e 86 bd
       -0.0535414 0.0031633456 -0.049961347 -0.06548722
000070 1b 3b f7 bc b8 11 28 bd d9 cb d4 bb 3d 7f 48 3a
       -0.03017955 -0.041032523 -0.006494027 0.00076483545
