checkpoint.pth (torch_old, 156766 bytes, 6 tensors)

model.0.weight f4 [128, 37]
00000000: f411 e33d 7c89 873d d11f 17be cdd8 05be
00000010: 74b7 58be 0e17 aa3c d654 2d3d b84c 4a3e
00000020: 9ecf ee3c ec94 393d b13a 0cbe 719f e43d
00000030: 6a61 51be 8ec3 4fbd c214 98bd 0b72 aa3d
00000040: 34ec 343d 3cc8 ea3d 3b17 b5bd 1c25 63be
00000050: 5591 553d e0e9 843e ae94 febc 7872 2d3d
00000060: 5724 e53b 6916 483d cdd4 763e 5382 11be
00000070: e33e 42be 8346 31be 01c6 a2bd e751 573e
00000080: 32ae d6bd a656 5fbc d899 e0bc 682d 2bbe
00000090: 94ee 97bd fb07 6a3e 4599 1e3d 697c 6e3d
000000a0: f735 8a3a 35b9 b9bd 2084 933d bf81 2bbe
000000b0: d1cb 9ebd 3553 22be 7e65 96be d3f3 853d
000000c0: 81ba afbc d0f9 8c3d 7bf5 8f3d 1ac6 283e
000000d0: f297 f73d 695b 40bc 8bff f13d 1573 93bd
000000e0: 2b95 a8bd b725 e3bd 5725 c9bd 5f18 7dbd
000000f0: 48be ab3d 74ed c53d 7990 d2bd c866 a63d
00000100: d6c7 203e 06de 67bc 84fc 0bbc 1b21 c33c
00000110: cf75 283e fcfa 5b3e 68b2 3abe 07db b93d
00000120: 4552 a63d 2ae5 d53d df0a 403e e801 2c3e
00000130: 366f 09be eef5 f0bd 65e8 ab3b b867 73be
00000140: 10b2 c1bd d3c1 d73d b238 733e 03c8 68be
00000150: a970 6bbd 5a1a 04be 4517 853d 8716 6dbd
00000160: 75ec 9f3b 1aa6 30bd 76b8 963d 3f1e a13d
00000170: 929d bc3c 7bad 073d 2e87 83be 2a3b 67bd
00000180: d035 1c3e eddd e8bc 4315 3abe 5ca1 a33c
00000190: 18a0 023e 0140 043e c771 41be 43cf 0dbd
000001a0: 06dc 0bbe e3d7 aabc f59e 9cbd f8f1 80be
000001b0: ae8c d5bc 237f 38bd 2e83 adbd 0779 ca3d
000001c0: c588 1cbe e054 1f3e 1017 903d c31b 3abd
000001d0: a68f a6bd 89d3 fcbc 8a72 fdbd 39ec 893e
000001e0: 2db0 853e 8a7f 24bd bc46 4fbd be45 e73d
000001f0: 0b30 49be d2df de3c 1b25 88bd 4529 f0bd
00000200: 1c70 b7bc 3892 c7bd 2880 71bc 211f 243d
00000210: e0b2 abbd b1ec 503c 6103 493d c5cf 61bd
00000220: 042d 7e3c 565d 5a3c a264 b9bd b60e 5b3e
00000230: 42b6 313e 2103 b33d 0c13 623e 97df 40bd
00000240: f38c 39be 2cb2 1dbe 345d be3d 5285 8ebb
00000250: cf62 16bd 50cc 00be 053b 4cbe 8a4b 26be
00000260: 65c0 073a 58fd 0d3d 125e ab3d cbfe c2bd
00000270: da91 753e 72ed 4f3e ed55 a2bc 965c c9bd
00000280: 41cc a9bd 12f0 853d e747 58bd a773 22be
00000290: e847 57bb d1a2 9ebc 0500 2dbd 652b 093e
000002a0: 95ba 11be 0375 81bd 9c3c 3b3e 86d6 5ebd
000002b0: f527 6d3e b7f6 983d 5b26 28be 705a ab3d
000002c0: a897 36bd 40c6 c93b 8561 033e fbd3 51be
000002d0: d5fb e33b b028 dc3d 270b 123e 78c4 9a3c
000002e0: bc30 9e3d b321 993d 9f2a 11bd ee35 89bd
000002f0: c647 d0bd fcc3 943d 9396 503e b104 ffbc
00000300: 1ee2 3cbe 4e29 47bd 6b7b 1fbf 957c b2bd
00000310: 3b68 acbd 3de8 bc3d effd 0dbe 5545 02bd
00000320: 0cdb 403d f321 4f3d 3ca0 86bd 0317 1dbe
00000330: 966a 4fbd a54e f83d 974c acbd 85c3 223e
00000340: eacc b63d ad7f 15bd 0b69 e33c 65a6 f0bd
00000350: 7223 8c3d 9811 b23a 6e8d 13be b634 613d
00000360: d7ab 04be 07a0 c2bd c9b2 203e 6696 aabe
00000370: 2866 7a3d 8ae0 0c3e e447 113e de79 583d
00000380: af42 8dbe 3634 c93d 941f 7ebe 0ccd b63d
00000390: 3053 d8bd c401 d1bd ff32 b73c b0e2 2e3e
000003a0: 0b72 07be 1526 f73d e806 553e b3b9 0ebe
000003b0: 8932 b23d ac16 b0bd 2777 1e3b d85f 61bd
000003c0: 38ef cd3d 367e fa3d dc58 8fbb 3d8c 56bd
000003d0: 5bcd a93d a10c 32bd 439c fb3d b4d2 47be
000003e0: 3a21 84bb dc79 a13c 00ba 19bc fab6 603e
000003f0: 528e 263e 661d 69bd 2290 9cbd 7ee9 f3bd
0.11087409 0.0661802 -0.14758231 -0.13070984 -0.21163732 0.020762946 0.042317234 0.19755828
0.029151734 0.04530804 -0.13694264 0.111632235 -0.20447317 -0.050723605 -0.07425834 0.08322533
0.044170573 0.11463973 -0.088423215 -0.22182125 0.052140553 0.25959682 -0.031076755 0.042345494
0.0069928574 0.048849497 0.24104615 -0.14209871 -0.18969302 -0.17312054 -0.079479225 0.21027337
-0.10482444 -0.013631498 -0.027417108 -0.1671654 -0.07418552 0.22854607 0.038720388 0.058224116
0.0010544647 -0.090685286 0.07202935 -0.16748713 -0.07753719 -0.15852053 -0.29374307 0.065406464
-0.021451237 0.068835855 0.070292436 0.1648182 0.12089528 -0.011740544 0.11816319 -0.071996845
-0.082315765 -0.11091178 -0.09821575 -0.06179082 0.08385903 0.09664431 -0.10281462 0.08125073
0.15701231 -0.014152056 -0.008544091 0.023819497 0.1645119 0.21482462 -0.18232119 0.09074979
0.081211604 0.104441 0.18754147 0.16797602 -0.1342133 -0.11765657 0.0052462094 -0.23770034
-0.09457791 0.10535016 0.23752096 -0.22732548 -0.057480488 -0.12900677 0.06498579 -0.057882812
0.004880483 -0.043127157 0.07359402 0.07867097 0.023024354 0.03312443 -0.2568907 -0.056452908
0.15254903 -0.028426135 -0.18172173 0.019974403 0.12756383 0.1291504 -0.18891059 -0.03462149
-0.13658151 -0.020854896 -0.07647506 -0.25184608 -0.026068058 -0.045043122 -0.08472286 0.098863654
-0.15286548 0.15559721 0.07035649 -0.045436632 -0.081328675 -0.030862587 -0.12375362 0.26938036
0.26110974 -0.040160693 -0.050604567 0.11292599 -0.19647233 0.027206335 -0.06647702 -0.117266215
-0.022392325 -0.09744686 -0.0147400275 0.04006875 -0.08383727 0.012751744 0.049075488 -0.055129785
0.015513662 0.013327917 -0.09052397 0.2139233 0.17354682 0.08740831 0.22077578 -0.047088232
-0.18120174 -0.15399998 0.09295121 -0.004349389 -0.036715325 -0.12577939 -0.19944389 -0.16239753
0.00051785103 0.034665436 0.08367552 -0.09521254 0.23981419 0.20305422 -0.019816363 -0.098321125
-0.082909115 0.065399304 -0.052802946 -0.1586443 -0.0032849256 -0.019364746 -0.042236347 0.1339546
-0.14231332 -0.06321146 0.1828484 -0.054403804 0.23159774 0.07468932 -0.16420881 0.08366859
-0.044578224 0.0061576664 0.1283017 -0.2049102 0.006957511 0.10749948 0.14262067 0.018892512
0.07724139 0.07477131 -0.035441037 -0.066997394 -0.1016994 0.072639436 0.2036994 -0.031130167
-0.18445632 -0.048623376 -0.62297696 -0.087151684 -0.08418318 0.092239834 -0.13866399 -0.0318044
0.0470839 0.050569486 -0.06573531 -0.1534081 -0.050638758 0.12124375 -0.08413046 0.15894897
0.08925803 -0.036498714 0.02776005 -0.11750487 0.06842698 0.0013585566 -0.1440942 0.05498191
-0.12956177 -0.09503179 0.15693201 -0.3331787 0.06113258 0.1375753 0.1418758 0.052850597
-0.27589938 0.098244116 -0.24816734 0.08925828 -0.10562742 -0.10205415 0.022363184 0.17078662
-0.13227098 0.120678104 0.20803416 -0.13938026 0.08701045 -0.08598074 0.0024179907 -0.055023044
0.10055393 0.12231104 -0.0043746065 -0.052379835 0.082911216 -0.043469075 0.12285664 -0.1951397
-0.004032281 0.019711427 -0.009382725 0.219448 0.16265228 -0.056912802 -0.07644679 -0.119097695

model.0.bias f4 [128]
00000000: f60c 283d 4582 9c3d bf84 69bd e3c3 56bd
00000010: 91d4 3dbc 7074 8fbd 1f53 fe3d 324f d83d
00000020: eb5f ebbd 34a1 793d f5fa 78bd 8e19 a6bd
00000030: df7c 22bd 95d4 5bbd 1694 a5bd 23f5 d93b
00000040: d7b4 e83d c3b2 46bc dc15 aabc 9da1 0c3d
00000050: 9337 adbd dfb0 c13d e825 323e ec4b a2bc
00000060: 4edb 2e3d 79e9 333e a6ce 2b3e 6157 c3bd
00000070: 677e 40bd dcec b1bd 1a55 023e bc18 043e
00000080: e638 a3bd 9b2c b23d 9a25 303d 3c6d d9bd
00000090: 5d73 c53d ad00 da3d 69d4 433d ce95 c03c
000000a0: ce41 803d 56cf 093e 9dea 393e e5d5 3a3d
000000b0: 3149 b23d 41b4 8ebd 1a02 d03d 04cf bebd
000000c0: 6b8c 10be b7c6 8b3d ec85 553d 4135 9c3c
000000d0: 420b 9b3d f56a 1a3d ccb1 0c3d 5a30 923d
000000e0: 1cd4 a9bd 62f0 263c 0b45 033d 41a1 c1bc
000000f0: 67a9 03be 16ce 593d 0602 c83d c22d 78bd
00000100: f6a2 473e 06c9 623d 8855 e53d 7120 94bd
00000110: 31d1 acbd 0a22 8abd cad7 95bc 745d 54bd
00000120: e51c 083e 2c03 01be a039 a4bd bc61 00bd
00000130: 01ee 183e b921 6cbd 3053 183e 7e02 db3d
00000140: 0aff 01bc 75c5 dd3d bd15 9d3d 621f a9bd
00000150: e395 a13c a94a 343e 013c ce3d 02e5 8cbd
00000160: 6c70 4bba 01b3 0f3e 7d75 103e 46af 58bb
00000170: 5605 edbd e6df eabd 7079 5ebc 6033 b93d
00000180: 1cc4 a9bc 1512 07be d238 72bd 5770 3a3e
00000190: 06a1 efbd ba8e 0cbe f8ba 0b3e 0fda 4b3e
000001a0: 23c5 10be 9c86 04be 5eb6 50bd 5abc 123e
000001b0: f791 59bd 07fc d83b 2909 103e 90b1 96bc
000001c0: 2506 24bd 09af dfbd bb2b 473d 2c26 363e
000001d0: f71e 823d 13cc 113e 78e4 833c 5a91 c23a
000001e0: 918e aabc fc8d cf3d dccd 4dbd 97e9 17be
000001f0: ebae ecbc b585 903d 8f52 153e bc93 0cbd
0.041027986 0.076420344 -0.057011362 -0.052432906 -0.011586324 -0.070046306 0.12418198 0.1056198
-0.11492904 0.06094475 -0.060786206 -0.08110343 -0.039669868 -0.05366953 -0.08084886 0.006651537
0.113626175 -0.012127581 -0.020762376 0.034333814 -0.084578656 0.094575636 0.17397273 -0.019811593
0.042689614 0.17569532 0.16778049 -0.095381506 -0.046995547 -0.086877555 0.12727776 0.1290006
-0.07969837 0.08699914 0.04300461 -0.10616538 0.096411444 0.1064466 0.047809992 0.023508932
0.06262551 0.13457999 0.18155904 0.045614142 0.087053664 -0.069679745 0.10156651 -0.09316829
-0.14116065 0.06825011 0.05212967 0.019068362 0.07570507 0.03769966 0.034349248 0.071381286
-0.0829241 0.010189148 0.032048266 -0.023636462 -0.1285759 0.053175054 0.09766011 -0.060590513
0.19495758 0.055367492 0.111979544 -0.0723275 -0.084383376 -0.06744774 -0.018291373 -0.051846936
0.13292272 -0.12598866 -0.080188036 -0.031343207 0.14934541 -0.057649348 0.14875484 0.10693835
-0.007934341 0.108286776 0.07670162 -0.08257939 0.019724792 0.17606606 0.100700386 -0.06879617
-0.00077605876 0.14033128 0.14107318 -0.0033063455 -0.115732834 -0.114684865 -0.013578758 0.09043002
-0.020723395 -0.13190491 -0.05913622 0.18206917 -0.11700635 -0.13726321 0.13645542 0.19907402
-0.14137702 -0.12941974 -0.05095517 0.14329663 -0.05311772 0.006621841 0.14065994 -0.018395215
-0.040044922 -0.10922057 0.04862569 0.17787999 0.06353562 0.14238004 0.016100153 0.0014844344
-0.020819934 0.10134503 -0.05024515 -0.14835201 -0.028892001 0.070567526 0.14582275 -0.034320578

model.2.weight f4 [256, 128]
00000000: a229 afbd 4861 4dbd 15a6 d1bd cf62 c13d
00000010: bfe5 bb3d 68cf fc3c a9a5 82bc 936f 64bd
00000020: cade 7b3d 02c9 a83b 7f5f 603d 8b29 0d3d
00000030: 8c49 023e 15a6 98bd 167a 28bc 3b9c a23b
00000040: 486f 9ebd 6078 bfbd c0af 3abe 45d6 0abe
00000050: ce65 943d 2927 553d 3420 6fbd 68cd f2bb
00000060: a856 c1bc fb76 d23d f6c6 d8bd 473b 8abd
00000070: 3f8a a1bd d725 cb3d 7f6d 5fbd 960a 103d
00000080: b7e0 ce3c b99c 973c 84eb 763c 7591 20bd
00000090: 640c df3c 3630 5bbc 3487 14be 97e9 9b3d
000000a0: cf22 1bbd c20e 72bd 7c66 e2bc eb9d 3c3d
000000b0: 4e01 0d3d ecdd a03b 398f 30bd 739e 89bd
000000c0: 5264 8fbc 0d3c 14be c465 adbd 970d 83bd
000000d0: 83df 55bd 09f0 02be 74d8 803b ff9e b73c
000000e0: cec5 953d baea c1bd 6b7b 793d 03b1 87bd
000000f0: dd85 823d dc7c 85bc d575 603d c676 91bd
00000100: f57f 873d 79d5 fe3d 62e2 0a3e 3ffc 55be
00000110: c960 563d 23e7 c23c e73b 083d e83f 50bc
00000120: fb99 bf3c 4275 adbd b809 82bd 00e7 a63d
00000130: 7c98 07be 7749 33bd 1d1d 933d bd7c 033d
00000140: b867 103a f331 533d d8ff 893d c7e6 2fbd
00000150: 3f93 0fbd 4006 52bd 6924 823c 672b 2f3d
00000160: a451 913d 39dd 793d e7c1 5e3c fdf6 45be
00000170: 435a 3fbd 1497 093e ade4 1cbd b116 ef3b
00000180: 72ad 39bc 1c48 0abd 5b12 55be 27c8 45bd
00000190: 0a50 fe3c 03ec b5bd 6734 07be 288c debc
000001a0: bc13 883d 2c88 e23d 40b0 df3d babc 8dbd
000001b0: 2abd d73d 54a6 adbb 2a0e 9b3c 8867 78bc
000001c0: 251b 2abe 653f 5e3d 4ba0 40bd 6240 7a3d
000001d0: 66a6 703d 8304 4f3d 26f6 46bd b001 b13c
000001e0: 7e67 d33d ee3a 3fbd f110 5c3d bcf5 cb3b
000001f0: 8823 083d 7d02 88bd 4ca6 d9bd 3e82 5b3a
00000200: 05ee 503d e124 93ba c026 143c 97a9 113d
00000210: a8a9 69bd 5665 91bc 6f43 a53d 6852 84bc
00000220: c72a c73d ed98 95bd c34d 09bd 8b58 703c
00000230: 17c9 72bd 7557 0abd e39e 5fbd 891b e5bd
00000240: 31f1 1a3d ea71 a73d 860f bf3c 7f9d ba3d
00000250: 5765 00bd c331 74bd c770 a73d 5a30 333d
00000260: fa4d abbd e6bc 733c dcf9 fd3b 5b6c 35bd
00000270: a164 0f3d 203f 66bd 65e3 27bd d9e3 bfbc
00000280: 8622 a9bc cfce 6ebd 551b 573c 28f5 ccbd
00000290: 3c2b 983d 253a 923c c409 a0be 424e 7bbb
000002a0: 2fe2 a5bd bd28 623d 2c9c 90bd fac0 f4bc
000002b0: 143b 8f3c f0ae abbc 598b 3fbd 6dd7 db3d
000002c0: 3910 73bd bb04 15bd b6c8 5e3d f6b9 433c
000002d0: c10b a63d 32ea 91bd 53aa 8c3d 0b06 90bc
000002e0: d312 52bd 5795 52bd 2fd2 fbbd 611d a73d
000002f0: 8f1e 9839 9d25 a8bd 00c3 4c3d 11fa 613d
00000300: 4c4d 013d d571 d73d ad0b ad3d 212a b73d
00000310: e466 c83d 0afd 973d e914 0d3d 17cd 1dbd
00000320: 0028 ce3b 07db c5bd 36c1 183d 4b1b 52bc
00000330: 1c7c 513d e602 8fbd c544 5fbd 0286 bc3d
00000340: 425d 1e3c 03a3 053d 2e98 bebd 154e 48bd
00000350: 3c1f 693c 2cc4 1ebd 6fc2 943d 6dfe 5abc
00000360: de30 2e3e 12eb 07bd 859f 2e3d 0e77 5bbd
00000370: df36 7c3c 3271 16be 1040 843d 735f 97bd
00000380: 7ab5 453b b680 abbd f53d c63c 011c e3bc
00000390: 93b0 ae3d 1768 b83d bcda 693d 5d79 a33d
000003a0: 373d dcbc 8c67 f9bd e502 80bc 2ff7 e13c
000003b0: 85b4 ae3c 0229 edbd 1133 753c 2b77 c9bc
000003c0: bd81 90bd 8973 f63c 5c44 bbbc 039d c0bc
000003d0: 84ca 16bd 881c 693d 081f a33d ef9c 95bd
000003e0: 7310 c7bc 7dc8 4bbc 6510 783d 6e02 9dbd
000003f0: 6040 b4bc 3c2d 933c 2e04 5d3c 1af8 5f3c
-0.08552863 -0.050141603 -0.10236756 0.09442674 0.0917468 0.030860618 -0.015948134 -0.055770468
0.061491765 0.005150915 0.054778572 0.034463447 0.12723368 -0.07453553 -0.010283014 0.004962472
-0.07736069 -0.093491316 -0.18231106 -0.135583 0.0724598 0.0520393 -0.05838032 -0.0074097402
-0.023600891 0.102766 -0.10584824 -0.067495875 -0.078876965 0.09919327 -0.054547783 0.035166346
0.025253637 0.018507348 0.0150708 -0.03920122 0.027227588 -0.013378194 -0.14504701 0.07612913
-0.037874993 -0.059096105 -0.027636759 0.04604904 0.034425072 0.0049092676 -0.043105338 -0.06719675
-0.017503891 -0.14476033 -0.08466676 -0.063990764 -0.05221511 -0.12786879 0.003932053 0.022414682
0.07313119 -0.09468599 0.060908716 -0.06625559 0.06373189 -0.01629489 0.054799873 -0.07102732
0.06616203 0.124430604 0.1356292 -0.20897005 0.052338395 0.023791855 0.033260252 -0.012710549
0.023388853 -0.08469631 -0.0634951 0.081495285 -0.13241762 -0.043771233 0.07183287 0.03210138
0.00055086194 0.051561307 0.067382514 -0.042944696 -0.035052534 -0.05127549 0.015886502 0.042766
0.0709565 0.06100199 0.013596035 -0.193325 -0.04671694 0.13436538 -0.03830402 0.007296406
-0.0113328565 -0.033760175 -0.20807783 -0.048286583 0.031044025 -0.08882906 -0.13203584 -0.027166441
0.06644389 0.11061129 0.10922289 -0.06920762 0.10534127 -0.005299369 0.018927652 -0.0151614025
-0.16611917 0.054259676 -0.047027867 0.061096556 0.05875244 0.050541412 -0.04857459 0.02160725
0.10322474 -0.04668706 0.053727094 0.006224362 0.03323701 -0.066410996 -0.10627422 0.00083735946
0.051008243 -0.0011226201 0.009042442 0.035562124 -0.057046562 -0.017748516 0.080695026 -0.016152576
0.09724956 -0.07304559 -0.033521425 0.014669548 -0.059273805 -0.03377481 -0.054594886 -0.111868925
0.037827674 0.08176024 0.023322832 0.09112071 -0.031346645 -0.05961777 0.081758074 0.043747284
-0.08364482 0.01487658 0.007750733 -0.04429279 0.035008077 -0.056212544 -0.040988345 -0.023424076
-0.020646345 -0.058302697 0.013129075 -0.10007697 0.07430121 0.017849991 -0.3125745 -0.0038346206
-0.08099782 0.055214632 -0.070610374 -0.029877175 0.017484225 -0.02095744 -0.04676375 0.107344486
-0.059341643 -0.036381464 0.05439063 0.011946192 0.08107711 -0.07124747 0.06868424 -0.017581007
-0.051287483 -0.051411953 -0.12295949 0.081599005 0.00029014467 -0.08210299 0.049990654 0.055170123
0.031567857 0.105197586 0.084494926 0.08943582 0.0978525 0.0742131 0.03444377 -0.038525667
0.0062913895 -0.09660917 0.037293635 -0.01282389 0.05114375 -0.06982975 -0.054508943 0.092052475
0.009665789 0.032626163 -0.0930637 -0.04890259 0.014228638 -0.038761303 0.07263648 -0.013366324
0.17010829 -0.033183165 0.0426326 -0.053580336 0.015393942 -0.14691618 0.064575315 -0.07391252
0.0030167983 -0.08374159 0.024199465 -0.027723314 0.085297726 0.090042286 0.057093367 0.079821326
-0.026884658 -0.12177953 -0.01562638 0.027583687 0.021326313 -0.11580087 0.014965788 -0.024592957
-0.070559956 0.030084388 -0.022859745 -0.023512369 -0.036814228 0.056911975 0.07964903 -0.07305323
-0.024299836 -0.012437937 0.06056251 -0.07666479 -0.022003353 0.017965905 0.013489766 0.013669992

model.2.bias f4 [256]
00000000: 2b7d 87bc 39e5 e83b 4f2b 7d3d 1e5e 1abd
00000010: 1dc2 d13d 63f9 ac3d c3cf 77bd 2fe4 1d3e
00000020: c2f8 9ebc 07ec 4f3d 2413 9c3c c171 de3d
00000030: 9315 75bb f5a8 20bd 9f30 66bb f955 113d
00000040: 9be8 b63c 636a 3bbd eadb c73d ad9f 023d
00000050: e144 3dbd 2f45 833d 2021 a03c 0f98 c8bc
00000060: 3a90 eb3d fd52 a53d 7095 963d 4e8c 84b9
00000070: a169 20bd b682 74bd 7c3b dfbb 9e5b 603b
00000080: e124 9ebc e200 fd3c 8a02 c43d 3d97 9c3c
00000090: 86f3 d13a 9567 c6bd 8903 bdbd a4be 48bd
000000a0: 5c40 fbbc 941f 0abc b356 e43d bb60 923d
000000b0: 036e 803d c8fb 893c ceb2 8cbd 5220 82bd
000000c0: fd4c 02bd 7375 7a3d c510 323c 2b4b a83d
000000d0: 6dd6 8cbc 1ad5 f53c 4712 8d3d 8aee a03d
000000e0: aa98 2e3d abec d1bd 1b2b 56bd ff32 3e3d
000000f0: 4162 e2bc 5a21 753d 30ab 9b38 b874 bc3c
00000100: dc01 cd3d f91a 83bd 4f9b 2c3d 08c7 723d
00000110: 1382 bcbc 6f43 5f3d f632 a63c f002 64bd
00000120: 194b e53c f0f9 32bd 2d34 0ebd 2b76 893d
00000130: c5e1 ad3d 2a1a 33bd c043 683d e693 353d
00000140: be8b f2bc 9376 15bd 03c0 2bbd 005f 7c3d
00000150: 1354 393d f3b6 ff3d 559e 84bd 75ca 9a3d
00000160: c70c 063e 95de f53d 0bf9 ed3d fb1b e83c
00000170: 46c7 313d 5f6f 8b3d 0683 dc3d 82a4 433d
00000180: 0905 1d3c a97d 00bb 5975 893d 772e 85bc
00000190: 6250 32bd fad7 aa3d 8cde 093e 8990 f63d
000001a0: b449 873c b16f 9abd bb0b ac3d 79cc 723d
000001b0: 456f 91bd 66ac 3d3d 535a 74bd 5c9f ce3c
000001c0: 25d6 083d 144c 20bc 4baf 4a3d 6ab2 47bc
000001d0: 2079 913d 3515 af3d 111a a0bc 8bc7 be3d
000001e0: 6f56 753c 6245 573d fdb4 c5bd 92fb bc3d
000001f0: 23a9 4dbc aa84 93bd 6c1b b13d ecf9 433d
00000200: 6929 813d 2918 08bd 0956 6dbd cfa7 933c
00000210: df4c fa3c 0987 b63c 0357 ce3d 233b 063d
00000220: 96de b9bd ef4c 6dbd 4d7b f93b ee7d 173d
00000230: a22b 7f3d 4ce4 b43c eee1 a43c 1dad 58bd
00000240: 2037 30bd 6262 b23d 1e1f da3c 25fb 7e3c
00000250: 37dc 1abd 0ab8 743d 7e65 bdbc 9c4a 4f3d
00000260: 8061 183d 5d74 1bbd 9814 65bd 92c2 e53d
00000270: ba2f 443d 3fa6 d1bc 19e7 bd3c 04f8 88bd
00000280: 4232 7a3b 4f10 88bd 3011 063c b849 70bd
00000290: 8254 c13d aeb1 b2bc a1a2 bdbd 558e 443c
000002a0: a0e0 a43d ed8f 52bd 91f2 79bd c715 2bbd
000002b0: ae78 5ebd a731 81bd a0e9 633d 7987 fd3b
000002c0: b383 f83c 43c6 d93d 0f8e 823d cc3d cc3c
000002d0: d8a7 9abd 9769 c03d fcbf 8fbd bb0c d23d
000002e0: bec3 f8bc 82b4 7f3d 104e 0a3d 617e da3c
000002f0: 819f 84bc be5e a2bc fdff a53d 0764 cdbd
00000300: 4c27 cd3b 818b 043c ae33 42bc dc1b 943d
00000310: 3ed8 0cbd 71da 95bb 33cb 983d fd2c 9a3d
00000320: 121b df3c 4e40 afbb db3a 883d 2948 bebd
00000330: 320b 95bd 7eab 5cbd 6261 e1bd 90cc bc3c
00000340: f3f2 04bd 7967 cfbd 0bc3 d3bc 6505 b8bd
00000350: 77af ca3c ad9a 2abc d15f 5c3d 55a1 0c3d
00000360: cb0f e9bc 18b1 833c 951b 9cbd d89a d2bc
00000370: 9a62 18bd c900 90bd b4d6 243c 6b02 263d
00000380: db46 ae3d 8508 053e 0e8a 2abc 18b7 4dbd
00000390: c652 7bbd bbfa 753d 2563 82bd 2bd9 c33c
000003a0: 1b87 bfbd 23c0 c93c 7b94 03bd bed3 83bc
000003b0: 2f5b 15bc ff78 6ebd 4251 023c 6e96 80bd
000003c0: a70e 563c 6ead 413d 0c37 71bd c55f 26bd
000003d0: 1f79 86bd cff1 a83b ba8b b6bc 268b b0bd
000003e0: 7847 9a3d 488e 92bd 413a c1bc 3707 a8bc
000003f0: e992 af3c 43bc a03d 6ca7 bbbc 5576 a5bc
-0.016539177 0.0071074036 0.06180888 -0.037687413 0.10242102 0.08446004 -0.06050087 0.15419076
-0.019405726 0.050762203 0.019052096 0.108615406 -0.0037396892 -0.03922363 -0.0035124195 0.03548238
0.022327712 -0.045755755 0.09758742 0.03189056 -0.046208266 0.0640968 0.019547045 -0.02448657
0.115021184 0.080724694 0.07352722 -0.00025281537 -0.039163236 -0.05969497 -0.006812511 0.0034234296
-0.019304695 0.03088421 0.09570797 0.019115085 0.001601801 -0.096877255 -0.0922919 -0.049009934
-0.030670337 -0.00843038 0.11149349 0.07147356 0.06270983 0.016843691 -0.06870042 -0.06353821
-0.031811703 0.061147165 0.010868256 0.08217462 -0.01719209 0.030008841 0.06888252 0.07857998
0.04262606 -0.10250219 -0.052287202 0.046435352 -0.027634742 0.05984626 7.422862e-05 0.023004875
0.1001012 -0.06401629 0.0421403 0.059271842 -0.023011243 0.05450767 0.020287972 -0.055666864
0.02798991 -0.04369539 -0.034717727 0.06711992 0.08490328 -0.043726124 0.056705236 0.0443305
-0.02960765 -0.036490034 -0.041931164 0.061614037 0.045246195 0.12486067 -0.06475512 0.07558147
0.13090812 0.12005345 0.11619767 0.028333655 0.043402933 0.06808352 0.10767178 0.04776431
0.00958372 -0.001960615 0.067118354 -0.016257508 -0.04353369 0.083419755 0.13463801 0.12039287
0.016514637 -0.07540835 0.08400675 0.05927703 -0.07101301 0.04630699 -0.059656452 0.025222473
0.03340735 -0.009783763 0.04948358 -0.012188533 0.07103181 0.08548967 -0.01954368 0.093154036
0.014974221 0.052556403 -0.096536614 0.09227671 -0.012552532 -0.07203038 0.086478084 0.047845766
0.063067265 -0.033226166 -0.057943378 0.018024353 0.030554233 0.022281187 0.1007519 0.03277124
-0.09075658 -0.057934698 0.0076135756 0.03698533 0.06229747 0.022081517 0.020127263 -0.05289947
-0.04302132 0.08710171 0.026626166 0.015562807 -0.03780767 0.059745826 -0.023119684 0.050608262
0.03720236 -0.03795277 -0.055927843 0.11218752 0.047897078 -0.025591968 0.023181485 -0.0668793
0.0038176929 -0.066437356 0.008182809 -0.058664054 0.09439947 -0.02181324 -0.092595346 0.011996825
0.08050656 -0.05140679 -0.061022345 -0.041768815 -0.054314308 -0.063082986 0.055642724 0.007737097
0.030336237 0.106335185 0.06374752 0.02493181 -0.07551545 0.0939514 -0.0701904 0.102563344
-0.030366775 0.062428005 0.033765852 0.02667159 -0.016189339 -0.019820567 0.081054665 -0.10028844
0.006260788 0.008089901 -0.011853142 0.07231876 -0.034385912 -0.0045731594 0.07460632 0.07528112
0.027234588 -0.005348242 0.06651851 -0.09291107 -0.07277526 -0.053874485 -0.110049024 0.023046762
-0.032458257 -0.10127158 -0.02584984 -0.08985404 0.024741871 -0.010412854 0.053802315 0.034333546
-0.028449913 0.016075656 -0.07622448 -0.0257086 -0.03720341 -0.070314 0.010060955 0.04052965
0.08509608 0.12991531 -0.010408891 -0.05022344 -0.061358236 0.06005357 -0.063665666 0.023907265
-0.09351941 0.02462775 -0.032124024 -0.016092177 -0.009115978 -0.05822086 0.007953944 -0.06278692
0.013065017 0.047284536 -0.058890387 -0.040618677 -0.06566071 0.005155779 -0.022283424 -0.086202905
0.07533163 -0.07156044 -0.023587348 -0.020511253 0.021432357 0.07848408 -0.022906981 -0.020198027

model.4.weight f4 [4, 256]
00000000: e477 b2bd f52f 23bd 72fa 233d 0703 62be
00000010: 6d26 0b3e e551 4a3d e3e7 033d 875c 873d
00000020: 1603 1cbe 995f 8f3d 5f25 2c3e 3da2 923d
00000030: 59ae d7bd 4f4a 7a3e c08e febb 8df8 03bd
00000040: 74a3 533d 7d13 10be ef33 2c3e 3d89 59bd
00000050: c8d6 fe3d be0a ad3d 861e ecbd 0ef3 ddbc
00000060: efda b83c 1433 e43d cf08 babd 8eaf 1f3e
00000070: 8715 213c 9e50 28bd e66f 37bc c6bf 3ebe
00000080: e304 aa3d b690 f5bd 00c2 2a3d 186e 2bbd
00000090: 845f c53d ae99 843d 9be0 37bd e830 2d3d
000000a0: 5d73 973e 8311 623d 2195 e83d 7e92 fc3c
000000b0: 373b d3bd ddd4 cd3d a0c7 24bc 9f12 a83c
000000c0: 9b8d d23c 6887 733d 0ece 17bd a4f7 8f3c
000000d0: 05c8 a7bd 6ec8 f23d c85c 14be 2edd af3c
000000e0: b1d8 a43d 71b8 e8bd 513f 9c3d 77e6 393d
000000f0: 149b 563d c650 0b3d 8322 77bd 1172 693e
00000100: ca37 183e d7d2 b23c a9b3 da3d 32fd da3c
00000110: 8e09 63be 60ec 33bd 47c2 153e 4c46 6c3d
00000120: a39c 6ebd affe d6bc c0c8 2cbd 7bba 58bc
00000130: 8f1a 883d 6550 a63d dfcb 373d 4841 0b3e
00000140: d55b 903e 84d2 c3bc bf73 f3bd d41c 693e
00000150: dba9 31bc 54db 823d cbe0 0a3e b743 15bb
00000160: ab47 893d bd6c e93d aea6 5f3d 30c3 d3bd
00000170: db4a 813b 29d8 cf3d 0c3c 973d eb1c 003e
00000180: 550c ce3d 6670 913d bff3 233e 7ac2 343d
00000190: d0c9 143d 3a9e 973d 1f41 cc3d 94ce 5d3d
000001a0: f384 67bd 5c5e ddbc bf05 3f3d 44bf 183e
000001b0: d282 2fbd 3984 32bd 7cb8 193d 71af 343d
000001c0: 28c5 0bbc 6907 cc3d 160f be3d e661 0f3e
000001d0: 9d85 9ebd 90f2 a439 f5e0 a73d 97d1 583e
000001e0: 059c bc3d 8d30 98bc 4e2e babd 2641 2ebb
000001f0: 725c 75be a980 75bc ee7a f93b dc49 a33d
00000200: 3f1f 223e 42b0 e33d 1641 afbd ed4a 953c
00000210: 31a9 f43d 848f cb3d 41b5 0a3d b141 24bc
00000220: 69cd 83bd 107b 29bd 4771 99bd 616d 36be
00000230: 681d 193e 74a4 63bd 48f4 ac3c 19f0 983d
00000240: 6f1c a5bc 3ef6 ce3d a434 0abd 2590 8d3c
00000250: 0e37 223d dd88 d53d d47e 26be fa06 923c
00000260: 81bb 5cbd 3d54 7e3e 1ba7 fdbc 6f88 373e
00000270: ce0d a73b 3f6e b33c f46b b6bd 762c 62bd
00000280: 9d2e 933c 7ab7 06be d032 073e 650e 2dbd
00000290: 7772 4d3d ab05 d8bd 62a6 a4bd 67a0 9a3c
000002a0: e6c7 013d 4c58 2fbc be7f 11be c87c 24be
000002b0: 4535 873d b8dc 9dbd 808b 38bd 2561 803e
000002c0: 48ad 2a3e 5987 a83d 6d8e 823c 9eeb 9abd
000002d0: 2dba ff3d 729c f03b 96b3 f43d 9803 e93d
000002e0: 989d 2cbc fc91 14bc ae98 513d fad6 0b3e
000002f0: 5718 85bd 784c 853d 089b 41be a845 91be
00000300: 1ed5 9a3d 3989 31be 7cb0 943d 5a43 fd3c
00000310: cd6c 18bd 58cf 213e 6e35 0c3e 884f 913e
00000320: 8d1d 3dbe 4a14 58bd 1193 0d3d bfef 46bc
00000330: a21c 3dbe 7518 103d 981e 45bd a24a 05bd
00000340: 7847 8bbc 4f46 6abd 5019 7dbd d6c8 81bc
00000350: 1422 3e3d b0b4 22be a59e cb3d 4ce0 593e
00000360: bd76 b73d b723 543d aad6 b33d abd8 083d
00000370: 9b00 f13a 985c 6abe 6c5d cbbd f547 03bd
00000380: 23ff 993e f55a 343e b659 4bbe 2916 273e
00000390: 8dd7 9ebc 1e7b 893c 07ca 77bd 7ce4 4d3e
000003a0: c6c3 0f3e 1ea5 193e 1790 803d 3c04 423d
000003b0: dbba 01be e68e 10be 9e59 bc3c 71ac 413e
000003c0: dcf7 413e 15cc 4bbe 53cf 5abd b2cf a83d
000003d0: 2c36 3bbe 8200 5b3e b3f3 d73c c778 2dbd
000003e0: 87bd cdbc 6c34 3d3d bfc6 11bc 7b4e fbbd
000003f0: 8221 123e b383 e83d 8ec2 df3d cecd 98bd
-0.087142736 -0.039840657 0.040033765 -0.22071467 0.13588877 0.049394507 0.032203566 0.06609445
-0.15235552 0.07000656 0.16811131 0.07159851 -0.10531301 0.24442409 -0.007768482 -0.03221946
0.051669553 -0.14069934 0.16816686 -0.053109396 0.1244331 0.084493145 -0.115292594 -0.027093437
0.022565333 0.11142555 -0.09083711 0.15594313 0.009831793 -0.041092508 -0.011196112 -0.18627843
0.08301713 -0.11990492 0.04168892 -0.04185304 0.09637359 0.064746246 -0.044891935 0.04228297
0.29580203 0.05519248 0.11356569 0.030831572 -0.10314029 0.10050366 -0.01005736 0.020516692
0.025702288 0.059455305 -0.037061743 0.017574139 -0.081924476 0.11854635 -0.14488518 0.021467771
0.08049143 -0.113633044 0.07629264 0.045385804 0.052393988 0.03401258 -0.060335647 0.22797419
0.14865032 0.021829052 0.10678799 0.026732061 -0.22171614 -0.043926597 0.14624892 0.057684228
-0.05825485 -0.02624449 -0.042183638 -0.013228054 0.06645691 0.08120803 0.04487216 0.13599122
0.28195062 -0.023904093 -0.11887311 0.22764903 -0.010843719 0.0638949 0.13562314 -0.0022775957
0.06703123 0.11397693 0.054602318 -0.103399634 0.003945691 0.10148651 0.073845 0.12511031
0.10060946 0.071015164 0.1601095 0.04413078 0.036325276 0.07403226 0.09973358 0.054152086
-0.056523275 -0.027022533 0.04663634 0.14916712 -0.04284937 -0.04358313 0.037529454 0.044112626
-0.008530892 0.09962351 0.09280221 0.14002189 -0.077403285 0.0003146124 0.08197204 0.21173702
0.09209446 -0.018577838 -0.09090863 -0.0026589124 -0.23961046 -0.014984288 0.0076135313 0.07973072
0.15832232 0.11117603 -0.08557336 0.018224204 0.11946333 0.09939483 0.033864263 -0.010025428
-0.06435663 -0.041377127 -0.07492309 -0.17815162 0.14952624 -0.055576757 0.021112576 0.0746767
-0.02015516 0.10105561 -0.03374161 0.017280648 0.039603285 0.10426495 -0.16259319 0.017825592
-0.053889755 0.24836822 -0.030963471 0.17923139 0.005098081 0.021903155 -0.08907309 -0.055218183
0.017966563 -0.13155928 0.13202977 -0.042250056 0.05015799 -0.10547956 -0.080395475 0.018875314
0.03168478 -0.010702204 -0.14208886 -0.16063225 0.06601957 -0.077081144 -0.045054913 0.25074115
0.16667664 0.082289405 0.015937055 -0.07564472 0.12486682 0.0073428685 0.11948316 0.113776386
-0.01053562 -0.0090680085 0.051170997 0.13656226 -0.06498783 0.06508726 -0.18906796 -0.28373456
0.0756018 -0.17337503 0.07260224 0.030915905 -0.037213136 0.15801752 0.13692257 0.2838099
-0.18468304 -0.052753724 0.03456408 -0.012142121 -0.18467954 0.035179574 -0.04812488 -0.03254188
-0.017001852 -0.057195958 -0.061791718 -0.015842836 0.04641922 -0.1588924 0.099423684 0.21276969
0.089581944 0.051791873 0.08781178 0.033409756 0.0018387021 -0.22886884 -0.09929928 -0.032051045
0.30077466 0.17612822 -0.19858441 0.16317047 -0.019389892 0.01678234 -0.060495403 0.20106691
0.14039525 0.15004393 0.06277483 0.04736732 -0.12668936 -0.14117011 0.022991952 0.18913437
0.18942207 -0.1990207 -0.053420376 0.0824274 -0.18282384 0.21386912 0.026361322 -0.04235151
-0.025114788 0.04619257 -0.008897482 -0.12270828 0.14270595 0.11353245 0.1092578 -0.07461129

model.4.bias f4 [4]
00000000: 7041 a73b 3434 a13d 6a55 93bc 7e8b 3f3d
0.0051042363 0.07871285 -0.017985065 0.04676389
