Reacher/last_actor.pth (torch_old, 13209 bytes, 18 tensors)

model.0.weight f4 [33]
0	0x3f43ee1d	0.7653521
1	0x3f0556e1	0.5208569
2	0x3f45a812	0.7720958
3	0x3e802136	0.25025338
4	0x3e4cd4f3	0.20003109
5	0x3e62b5a9	0.2213961
6	0x3ea6459a	0.32474977
7	0x3e26c625	0.16286524
8	0x3e465780	0.19369316
9	0x3e216b45	0.15763576
10	0x3e60d9e8	0.21958125
11	0x3e2d62b8	0.1693219
12	0x3e66b7c6	0.22531042
13	0x3fa1a75b	1.2629198
14	0x3f2be1b6	0.6714128
15	0x3f991821	1.1960489
16	0x3ea1a291	0.3156934
17	0x3ef081f2	0.4697414
18	0x3e97816c	0.2959093
19	0x3ec73239	0.38905504
20	0x3e447a1f	0.1918721
21	0x3e701ea1	0.23449184
22	0x3dfbd4a7	0.122964196
23	0x3f22f35c	0.63652587
24	0x3ef1e621	0.47245887
25	0x3f0a460f	0.5401315
26	0x3fb40a21	1.4065591
27	0x3d142190	0.03616482
28	0x3f9553bf	1.1666182
29	0x3ebf3090	0.37341738
30	0x3e9c3612	0.30510002
31	0x3f6e9794	0.9320004
32	0x3f56145d	0.8362482

model.0.bias f4 [33]
0	0xbe140494	-0.14454871
1	0xbea738a3	-0.32660398
2	0x3e0efe9e	0.13964316
3	0x3d1bec91	0.038067404
4	0xbb6d7a5d	-0.0036236264
5	0x3ceaddba	0.02867018
6	0x3d8897e4	0.06669596
7	0xbc47b1b1	-0.012188361
8	0x3df319e9	0.11870176
9	0xbdc265c7	-0.09492069
10	0x3d6fefc9	0.058578286
11	0xbd8790f3	-0.06619444
12	0x3d887687	0.06663232
13	0xbd46d802	-0.048545845
14	0xbd31d07d	-0.04341172
15	0xbd2ac258	-0.041689247
16	0x3dbee333	0.093206786
17	0xbdcaef3e	-0.09908913
18	0x3dc2ab5b	0.0950534
19	0x3d802a9a	0.062581256
20	0x3d142934	0.036172107
21	0x3d2bdcff	0.041958805
22	0xbdbda338	-0.09259647
23	0x3e583cbf	0.21116923
24	0x3db052ed	0.08609567
25	0xbd0a04af	-0.033695873
26	0x3d2f69a6	0.042825364
27	0xbc3eddac	-0.01164953
28	0xbaa9f0a2	-0.0012965391
29	0xbdd61692	-0.10453524
30	0xbe6d3026	-0.23162898
31	0x3e86d543	0.2633458
32	0xbbd3d56b	-0.0064646504

model.0.running_mean f4 [33]
0	0xbea76138	-0.3269136
1	0xc02111d0	-2.5167122
2	0xbe51ea6b	-0.2049958
3	0x3f40f0aa	0.75367224
4	0xbd1fd8d8	-0.039025158
5	0x3cd31156	0.025765102
6	0xbcb90e42	-0.022589806
7	0xba2ea639	-0.00066623423
8	0xbc75dedd	-0.015006748
9	0x3be33601	0.006933928
10	0x39964863	0.00028664162
11	0x39e1ca5e	0.0004306612
12	0x3d069b46	0.032862924
13	0xbe94f66f	-0.29094264
14	0xc0264f43	-2.5985878
15	0xbdc41bd6	-0.09575622
16	0x3ccff890	0.025387079
17	0x3cbaf988	0.022824064
18	0x3d520e9d	0.051283468
19	0xbeccbca6	-0.39987677
20	0x3db51a9f	0.08842968
21	0x3bea8445	0.007156881
22	0xbd0bcb5e	-0.034129493
23	0xbd016467	-0.03158989
24	0x3e0bd0e1	0.136539
25	0xbc96e977	-0.018421872
26	0x3d05d4d7	0.032673683
27	0xbf7ffffc	-0.99999976
28	0x3e317e66	0.17333373
29	0x00000000	0.0
30	0x3f7ffffc	0.99999976
31	0x00000000	0.0
32	0xbd01e3f3	-0.03171153

model.0.running_var f4 [33]
0	0x407cdac5	3.9508526
1	0x3f4d18f6	0.8011621
2	0x409abea2	4.8357706
3	0x3e39cee0	0.18145323
4	0x3d9445c6	0.07239871
5	0x3d85c175	0.065310396
6	0x3de19b26	0.1101592
7	0x3f086d6b	0.5329196
8	0x3da5e77f	0.08100795
9	0x3e1c4e29	0.1526419
10	0x4037948c	2.8684416
11	0x4008b7f8	2.1362286
12	0x4055a9ac	3.338481
13	0x4196a4de	18.830502
14	0x40261ab4	2.5953798
15	0x41a76711	20.925325
16	0x3dc88d2c	0.097925514
17	0x3e456274	0.19275838
18	0x3dc650c6	0.09683375
19	0x3ee59408	0.448395
20	0x4026fd3c	2.6092062
21	0x3f6ba1c0	0.92043686
22	0x3f5831d7	0.8445105
23	0x41248253	10.281817
24	0x410aa827	8.666053
25	0x4140737c	12.028194
26	0x42002fd1	32.046696
27	0x00000004	6e-45
28	0x41fffc7c	31.998283
29	0x00000004	6e-45
30	0x00000004	6e-45
31	0x00000004	6e-45
32	0x3eb76ba2	0.35824305

model.1.weight f4 [32, 33]
0	0xbec77fed	-0.38964787
1	0xbf4c38dd	-0.79774266
2	0x3e0c5a26	0.13706264
3	0xbecd6bd0	-0.40121317
4	0xbe632155	-0.22180684
5	0xbde81edc	-0.11334011
6	0xbedb670f	-0.42852065
7	0xbdcaa855	-0.09895388
8	0xbc698d65	-0.0142549025
9	0xbf2903b2	-0.66021264
10	0x3e33fb59	0.1757635
11	0xbe5b828d	-0.2143652
12	0x3cfbc66b	0.030734261
13	0x3f35d80d	0.7103279
14	0x3eda0d60	0.4258833
15	0xbea4405a	-0.32080346
16	0xbe922cd3	-0.28549823
17	0xbe2470b5	-0.1605862
18	0x3e097b21	0.13425876
19	0xbe9e077c	-0.30865085
20	0xbebeae2e	-0.37242264
21	0x3eb2b180	0.34901047
22	0x3ea453d5	0.3209521
23	0x3f0bdbe0	0.5463238
24	0x3e9c060d	0.30473366
25	0xbec9694c	-0.39338148
26	0xbf27a117	-0.6548018
27	0x3e82e086	0.25561923
28	0x3f24ce2e	0.64377105
29	0xbef71d34	-0.48264468
30	0xbeeebbe7	-0.46627733
31	0x3ee61a95	0.44942155
32	0x3f394934	0.72377324
33	0x3e295b2d	0.16538687
34	0x3e52902c	0.2056281
35	0xbf10919b	-0.56472176
36	0xbf4fd4e0	-0.81184196
37	0x3e4d5aba	0.2005414
38	0xbeac2750	-0.33623743
39	0x3c49684c	0.012292933
40	0xbee00ccc	-0.43759763
41	0x3d03f22d	0.03221338
42	0x3e031801	0.12802126
43	0xbee4fa11	-0.44722036
44	0x3e04d4c3	0.12971787
45	0xbe4a5f6c	-0.19762963
46	0xbf09aab1	-0.5377608
47	0xbd8067e0	-0.062698126
48	0x3e4b03cc	0.19825667
49	0xbdca3887	-0.09874063
50	0x3dbb4a2a	0.09145005
51	0x3e0dbd0d	0.13841648
52	0xbd8663c2	-0.06561996
53	0x3eb0c465	0.34524837
54	0xbe2c5257	-0.16828285
55	0x3d99328b	0.074803434
56	0xbe141f5d	-0.14465089
57	0xbe942ae3	-0.2893897
58	0xbed91b27	-0.42403528
59	0x3e0cf9ed	0.13767214
60	0x3d8ab879	0.067734666
61	0x3f8cc225	1.0996748
62	0x3ebb5bb4	0.365934
63	0x3d8f1982	0.06987287
64	0xbd9811f7	-0.074253015
65	0x3fa82538	1.3136358
66	0x3e6c587e	0.23080632
67	0x3dc5b473	0.096535586
68	0x3eec10b6	0.461065
69	0x3f253aa0	0.6454258
70	0xbf2c6234	-0.67337346
71	0xbf4449f2	-0.7667533
72	0xbf85c52c	-1.0450797
73	0xbead9cde	-0.33908743
74	0x3e65401f	0.22387742
75	0x3ee26273	0.44215736
76	0xbe59f005	-0.21282966
77	0xbca367a5	-0.019946883
78	0x3da7c747	0.08192306
79	0xbe5139df	-0.20432232
80	0xbf647eec	-0.8925617
81	0x3d41e4c1	0.047337297
82	0xbe794127	-0.2434126
83	0x3dd4ab18	0.10384196
84	0xbce2033a	-0.02758943
85	0x3d8d8428	0.069099724
86	0x3e6de1ba	0.23230639
87	0xbf057f6e	-0.5214757
88	0xbf3b5e05	-0.7319034
89	0xbe900b53	-0.2813364
90	0xbee88794	-0.45415938
91	0x3ee8d7ce	0.45477146
92	0xbf3e430f	-0.74321073
93	0x3df52d10	0.119714856
94	0x3f1c882c	0.6114528
95	0xbeb471b0	-0.35242987
96	0x3ce46b24	0.02788312
97	0x3eb11dd8	0.3459308
98	0x3f0f2ee6	0.55930936
99	0xbf284aba	-0.65739024
100	0x3f21be5f	0.6318111
101	0x3f97c780	1.1857758
102	0xbf03febd	-0.51560575
103	0x3e64d92b	0.22348468
104	0x3edd88d3	0.4326845
105	0xbed58cf4	-0.417091
106	0xbe1b085f	-0.15139912
107	0xbeaea3b2	-0.34109265
108	0xbe75b50e	-0.23994848
109	0xbdd749dd	-0.10512135
110	0x3e7b5014	0.24542266
111	0x3e280d86	0.16411409
112	0x3eace49f	0.33768174
113	0xbeade857	-0.33966324
114	0xbf43c60d	-0.76474077
115	0x3cdc290e	0.026875045
116	0x3d4a26ae	0.049353294
117	0xbeda1407	-0.42593405
118	0x3eceb787	0.40374395
119	0x3e84ddb4	0.25950396
120	0x3caed290	0.021340638
121	0x3e92a172	0.28638798
122	0x3e0e2c98	0.13884199
123	0xbe19c2c0	-0.15015697
124	0xbeaa892e	-0.33307785
125	0xbe937187	-0.28797552
126	0xbd4907d7	-0.049079742
127	0xbdcfbe50	-0.10143721
128	0x3cf2b473	0.02962706
129	0xbea2aa49	-0.31770542
130	0x3ebdffa9	0.37109116
131	0x3f82ffa5	1.0234267
132	0xbf1a4730	-0.60264874
133	0xbd5e9787	-0.054343726
134	0x3e2d98df	0.16952847
135	0x3e4c9777	0.19979654
136	0xbd524fec	-0.05134575
137	0x3ed6a5b4	0.41923296
138	0xbdabbac3	-0.08385231
139	0xbd865315	-0.065588154
140	0xbe475be8	-0.19468653
141	0x3d6c8718	0.057746023
142	0xbf13242a	-0.57477057
143	0xbf16c18e	-0.5888909
144	0xbdbfc34f	-0.09363424
145	0x3f59ba39	0.8504978
146	0x3ea2f398	0.31826472
147	0xbe1c94fa	-0.15291205
148	0x3ec30099	0.38086393
149	0xbeb69f89	-0.3566859
150	0x3edb6b22	0.42855173
151	0x3f1d1ee4	0.6137526
152	0xbd0f60ed	-0.035004545
153	0x3e81eba2	0.25375086
154	0x3bf67d6d	0.007522276
155	0x3f1118d4	0.5667851
156	0xbe7dd4c4	-0.24788195
157	0xbeb9c30c	-0.3628162
158	0xbe607e2b	-0.2192313
159	0x3dec1a07	0.11528402
160	0x3f963342	1.1734393
161	0x3dd82e5c	0.10555717
162	0xbeb67cd2	-0.35642105
163	0xbe306811	-0.17227198
164	0xbf073fd7	-0.52831787
165	0xbe6eb40b	-0.23310868
166	0x3ebfc1de	0.37452596
167	0xbe9af7ae	-0.3026709
168	0xbe91ef27	-0.2850277
169	0xbdbdc2d5	-0.09265677
170	0x3d064f58	0.03279051
171	0xbf6f2bdf	-0.93426317
172	0xbd7d6417	-0.06186303
173	0x3f5a6d25	0.8532279
174	0x3e75d507	0.24007045
175	0x3cb246da	0.0217623
176	0x3ef4a85e	0.47784704
177	0xbfbc3d8d	-1.4706284
178	0x3eb8bd21	0.36081794
179	0x3ebd8693	0.37016734
180	0x3ed1d93f	0.40986058
181	0x3da056a9	0.07829029
182	0x3f141e96	0.5785917
183	0xbc2b5b9e	-0.010458855
184	0x3e6c33f9	0.23066701
185	0xbe950a15	-0.29109254
186	0x3f15cbf0	0.5851431
187	0xbf03e625	-0.5152305
188	0x3f29d299	0.6633697
189	0x3f5b3df4	0.8564141
190	0xbe3a8be1	-0.18217422
191	0xbe4f7bb7	-0.20262037
192	0x3cbee41f	0.023302136
193	0xbf56b337	-0.8386721
194	0xbda813c1	-0.08206893
195	0xbdc8e7e4	-0.098098546
196	0x3efce70c	0.49395025
197	0x3f1c75fc	0.6111753
198	0xbd38ef4d	-0.04515009
199	0x3ea81d99	0.3283508
200	0xbf81d4af	-1.0143031
201	0x3ea8506b	0.32873854
202	0x3e6a976e	0.22909328
203	0x3c533633	0.01289134
204	0x3e1eb7f5	0.15499862
205	0x3d74ede9	0.0597972
206	0xbe2b8ca5	-0.1675287
207	0xbf067ef0	-0.5253744
208	0xbc200095	-0.009765764
209	0xbebcdb49	-0.3688605
210	0xbf01ddea	-0.5072924
211	0xbe953dab	-0.2914861
212	0xbd63858b	-0.05554728
213	0x3f31172c	0.6917598
214	0x3df311b4	0.11868611
215	0xbe11fed1	-0.14257361
216	0x3e590d69	0.21196522
217	0xbbb0b765	-0.005392956
218	0x3eab7f3b	0.33495507
219	0xbe2498e8	-0.16073954
220	0xbe962e50	-0.2933221
221	0xbf0e63a8	-0.55620813
222	0xbe06c016	-0.13159212
223	0x3ed9dace	0.42549747
224	0x3f53786a	0.8260561
225	0xbdf95a25	-0.12175397
226	0xbf1a6fea	-0.6032702
227	0x3dc18c17	0.09450548
228	0xbed2a482	-0.41141135
229	0x3eba8e3a	0.36436635
230	0x3f08461b	0.5323197
231	0x3e3b88f0	0.18313956
232	0x3d829211	0.06375516
233	0x3f43418a	0.7627188
234	0x3f3e3a53	0.74307746
235	0x3ed90227	0.42384455
236	0x3ed7efef	0.42175242
237	0x3ed729b4	0.42024004
238	0xbf90dc54	-1.1317239
239	0x3eac2038	0.3361833
240	0x3d7fcd77	0.062451806
241	0x3d8f87a1	0.07008291
242	0x3d0236a6	0.031790398
243	0xbe58c852	-0.21170166
244	0x3ed8df03	0.42357644
245	0xbf394049	-0.72363716
246	0xbf35d9d9	-0.71035534
247	0xbc8af2c9	-0.016961472
248	0x3eec020b	0.4609531
249	0x3e1bbc70	0.15208602
250	0xbd98e3bd	-0.07465313
251	0xbeb1cfbd	-0.34728804
252	0x3ec43218	0.38319468
253	0x3f2efdd0	0.6835604
254	0xbea8b735	-0.32952276
255	0xbed5483a	-0.41656667

model.1.bias f4 [32]
0	0x3f03382f	0.51257604
1	0xbdfc55b9	-0.12321038
2	0x3e91a132	0.28443295
3	0x3e72c855	0.23709233
4	0x3ead75ff	0.33879086
5	0x3e9f91ce	0.31165928
6	0x3e50da4c	0.20395774
7	0x3e36b802	0.17843631
8	0x3e03a280	0.12854958
9	0x3ca81c88	0.020521417
10	0x3dde5673	0.10856333
11	0x3fc5162b	1.539739
12	0xbf087ac0	-0.533123
13	0xbc6f3623	-0.01460031
14	0xbe8469cd	-0.2586197
15	0xbe8f642a	-0.28006107
16	0xbe6cc24f	-0.23120998
17	0x3f85949b	1.0435976
18	0x3e6f49c4	0.23367983
19	0x3e6e8cc5	0.23295887
20	0x3f8c924b	1.0982145
21	0x3eebebcc	0.46078336
22	0xbf45faae	-0.7733563
23	0x3b4332a3	0.002978482
24	0x3f39b4a2	0.7254125
25	0xbed77080	-0.42078018
26	0x3ebb2aab	0.3655599
27	0xbcede508	-0.029039875
28	0x3fa362f6	1.2764575
29	0xbd947a2a	-0.072498634
30	0x3f8dcd36	1.107825
31	0x3f6a9e28	0.9164758

model.3.weight f4 [32]
0	0x3f4096f8	0.7523036
1	0x3f564c43	0.83710116
2	0x3f392dc9	0.7233549
3	0x3f280a89	0.65641075
4	0x3f487c72	0.7831489
5	0x3f31bfb2	0.6943313
6	0x3f5169c6	0.8180202
7	0x3f0b4a8a	0.5441061
8	0x3f30124f	0.68777937
9	0x3f11037d	0.5664595
10	0x3f2a3cde	0.66499126
11	0x3f67b09f	0.9050388
12	0x3f348ce3	0.70527476
13	0x3f27729f	0.6540927
14	0x3f3033e2	0.68829167
15	0x3ec2a255	0.38014475
16	0x3f080b4b	0.5314223
17	0x3f5c181d	0.85974294
18	0x3f387f5f	0.7206935
19	0x3f34e80f	0.70666593
20	0x3f82e891	1.0227224
21	0x3f149bdf	0.5805034
22	0x3e9f4357	0.31106064
23	0x3f0d0354	0.55083203
24	0x3f59de4d	0.8510483
25	0x3f0c857f	0.548912
26	0x3f421ea3	0.75828
27	0x3f6f8a0b	0.9357001
28	0x3f10c460	0.56549644
29	0x3f519989	0.818749
30	0x3f203c49	0.6259199
31	0x3f35e8c5	0.71058303

model.3.bias f4 [32]
0	0xbc1546c1	-0.009111107
1	0x3ea26c0f	0.31723067
2	0x3f222e59	0.6335197
3	0xbf051db4	-0.5199845
4	0x3d078683	0.033087265
5	0x3e5b4eb9	0.21416749
6	0x3d98f4eb	0.074685894
7	0x3e72635d	0.23670717
8	0x3eddb86d	0.43304768
9	0x3f053085	0.5202716
10	0x3ea4d57f	0.32194135
11	0xbc84f818	-0.016231582
12	0x3d99635f	0.07489657
13	0x3eb51ba3	0.35372648
14	0x3eab1eaf	0.33421847
15	0xbee3cc0b	-0.4449161
16	0x3e6219db	0.22080176
17	0xbd6c5b93	-0.05770452
18	0xbcc4e6cf	-0.02403584
19	0x3de25e8f	0.11053192
20	0x3cc0f308	0.023553386
21	0x3e82d5ae	0.2555365
22	0xbe84827b	-0.258808
23	0xbea7bc38	-0.32760787
24	0x3dee482e	0.11634861
25	0xbd4655ec	-0.048421785
26	0xbcbfab47	-0.023397101
27	0x3e3459be	0.17612359
28	0x3eeb8e9b	0.46007237
29	0xbd313f8a	-0.043273486
30	0xbd479b51	-0.048732106
31	0x3e41a0f0	0.18909049

model.3.running_mean f4 [32]
0	0x3f9f58cb	1.2448972
1	0x3eed19e9	0.4630883
2	0x3f60f566	0.8787445
3	0x3f34462c	0.70419574
4	0x3f822c6f	1.016981
5	0x3f5b8beb	0.8576037
6	0x3f1b3478	0.60626936
7	0x3f052271	0.5200568
8	0x3f843616	1.0329006
9	0x3ef86cf0	0.48520613
10	0x3ee91bc0	0.45528984
11	0x40023f97	2.0351312
12	0x3e6ac225	0.22925623
13	0x3f081b60	0.5316677
14	0x3dc188ba	0.09449907
15	0x3dc6e166	0.0971096
16	0x3ec791f7	0.3897855
17	0x3fda4bc1	1.7054368
18	0x3f448bfd	0.76776105
19	0x3f6959a5	0.9115241
20	0x3fcec78e	1.6154649
21	0x3f80c9a8	1.0061541
22	0x3d3fe527	0.046849396
23	0x3ef7d7da	0.4840687
24	0x3fe04618	1.7521391
25	0x3db1298c	0.086505026
26	0x3f8eae99	1.1147033
27	0x3ee1405e	0.4399442
28	0x401ed73c	2.4818869
29	0x3efac9c3	0.48982057
30	0x400e3865	2.222192
31	0x3fef759d	1.8707768

model.3.running_var f4 [32]
0	0x3f420358	0.7578635
1	0x3f16df05	0.5893405
2	0x3f9d1529	1.2272083
3	0x3f15225d	0.5825556
4	0x3f898be2	1.0745814
5	0x3f775801	0.9661866
6	0x3f221081	0.6330643
7	0x3ee653da	0.4498585
8	0x3fb4b67b	1.4118189
9	0x3ee40bee	0.44540352
10	0x3f018da8	0.50606775
11	0x3f07cf6b	0.5305087
12	0x3e764fd1	0.24053885
13	0x3ed42053	0.4143091
14	0x3e010089	0.1259786
15	0x3dc8ed6a	0.09810908
16	0x3ef16fa4	0.47155488
17	0x3ecba4aa	0.39774066
18	0x3f16430e	0.5869607
19	0x3f992e71	1.1967298
20	0x3eacd6dd	0.33757678
21	0x3f3ab3b8	0.7293048
22	0x3d0755a2	0.03304065
23	0x3eb77973	0.35834846
24	0x3ff32ddd	1.8998371
25	0x3d98207a	0.074280694
26	0x3fd9999b	1.7000002
27	0x3eacfe5b	0.33787808
28	0x3f510128	0.8164239
29	0x3f31e837	0.69494957
30	0x3ec21981	0.37910083
31	0x3fc573a3	1.5425915

model.4.weight f4 [32, 32]
0	0x3e5ce38d	0.21571179
1	0xbf4549a6	-0.77065504
2	0x3e95e190	0.29273653
3	0x3eea3aef	0.45748088
4	0xbd2237bd	-0.039603937
5	0xbe2cd00d	-0.1687624
6	0x3f089af6	0.5336145
7	0x3f17ef39	0.593494
8	0x3e8d8da4	0.27647126
9	0x3eb3053b	0.34964928
10	0xbf968caa	-1.1761677
11	0xbe863a6c	-0.26216447
12	0x3f1d0a91	0.6134425
13	0xbe8a3d7b	-0.2700003
14	0x3f3bcc2f	0.73358434
15	0xbef7dcd4	-0.48410666
16	0x3f9a1247	1.2036828
17	0xbf0dc426	-0.55377424
18	0xbf3444ff	-0.7041778
19	0xbe0d0b1e	-0.13773772
20	0x3f432cee	0.7624043
21	0xbdbbb748	-0.091658175
22	0xbea032f0	-0.31288862
23	0x3f26bc0a	0.65130675
24	0x3f1508c6	0.5821651
25	0x3cc89525	0.02448518
26	0xbe4f6b9c	-0.20255893
27	0xbf4b7352	-0.7947284
28	0xbe7d5a34	-0.24741441
29	0xbf6b4edd	-0.9191721
30	0x3f26dc42	0.65179837
31	0x3e1fc1a4	0.15601212
32	0xbd2fa81a	-0.042884924
33	0xbee0eebb	-0.43932137
34	0x3f6ceab2	0.92545617
35	0x3eedf39a	0.46474916
36	0xbefd6882	-0.49493796
37	0xbf8f23b8	-1.1182775
38	0x3ebc9cf6	0.36838502
39	0xbe510491	-0.20411898
40	0x3f359ef1	0.7094565
41	0xbf468953	-0.7755329
42	0xbe85f0ab	-0.26160178
43	0xbec3c489	-0.38235882
44	0x3e9d9df0	0.3078456
45	0x3f166620	0.5874958
46	0x3d33e6f0	0.04392141
47	0x3df64521	0.12024904
48	0x3eb240ff	0.34815213
49	0x3eb07164	0.3446151
50	0xbe788baf	-0.24272035
51	0xbea4f470	-0.3221774
52	0x3cc6e723	0.024280136
53	0x3e63bfd1	0.22241141
54	0xbf425c06	-0.75921667
55	0x3ebfa71a	0.37432176
56	0x3ec3b87c	0.38226688
57	0x3ec493e5	0.38394085
58	0xbe96657d	-0.29374304
59	0x3d7ad94e	0.061242394
60	0xbf0302b8	-0.51176023
61	0xbf1b247e	-0.6060256
62	0x3f063c95	0.5243619
63	0xbfc59297	-1.5435361
64	0xbf902c0f	-1.1263446
65	0xbe12cf46	-0.14336881
66	0xbf0b1644	-0.5433085
67	0x3f53c3e0	0.82720757
68	0x3f02eee3	0.5114576
69	0xbdb5d0c1	-0.08877707
70	0x3e39ddef	0.18151067
71	0x3f53e4d2	0.8277103
72	0xbf670a85	-0.90250427
73	0xbe905dd7	-0.28196594
74	0xbebfe5c1	-0.37479976
75	0xbf60acbd	-0.8776358
76	0xbd8b9a42	-0.06816532
77	0xbe56d05f	-0.20977925
78	0xbe4c940c	-0.1997835
79	0xbf0ef454	-0.55841565
80	0x3f1bef8d	0.609124
81	0xbe546570	-0.2074182
82	0x3ebab8a3	0.36468992
83	0x3e3115de	0.17293498
84	0xbefa4339	-0.48879412
85	0x3f47aab5	0.77994853
86	0xbe9b8360	-0.3037367
87	0xbcddb053	-0.027061617
88	0x3ee360ad	0.44409695
89	0xbd86df96	-0.065856144
90	0xbdfcfb37	-0.12352603
91	0xbf3ffb18	-0.74992514
92	0x3f7f8676	0.99814546
93	0xbd8ca1ff	-0.06866836
94	0x3ef6dc78	0.4821508
95	0xbd84f322	-0.064916864
96	0x3f1eeefa	0.620834
97	0xbf0e5474	-0.55597615
98	0xbccf324b	-0.025292536
99	0xbf5c2713	-0.8599712
100	0x3ea3cf7d	0.31994238
101	0xbe88beae	-0.26707977
102	0x3d9c1ede	0.07623075
103	0x3eadce9a	0.33946687
104	0x3e875ee7	0.26439592
105	0x3f145ea7	0.5795693
106	0x3d8d5515	0.06900994
107	0xbd463c82	-0.04839755
108	0xbef64a78	-0.4810369
109	0xbd6bce06	-0.057569526
110	0x3df79638	0.12089199
111	0x3ef1bf3d	0.47216216
112	0x3cac984a	0.02106871
113	0xbde88662	-0.113537565
114	0xbf0c4ffe	-0.5480956
115	0x3ea3bc80	0.31979752
116	0x3eea79df	0.45796105
117	0x3e336c14	0.17521697
118	0x3e81a0c4	0.25317967
119	0x3ca1d6eb	0.019755801
120	0x3e2ea440	0.17054844
121	0x3eb90b78	0.36141562
122	0xbeb761bd	-0.35816756
123	0x3db5f36a	0.08884318
124	0xbfd6f1d4	-1.679255
125	0x3e892111	0.2678304
126	0xbec1d305	-0.37856308
127	0xbed246d3	-0.4106966
128	0x3d70d633	0.058798026
129	0xbed7946e	-0.4210543
130	0x3ea429df	0.32063195
131	0xbf1d0868	-0.6134095
132	0xbf9ee099	-1.2412292
133	0x3f92235f	1.1417044
134	0x3f98ca71	1.193678
135	0x3f246ab0	0.6422529
136	0x3eaeb1ae	0.34119934
137	0x3e4166d2	0.18886879
138	0xbe7a817c	-0.24463457
139	0xbec38a94	-0.38191664
140	0x3eb7433d	0.35793486
141	0xbd0f6696	-0.035009943
142	0xbf6b4750	-0.9190569
143	0x3ed95362	0.4244643
144	0x3e7e5521	0.24837162
145	0xbe62df54	-0.22155505
146	0x3eafd188	0.34339547
147	0xbf19d7f5	-0.6009515
148	0xbf9870eb	-1.190946
149	0xbdcc7471	-0.09983147
150	0x3ea799f8	0.32734656
151	0xbf8a0247	-1.0781945
152	0x3ed746e4	0.42046273
153	0x3edc132d	0.4298338
154	0x3b8bc3be	0.0042652776
155	0xbf23a980	-0.6393051
156	0xbed04928	-0.40680814
157	0xbd09a57a	-0.033605076
158	0x3e5d2646	0.21596631
159	0xbdb463da	-0.08808108
160	0xbfa58c16	-1.2933376
161	0xbd568d5d	-0.05238091
162	0xbcef89a3	-0.029240435
163	0x3ebefb14	0.37300932
164	0x3e260188	0.16211522
165	0xbdb4374d	-0.0879961
166	0xbda9c836	-0.0829014
167	0x3f5a3e7c	0.85251594
168	0xbf8ada78	-1.0847921
169	0x3e7fd62f	0.24984048
170	0xbe2c501e	-0.16827437
171	0x3e068e74	0.13140279
172	0xbc332058	-0.010933004
173	0xbdaba924	-0.083818704
174	0x3f57efae	0.843501
175	0x3f9e854f	1.2384433
176	0x3e691dd0	0.22765279
177	0x3de0c13e	0.10974358
178	0xbd6b8d5e	-0.057507865
179	0x3f61d848	0.88220644
180	0x3e841446	0.25796717
181	0xbe919fa4	-0.2844211
182	0x3d2fac1b	0.042888742
183	0x3ef8a8e7	0.48566362
184	0x3e88411e	0.2661218
185	0xbf2770ad	-0.65406305
186	0x3de6fa77	0.11278241
187	0xbe80c1b7	-0.25147793
188	0xbeaf0fa4	-0.3419162
189	0xbdb7b681	-0.08970357
190	0x3eec6215	0.4616858
191	0xbf53e242	-0.8276712
192	0xbcffa760	-0.03120774
193	0x3f2e73e4	0.68145585
194	0x3e0b91b9	0.13629808
195	0xbf427a69	-0.75968033
196	0xbed3a5bb	-0.4133738
197	0xbe66d335	-0.22541507
198	0xbfa7f665	-1.3122069
199	0xbf8d51bd	-1.104057
200	0x3e9330bb	0.28748116
201	0xbf566848	-0.8375287
202	0xbf3511d6	-0.7073034
203	0x3e094e1b	0.13408701
204	0xbe1250b6	-0.14288601
205	0xbf4c3433	-0.7976715
206	0xbe86a6c9	-0.26299122
207	0xbd0c875e	-0.034308784
208	0x3f0152dc	0.5051706
209	0x3ed39188	0.4132197
210	0x3deb1e71	0.114804156
211	0x3e7f076c	0.24905175
212	0x3f0cfc1e	0.550722
213	0xbf44f2e9	-0.7693315
214	0xbf0a1e28	-0.53952265
215	0x3e93650f	0.2878804
216	0xbf32dadc	-0.698652
217	0xbe3d065f	-0.18459462
218	0xbe4161a3	-0.18884902
219	0xbddc6812	-0.10762037
220	0x3e34938d	0.17634411
221	0xbee3ca98	-0.44490504
222	0x3ecc4187	0.39893743
223	0x3f653e5a	0.89548266
224	0xbed4da70	-0.41572905
225	0x3d28b2f0	0.041186273
226	0xbeebcfa6	-0.4605686
227	0xbc886771	-0.016650887
228	0xbf2407b0	-0.6407423
229	0x3eabe6ef	0.33574626
230	0x3f0b7d7d	0.54488355
231	0xbe399a03	-0.18125157
232	0x3e8cc85e	0.27496618
233	0xbeab59c8	-0.33466935
234	0x3ea52b55	0.32259622
235	0x3ea1d281	0.31605914
236	0x3a17a314	0.00057844934
237	0xbf142fe2	-0.57885563
238	0xbe234a78	-0.15946376
239	0x3eeb253b	0.45926842
240	0x3e466713	0.19375257
241	0xbc0011be	-0.00781673
242	0x3e905fa7	0.28197977
243	0x3f6baa7f	0.9205703
244	0x3eff542a	0.498689
245	0xbf3bea5a	-0.7340447
246	0x3eb30970	0.34968138
247	0x3f09307d	0.5358961
248	0x3ef2f960	0.47455883
249	0x3ec1d914	0.3786093
250	0x3f3d9731	0.74058825
251	0xbf2e3ec5	-0.6806453
252	0x3e424b33	0.18973999
253	0x3e7d827d	0.24756809
254	0xbe639f33	-0.22228698
255	0xbf3d8ada	-0.74039996

model.4.bias f4 [32]
0	0x3bf3dc6f	0.007442049
1	0x3aa3c3eb	0.0012494301
2	0x3f0d36bf	0.5516166
3	0xbf84c0eb	-1.0371374
4	0xbe523852	-0.20529297
5	0xbeb97a11	-0.36225942
6	0x3eb175cb	0.3466018
7	0xbf321fe3	-0.69579905
8	0xbd479fbd	-0.048736323
9	0xbebaa313	-0.3645254
10	0x3f9f3646	1.2438438
11	0x3f92fd26	1.1483505
12	0xbf732eae	-0.949931
13	0xbeeccd4c	-0.4625038
14	0x4061bb93	3.5270736
15	0xbf220262	-0.63284886
16	0xbc51e2f6	-0.012810459
17	0xbbc51ab7	-0.0060151475
18	0xbf7214e8	-0.9456315
19	0xbf2f3f6b	-0.68456143
20	0x3f21866f	0.63095754
21	0xbf61d6f5	-0.88218623
22	0xbf60e6d7	-0.87852234
23	0xbe90d39b	-0.28286442
24	0x3e525fea	0.20544401
25	0xbf0953bb	-0.5364339
26	0x3e26e10e	0.16296789
27	0x4033b9a4	2.8082056
28	0xbe8c482f	-0.27398822
29	0x3d9d1bf8	0.0767135
30	0x3ea51f7b	0.3225058
31	0x3e73b8e5	0.23801

model.6.weight f4 [32]
0	0xbfbcea9d	-1.4759098
1	0x3f9767d8	1.1828566
2	0x3fc1d16a	1.5142033
3	0x3fdf50e4	1.7446561
4	0x3fb6f8dd	1.4294697
5	0x3fd4ad16	1.6615322
6	0x3fcbf316	1.5933559
7	0x400379e6	2.054315
8	0x3f9d0520	1.2267189
9	0x3faf5a6d	1.3699471
10	0x3fa38216	1.2774074
11	0x3fd2e5fa	1.6476433
12	0x3faf694e	1.3704011
13	0x3faa9572	1.3326857
14	0x3fca8a9f	1.5823554
15	0x3fd6dcf8	1.6786184
16	0x3f90f04a	1.132333
17	0x3ff00b01	1.8753358
18	0x3f788535	0.9707826
19	0x3fb9bc1d	1.4510533
20	0x3f9733d5	1.1812693
21	0x3fbdf49d	1.4840275
22	0x3faa5cb1	1.3309537
23	0x3fa6b66e	1.3024423
24	0x3fc92201	1.5713502
25	0xbf8b7d62	-1.0897639
26	0x3fcebd75	1.6151568
27	0x3ff6e09d	1.9287297
28	0x3fa06cf1	1.2533246
29	0x3fac7e12	1.3475974
30	0x3fe00836	1.7502506
31	0x3fa2b974	1.2712846

model.6.bias f4 [32]
0	0xbec221ec	-0.37916505
1	0x3dca40c1	0.09875632
2	0x3ce063b7	0.027391298
3	0x3eb60edd	0.35558215
4	0x3d976ad2	0.07393421
5	0x3e9fe658	0.31230426
6	0xbcd8bcb2	-0.026457164
7	0x3eb36d1e	0.35044187
8	0x3e199c69	0.15001072
9	0x3e8a689e	0.27032942
10	0xbdb5c789	-0.08875949
11	0x3d0b1a6c	0.033960745
12	0x3e87bc14	0.2651068
13	0x3dc703e9	0.09717543
14	0x3db60f24	0.088896066
15	0x3ddbf226	0.107395455
16	0x3e09bfdc	0.13452095
17	0x3ed604de	0.41800588
18	0x3e75e38c	0.24012583
19	0x3cffe90f	0.03123906
20	0x3e208140	0.15674305
21	0x3eaa9c27	0.3332226
22	0x3ea206c1	0.31645778
23	0x3e4d2669	0.20034184
24	0xbe29efb1	-0.16595341
25	0xbe736ffd	-0.23773189
26	0x3dab6e8f	0.08370697
27	0xbd1c64bd	-0.03818201
28	0x3cfaca7f	0.030614136
29	0x3cea3bf8	0.028593048
30	0x3d6dbc01	0.058040623
31	0x3eb5032b	0.3535398

model.6.running_mean f4 [32]
0	0x3f83c3cd	1.0294129
1	0x3f0d7020	0.55249214
2	0x3f3e99bd	0.74453336
3	0x3e21b4d0	0.1579163
4	0x3fa558a1	1.2917672
5	0x3e8c8e1f	0.2745218
6	0x3f762a45	0.9615825
7	0x3e4a92a5	0.19782503
8	0x3f15ad9c	0.5846803
9	0x3e062405	0.13099678
10	0x405ed4dd	3.4817421
11	0x3fd3472a	1.6506093
12	0x3ddf324f	0.108982675
13	0x3e95c263	0.29249868
14	0x40849def	4.144279
15	0x3f6b7ed1	0.9199038
16	0x3f7744b0	0.96589184
17	0x3f02e5ad	0.5113171
18	0x3e0aede0	0.13567305
19	0x3ea5c7b3	0.3237892
20	0x3fb43f13	1.4081749
21	0x3e76b565	0.24092634
22	0x3de0f4fc	0.10984227
23	0x3ef35a6d	0.47529927
24	0x3f862537	1.0480107
25	0x3e81062d	0.25200024
26	0x3fd3a5d6	1.6534984
27	0x408629df	4.192611
28	0x3ecda86d	0.4016756
29	0x3f825df0	1.0184917
30	0x3f9357d9	1.1511184
31	0x3f1051a5	0.5637458

model.6.running_var f4 [32]
0	0x402469dc	2.5689611
1	0x3f4dae64	0.80344224
2	0x3f9355f4	1.1510606
3	0x3e69ea22	0.22843221
4	0x405b7c33	3.4294555
5	0x3f5b72e9	0.85722214
6	0x3fb89971	1.4421827
7	0x3e9aa753	0.30205783
8	0x3f47dca2	0.78071034
9	0x3e9425e4	0.28935158
10	0x40347392	2.8195539
11	0x4004ae7f	2.0731504
12	0x3e8a5e40	0.27025032
13	0x3e923265	0.28554073
14	0x4065f99b	3.5933597
15	0x3fae2e36	1.3607852
16	0x3fc7ff55	1.5624796
17	0x3f94f4b6	1.163718
18	0x3e832069	0.25610664
19	0x3eca1489	0.39468792
20	0x4031baa3	2.7770164
21	0x3f4b1e4d	0.7934311
22	0x3e3dc3df	0.1853175
23	0x3f5f74fe	0.8728789
24	0x3fe24c94	1.767962
25	0x3f1ba364	0.6079619
26	0x40443ca1	3.0662005
27	0x406afc2c	3.6716413
28	0x3f0a59cc	0.5404327
29	0x3fa41957	1.2820233
30	0x3ffdec94	1.9837823
31	0x3f9ac13f	1.2090224

model.7.weight f4 [4, 32]
0	0x3f58591f	0.8451099
1	0x3ee5721b	0.44813618
2	0x3fb82cc7	1.4388665
3	0x3f458ce8	0.7716813
4	0x3f8fba1c	1.1228671
5	0x3f3238ac	0.69617724
6	0x3fb5015b	1.4141039
7	0xbfc0ca86	-1.5061805
8	0xbf04ff3a	-0.51951945
9	0x3f8b3ad6	1.087733
10	0x3e379d7a	0.17931166
11	0xbe45b955	-0.1930898
12	0xbe6ca02e	-0.23107979
13	0x3fab400d	1.3378922
14	0xbfbb0f87	-1.4614114
15	0x3f8137e6	1.0095184
16	0x3faa815d	1.3320729
17	0xbf320e1d	-0.69552785
18	0xbeb63a5d	-0.35591403
19	0xbed6809c	-0.41894996
20	0xbf7c2e10	-0.98507786
21	0x3f946eb5	1.1596285
22	0xbf126038	-0.5717807
23	0xbec5c308	-0.3862536
24	0xbfa673a9	-1.3004047
25	0x3efd6580	0.494915
26	0xbf0f3fa9	-0.5595651
27	0x3f281b59	0.6566673
28	0xbf70e680	-0.94101715
29	0xbe15adae	-0.14617035
30	0xbf3aa055	-0.729009
31	0xbf0eb7d3	-0.55749243
32	0x3fc811b4	1.5630403
33	0x3f608ee2	0.8771802
34	0x3f45a3f1	0.7720328
35	0x3f0494bd	0.51789457
36	0xbfc60a4b	-1.5471891
37	0x3fd13f5c	1.6347461
38	0x3da3ea30	0.08003652
39	0x3f24dae7	0.6439652
40	0x3fb08294	1.3789849
41	0x3f647f53	0.8925678
42	0x3fb3b78d	1.404039
43	0xbfc3ae3b	-1.5287546
44	0xbe82b071	-0.2552524
45	0x3e391425	0.18074091
46	0x3f39eeaf	0.7262983
47	0x3fcccbf3	1.599974
48	0x3f4bbf88	0.7958913
49	0x3f296530	0.66170025
50	0xbf4a9fde	-0.7915019
51	0x3ededa3e	0.4352588
52	0xbf6092d2	-0.8772403
53	0xbf3b36fc	-0.73130774
54	0xbe48e975	-0.19620307
55	0xbdbb7ce9	-0.09154684
56	0x3f704143	0.9384958
57	0x3f0aa501	0.54158026
58	0x3fac50ac	1.3462119
59	0xbf0bf301	-0.5466767
60	0x3ebfe106	0.37476367
61	0xbf7ac7d9	-0.97961193
62	0xbf779e21	-0.9672566
63	0x3bb9b95a	0.0056678476
64	0xbea709dc	-0.3262471
65	0x3ef04009	0.46923855
66	0x3ed1c97e	0.4097404
67	0xbd6d3aef	-0.05791753
68	0xbed768e4	-0.42072213
69	0x3f0fd825	0.56189185
70	0x3db61a4a	0.08891733
71	0xbddbea59	-0.10738058
72	0xbe5a1715	-0.21297868
73	0xbe991554	-0.29899085
74	0xbe8c2497	-0.27371666
75	0xbdc70f2a	-0.09719689
76	0x3edd90ab	0.43274435
77	0xbdb494fb	-0.08817478
78	0x3da6fc4e	0.08153592
79	0xbe1c9b06	-0.15293512
80	0xbe9fb009	-0.31188992
81	0xbdf04b00	-0.11733055
82	0xbf15c28d	-0.58499986
83	0x3e94c388	0.29055429
84	0x3e844a2f	0.25837848
85	0xbd5acd2e	-0.05341833
86	0xbef9b468	-0.48770452
87	0xbeeb9e4a	-0.46019202
88	0x3e09cadc	0.13456291
89	0xbf1cdc5b	-0.61273736
90	0x3de66ff1	0.1125182
91	0xbeea4072	-0.45752293
92	0x3e9b972c	0.30388772
93	0x3ec2949c	0.38004005
94	0x3e6901d8	0.2275461
95	0xbea39eec	-0.31957185
96	0xbed4b204	-0.41542065
97	0xbe526959	-0.20548
98	0x3e864d26	0.26230735
99	0xbe179296	-0.14802012
100	0xbcfad897	-0.030620856
101	0xbf17abb4	-0.59246373
102	0xbb9530c7	-0.004552934
103	0xbd2f5fe5	-0.04281606
104	0x3e0fb4eb	0.14033858
105	0x3efadfd4	0.48998892
106	0xbf38286d	-0.71936685
107	0xbda6205b	-0.0811164
108	0x3f5fd873	0.8743965
109	0x3dc972b4	0.09836331
110	0x3e4094b9	0.18806733
111	0xbdceb6a8	-0.10093433
112	0xbf2e8797	-0.68175644
113	0xbf0d10c9	-0.5510374
114	0x3db61aa2	0.088917986
115	0xbd9e6f58	-0.07736081
116	0xbe6d1ddb	-0.2315592
117	0xbf477803	-0.779175
118	0xbd5ac802	-0.0534134
119	0x3ee479c5	0.44624153
120	0x3eb124ac	0.3459829
121	0xbe83b34d	-0.25722733
122	0x3f15ebe8	0.5856309
123	0x3f2630fa	0.6491848
124	0xbe896673	-0.26835975
125	0x3e9dcf96	0.30822438
126	0xbe3871e1	-0.18012191
127	0x3f265817	0.64978164

model.7.bias f4 [4]
0	0x3dcfee5a	0.10152884
1	0x3e79b8be	0.2438688
2	0x3da744e3	0.08167436
3	0x3e1d766a	0.15377203
